detection_models/model_upgrade.pt (torch, 14023 bytes, 19 tensors)

model.lstm.weight_ih_l0 f4 [32, 2]
000000 3c e3 a6 3e 49 67 23 3e 08 6f 3f bd 32 ab 75 be
       0.3259524 0.15957369 -0.046736747 -0.23991087
000010 30 ad 94 3f 5e da 92 3e 31 ff b5 3e 29 84 0f 3f
       1.1615353 0.28682226 0.35546258 0.56061035
000020 83 4f cf 3e 0c 3a c1 be 6e d2 db 3d d5 1f ad be
       0.4049035 -0.377396 0.10733496 -0.33813348
000030 fa 9f 65 3e a5 b2 61 3e a9 c6 ca 3f 4c da 41 3f
       0.22424307 0.22040804 1.5841876 0.7572372
000040 fe ff 99 3d 2b 43 c7 be 0a 50 b0 3d bd 35 d2 3e
       0.0751953 -0.38918433 0.08609016 0.41056624
000050 dd 15 c4 3e 98 93 ac bd 0b a7 70 3e 0b d3 42 3e
       0.3829793 -0.08426589 0.23501222 0.19025819
000060 97 60 a4 3c 38 eb 9a be 3e 38 4d be 7e 75 1f 3d
       0.020065589 -0.30257583 -0.20040986 0.03893041
000070 24 34 24 bf ea af a4 be 31 c4 54 3f 1a 1b 6e 3f
       -0.6414206 -0.32165462 0.83111864 0.93010104
000080 b0 26 03 bf 63 d5 0b be 26 43 ea 3c 1b cc d6 3e
       -0.5123091 -0.1365562 0.028596472 0.41952595
000090 0c 40 84 bf 90 f6 54 be 17 8a 28 bf 75 2b 2c bd
       -1.0332046 -0.20797181 -0.6583571 -0.04203363
0000a0 1a ff ad 3e 30 ef 2b 3f f2 60 0d be cf 8b e2 be
       0.3398369 0.67161846 -0.13806513 -0.4424729
0000b0 6d 2d 5d bf 68 9e e3 3d d6 1d fd 3f 25 dc c3 3e
       -0.8639744 0.11114198 1.977473 0.38253894
0000c0 d1 dc fe 3e 4b 0a 20 3f 53 37 fb be 62 d6 e1 3c
       0.49777845 0.62515706 -0.49065647 0.027568046
0000d0 0c 02 8a 3f 34 0f 38 3f 4f 14 a3 3f 81 8b 57 3f
       1.0781875 0.718982 1.2740573 0.8419724
0000e0 7e ee 0d 3c da e0 4a be 25 07 e2 3e 76 aa 12 be
       0.008662818 -0.19812337 0.44146076 -0.14322838
0000f0 91 03 dc bd ed 36 de bd e1 51 da 3f ff ab b2 3f
       -0.10742868 -0.1085032 1.7056237 1.3958739

model.lstm.weight_hh_l0 f4 [32, 8]
000000 35 41 8a 3e 86 8b 63 bd 54 4d ad be b5 80 b8 be
       0.27002874 -0.05555298 -0.3384806 -0.36035696
000010 7e c1 33 be 23 e5 0b bd de 1e b5 3d 9b 47 c6 bd
       -0.1755428 -0.03415407 0.08843778 -0.096816264
000020 34 05 1d 3d 8f 68 c9 be 33 ad 26 bc 36 f6 b4 be
       0.03833504 -0.39337584 -0.01017313 -0.35344094
000030 51 57 7a 3d e5 09 1c be 5f c0 59 3e 45 c5 9b 3e
       0.061118428 -0.1523815 0.2126479 0.30423942
000040 47 58 93 bf ee 72 e6 3d ef 12 0e 3e 85 c4 22 bf
       -1.1511315 0.1125239 0.1387441 -0.63581115
000050 5c db 3d bf f1 51 8e be 8b 53 99 3e d7 d2 16 3e
       -0.7416284 -0.2779689 0.2994655 0.14728867
000060 8f 78 be 3e 27 92 43 3e 18 9b d2 3e e1 cf 29 be
       0.37201354 0.19098721 0.41133952 -0.16583206
000070 80 a9 e7 be d9 51 ae 3e 08 00 d0 3d de cd 17 be
       -0.45246506 0.3404682 0.10156256 -0.14824626
000080 76 be 69 be b0 76 4c be 8e 06 21 3c 43 7e a8 be
       -0.22826561 -0.1996715 0.009828223 -0.3290883
000090 15 5d ce bd 63 1f 10 3f be 7e c1 be ff a7 e9 3e
       -0.10076348 0.5629789 -0.3779201 0.45635983
0000a0 92 76 d8 3e 40 98 79 be 2d bf 99 be 7c 28 b9 bd
       0.42277962 -0.24374485 -0.30028668 -0.09040925
0000b0 a8 4d 9f 3e a4 de 50 3d 27 19 f2 be 0a cb df be
       0.31113935 0.050993577 -0.47284815 -0.43709594
0000c0 c4 7d a6 be a4 82 ea 3e 7e fb 59 3e e2 8e ed be
       -0.32517827 0.45802796 0.21287343 -0.46398073
0000d0 5c 5e c8 be 2a 21 d8 be ef 13 ac 3e 66 c1 d3 3e
       -0.3913449 -0.42212802 0.33608958 0.4135849
0000e0 90 e7 5b bf 25 c8 e8 3e ad f4 b4 bd 6d 9e 4a bf
       -0.8590021 0.45465198 -0.08835731 -0.7914799
0000f0 90 e1 3b bf 42 a3 5e 3e a7 d4 23 3f 9c b1 aa 3e
       -0.73391056 0.21741965 0.63996357 0.3333863
000100 89 86 e2 3a 0f 91 85 be 31 16 8b be c7 38 97 be
       0.0017282526 -0.26087233 -0.27165368 -0.29535505
000110 6e 40 86 bd a3 bf fa bd 2f 0c 80 be 51 f6 9e 3c
       -0.06555258 -0.12243583 -0.25009295 0.019404562
000120 e8 13 45 be c6 33 3c be 42 80 ab 3d 71 d2 1f 3e
       -0.19245875 -0.18379125 0.083740726 0.15607621
000130 01 f3 2c 3e 66 19 1a 3c 43 fd 9f 3e ff 24 8b be
       0.16889574 0.0094054695 0.3124791 -0.27176663
000140 91 bd 27 be 38 14 fb be 7b 3d d1 3d 47 a6 af 3e
       -0.16380908 -0.49038863 0.102168046 0.34306547
000150 03 9e 8e 3c ee b7 de 3d 17 f1 bb 3d 89 21 f7 be
       0.01740933 0.108749256 0.091768436 -0.48267773
000160 27 89 4d 3e 8f 67 fa bc a7 90 62 3f 9e 34 9c bd
       0.2007185 -0.030566959 0.8850197 -0.076272234
000170 a9 7d 34 bd 24 1b 4f 3e 4d e7 4e be e1 83 28 3d
       -0.04406515 0.20225197 -0.20205422 0.041141395
000180 27 23 7a be 3a 6c e7 be 27 9d f0 3e 55 1b ca bc
       -0.24427472 -0.45199758 0.46994898 -0.024671236
000190 e4 99 41 3d c5 37 9f 3e 6b 62 b6 3e 8b 9b f0 be
       0.047265902 0.31097236 0.35621962 -0.4699367
0001a0 f0 5b d8 bd b0 fa ba be 82 0d b3 3b 01 b9 59 bd
       -0.10564411 -0.36519384 0.0054642567 -0.05315495
0001b0 29 36 92 3e af e8 81 3e eb e4 91 3d 22 ee f9 bd
       0.28556946 0.25372836 0.07123741 -0.12203623
0001c0 05 f6 26 be 31 85 64 be f8 cd 9a 3e d6 00 4d 3e
       -0.16304787 -0.22316433 0.30235267 0.2001985
0001d0 33 6a e8 bd 28 d0 c5 3e 06 e6 21 be fc 1b 0c be
       -0.11348381 0.38635373 -0.15810403 -0.1368255
0001e0 f2 a4 61 be ec 1f 38 bf f5 dd 63 bd a8 dc d7 3e
       -0.22035578 -0.7192371 -0.055631597 0.42160535
0001f0 8d c1 48 bf 11 00 55 3f 75 53 c4 be 8d 4f 07 bd
       -0.78420335 0.83203226 -0.38344923 -0.03303485
000200 fb 6f 78 3e 0d ae df 3e 5d a9 41 3e b8 1b e4 3c
       0.24261467 0.43687478 0.18912263 0.027845249
000210 f7 73 c1 be 58 b4 ad be e1 07 00 3f 10 04 20 3f
       -0.37783787 -0.33926654 0.5001202 0.625062
000220 4f 9e 94 3e 28 cb 2e bd 32 bc 76 bc 23 9d 5e be
       0.2902703 -0.042674214 -0.015059518 -0.2173963
000230 77 16 64 bd 60 90 a7 be cb bc 99 bb e2 06 d0 3e
       -0.055685487 -0.32727337 -0.0046916953 0.4063025
000240 78 75 92 bd 5d 6f 12 3e 97 5e 0d be fd e2 e0 3d
       -0.07151312 0.14300294 -0.13805614 0.109807946
000250 96 9f 87 bd 63 e5 51 bc 7d 22 60 bd bf 6d d3 3c
       -0.066222355 -0.012811038 -0.05472039 0.025809167
000260 3a df c7 be eb 73 9d 3e b4 13 d6 be c6 6e 86 3d
       -0.39037496 0.307525 -0.41811907 0.06564097
000270 d8 ea fe bd 28 1e bb 3e 47 74 e2 bc d3 44 6b 3e
       -0.12447137 0.36546445 -0.027643336 0.22975473
000280 bf e9 87 3e 7e 40 4a 3f 0c 61 3f 3e a3 81 46 3e
       0.26545522 0.7900466 0.18689364 0.1938539
000290 9c 13 01 3f b0 81 4a bf f1 3c 7c 3e 32 17 88 3e
       0.50420547 -0.7910414 0.24632622 0.26580197
0002a0 69 b7 c7 3d de 2a 09 3f ed 56 f1 bd cb 5f ab be
       0.097517796 0.53581035 -0.11784158 -0.33471522
0002b0 32 ab cc 3e a9 bf 58 bd 79 77 1e be f8 51 92 be
       0.39974362 -0.052917156 -0.15475263 -0.28578162
0002c0 dc 44 59 be 0c 8a e3 bd 22 f1 42 3e 24 b1 f6 3c
       -0.21217674 -0.11110315 0.19037297 0.030113764
0002d0 a7 71 be 3d 0d 82 ab 3b 35 e9 82 be f0 62 a8 3e
       0.09299021 0.005234009 -0.25568548 0.32887983
0002e0 76 3b b0 bd c3 56 f0 be a0 04 49 be ba 21 09 3f
       -0.08605091 -0.46941194 -0.1963067 0.5356709
0002f0 f8 15 b0 bd 9b 9e f3 3e d9 f9 16 3e b7 b0 0b bf
       -0.0859794 0.47581944 0.14743747 -0.5456652
000300 a4 20 85 3d ec 78 52 bd 66 b1 c7 bd 9e 40 ce be
       0.06500366 -0.05138485 -0.09750633 -0.40283674
000310 65 00 6c 3e e0 0e 3b be 2d 04 61 bd b0 2f 52 3d
       0.23047026 -0.18267393 -0.054935623 0.05131501
000320 2e b5 64 be 9c 11 9f be 21 ad 7e 3e 97 3f ec be
       -0.2233474 -0.31068122 0.24870731 -0.46142265
000330 8c a0 b8 3e c0 b0 8f bb 1a f6 02 3e 1d 5f cf 3e
       0.36059988 -0.004385084 0.12789193 0.40502253
000340 86 74 29 bf 2f f1 a8 3e 6e 0b 60 3d c2 f0 95 be
       -0.66193426 0.32996508 0.0546984 -0.29285246
000350 b7 15 81 bf a1 09 8c 3e 9d c8 9d 3e a3 fd 11 3d
       -1.0084752 0.27351096 0.30817118 0.035642277
000360 f9 4e eb 3e 81 a6 2b bc e8 d5 14 3f fb 3f d5 3d
       0.4595869 -0.010476709 0.58138895 0.10412594
000370 f4 6a f1 bd 89 6e d9 3e 25 18 43 3d ce 6d 9b be
       -0.11787978 0.42467144 0.047630448 -0.30357212
000380 ad f1 59 3e 0d c6 9a bd 5b 96 43 bc 85 a3 92 be
       0.21283598 -0.075573064 -0.011937703 -0.2864038
000390 45 33 d7 bc ba 1b 04 bd 68 4b 80 3d 4b 52 5f 3c
       -0.026269564 -0.032253005 0.062643826 0.01363046
0003a0 ec 27 35 be b5 0f 9d be 96 fc 42 3e d0 62 7e be
       -0.1769101 -0.30676046 0.19041666 -0.24842381
0003b0 ac 42 a4 b9 83 73 84 3e 5a 55 97 be 97 ff ab bc
       -0.00031330192 0.25869378 -0.29557306 -0.020995898
0003c0 f4 c7 8a bd 3a 79 40 3e 99 fe 6b 3e 6d 3e 17 bf
       -0.06776419 0.18796244 0.2304634 -0.5907963
0003d0 e5 b7 85 be 1d 00 89 be 7b 1c 0e 3e ce c6 98 3e
       -0.26116863 -0.267579 0.13878052 0.29839176
0003e0 a7 e9 2a bf 5d 95 a4 3e 16 d5 b6 3e 38 d4 41 be
       -0.66762775 0.32145205 0.35709447 -0.18928611
0003f0 41 92 40 bf db 9d 34 be 46 a7 0a 3f 34 0a 0b 3f
       -0.75223166 -0.17638342 0.5416149 0.54312444

model.lstm.bias_ih_l0 f4 [32]
000000 cd 1d 03 3f d5 df 5e bc a4 f2 b1 3f 56 91 ed 3d
       0.5121735 -0.01360317 1.3902173 0.11599986
000010 da 7e 91 3e 77 60 89 3e 90 91 2a 3e 03 34 9c 3f
       0.28417093 0.2683141 0.1665709 1.2203373
000020 81 bf 50 bd 02 e6 57 3e d7 19 14 be 57 d0 8f bc
       -0.050963882 0.21083835 -0.14462982 -0.017555399
000030 f5 9b 46 be 7d e3 07 be 51 a8 c1 bc 28 e0 42 bc
       -0.1939543 -0.13270374 -0.02363983 -0.011894263
000040 88 f8 a9 be 00 5c ef bd 7d 5f 8a 3e 24 eb 8f bd
       -0.33197427 -0.116874695 0.27025977 -0.070272714
000050 71 d0 a5 be 9c f7 1e 3e a6 31 d9 bd bb a9 03 be
       -0.3238559 0.15524143 -0.10605173 -0.12857716
000060 28 20 c6 3e f2 94 ab 3c 06 fa 98 3f 38 20 9a be
       0.38696408 0.020945046 1.1951301 -0.30102706
000070 ec b9 c2 3e 96 59 2c 3e 5c ed 34 3e 69 df 89 3f
       0.38032472 0.1683105 0.1766867 1.0771304

model.lstm.bias_hh_l0 f4 [32]
000000 bc 7d 86 3e 90 d0 b2 be 60 4e aa 3f 15 af a0 3e
       0.26267803 -0.34924746 1.3305168 0.31383577
000010 e6 32 ea bd b2 d4 31 be 6e af de 3e 0e 6a 70 3f
       -0.11435489 -0.17366293 0.43493217 0.93911827
000020 18 b5 d4 3d 1e 02 47 be d9 0f 54 bb 7c 59 5d 3e
       0.103861034 -0.19434401 -0.0032358079 0.21616167
000030 9c 9e e3 3d f1 03 b7 3d 74 78 a9 3c de 63 da be
       0.11114237 0.08936299 0.02068732 -0.42654318
000040 2d fe 8d be d9 6d 5b 3e 61 da 43 3d 9f 7f 47 be
       -0.27732983 0.21428622 0.047815684 -0.19482277
000050 42 ab a1 be ba 43 a4 bc 4d cb b5 3e 9f 58 fd be
       -0.31575972 -0.020051826 0.3550667 -0.49481675
000060 d9 17 84 bd 42 f0 a0 bc 36 b9 b9 3f 05 c4 c1 3d
       -0.06449861 -0.019645814 1.4509647 0.09461216
000070 ba fd 85 3e 88 22 5d 3e e0 14 88 3e 6d 63 92 3f
       0.2617014 0.21595204 0.26578426 1.1436592

model.lstm.weight_ih_l0_reverse f4 [32, 2]
000000 50 ee 09 3f ed cb 9b 3e 88 ef 01 be 91 6c 3f be
       0.5387926 0.3042902 -0.1268903 -0.18693759
000010 94 c2 46 3d 14 6b 51 3d d0 42 e8 3d 5b 70 30 3e
       0.048525408 0.05112751 0.113408685 0.1723036
000020 89 07 5c 3e 70 5e d9 bd 16 f1 9c 3e e5 d3 8f 3e
       0.2148725 -0.10613716 0.30652684 0.2809135
000030 df 69 d2 3d 0c f9 54 bd b6 8c ab 3f e7 f2 67 3e
       0.102740996 -0.051995322 1.3402317 0.22651254
000040 e9 60 e7 3c 89 d4 ba bd 23 a4 a4 be 79 19 97 be
       0.028244453 -0.09122569 -0.32156476 -0.29511622
000050 a2 d8 8b be 65 07 22 bc ff 08 e5 bc ea 6b 46 3e
       -0.27313715 -0.009889458 -0.027958391 0.19377103
000060 5b 3d c5 3d b7 95 ad be 19 52 00 3e 49 e0 32 3d
       0.09630843 -0.33903286 0.12531318 0.043670926
000070 fd d3 56 3d 8c b5 2f 3e ed 7e a5 3f 8a b6 04 3f
       0.05244826 0.17159098 1.292936 0.5184103
000080 f8 57 91 bf 94 01 e4 3e 94 90 8e 3e 38 80 ac be
       -1.1354971 0.44532454 0.2784468 -0.33691573
000090 d8 76 51 bf bd f5 30 be 5b bb 11 3f bc 15 3c 3e
       -0.81821966 -0.17281242 0.56926507 0.18367666
0000a0 0d 06 b6 3e 41 92 52 3e 28 e2 c4 be 81 6c 5b be
       0.3555149 0.20563604 -0.38453794 -0.2142811
0000b0 2d 2f 2f 3f 7d 0c 04 bf 69 3c d5 bf c8 2c d9 be
       0.6843136 -0.51581556 -1.6659061 -0.42416978
0000c0 5c 15 54 3e 2b 8c df bd b9 f6 4d 3e 59 1e 46 bd
       0.20711273 -0.10915407 0.20113648 -0.048368786
0000d0 fb d9 08 3f 4e 8f 3f 3e c2 5e ba 3e 0f fb 00 3f
       0.5345761 0.1870701 0.3640042 0.50383085
0000e0 81 53 8c bd d6 f2 96 3e 8b 83 42 3f ca fd 3b 3e
       -0.068518646 0.29482144 0.7598197 0.18358532
0000f0 60 57 c6 3e 14 38 5c 3e 8f 85 84 3f 23 ce 65 3f
       0.38738537 0.21505767 1.0353259 0.89767665

model.lstm.weight_hh_l0_reverse f4 [32, 8]
000000 fa 03 6f 3e 01 21 bd 3e c3 4e 2d bc 09 e9 79 3e
       0.2334136 0.36939242 -0.01057786 0.24405302
000010 53 58 09 3f e2 8a 27 bf 0e 29 70 3b f2 ea 03 bf
       0.536504 -0.65446293 0.0036645564 -0.51530373
000020 29 8c c8 3d d0 32 82 3e 84 03 61 3e c4 ab 46 3e
       0.097923584 0.25429392 0.21973997 0.19401461
000030 38 5f 52 be 17 9f 93 be 1e 5d 99 3e ba 53 ff 3d
       -0.20544136 -0.28832313 0.29953855 0.124671414
000040 df f2 f7 3c 1a 3a 40 be 82 57 b6 be 80 1e a1 3d
       0.030267177 -0.18772164 -0.35613638 0.078671455
000050 8c 35 e1 3e 3b 43 12 bf a2 db cd bd d9 e9 91 be
       0.43986166 -0.57133836 -0.10051657 -0.28498724
000060 79 96 8b 3d 00 f4 54 bc db df 3d bb 2f 2a 6d be
       0.0681581 -0.012997627 -0.002897254 -0.23160623
000070 43 2d 05 3e 8f 01 8e be fd 57 28 bd 3c e4 e8 be
       0.13005547 -0.27735564 -0.041099537 -0.4548663
000080 71 1f 74 be 76 50 25 3e 74 02 b6 3e e7 99 96 3e
       -0.23840119 0.16143975 0.35548747 0.29414293
000090 b3 92 08 3e fb c5 6b bd a1 a3 27 3b ff 73 71 bd
       0.13337211 -0.057561856 0.0025579708 -0.058948513
0000a0 ce b1 ed bd 4c 8e c8 3e ba 47 fa be 1c e0 25 3e
       -0.11606179 0.39171064 -0.48882848 0.16198772
0000b0 b7 dc 24 3e b7 f1 d3 bc 5f aa d3 bd 4a 74 aa be
       0.16099821 -0.025872095 -0.1033523 -0.33291847
0000c0 a0 0c 58 3e 33 f2 e6 3e df b4 a2 3e 3e cc 24 3e
       0.21098566 0.45106658 0.3177862 0.16093537
0000d0 90 8b 44 be 29 ad 40 be 02 ba e4 bc 5a e1 3d be
       -0.19193864 -0.18816055 -0.027920727 -0.18542996
0000e0 99 a4 df 3e 37 4d ea 3e 28 f0 f6 3e 28 14 e6 3e
       0.43680266 0.45762035 0.482301 0.44937253
0000f0 7a c1 b7 3d f0 cb e2 be 7c d1 07 bf 71 c6 3e bf
       0.089724496 -0.44296217 -0.5305402 -0.7452155
000100 78 94 17 bf da 47 d5 be 31 13 ff be 20 17 04 3e
       -0.5921092 -0.4165638 -0.4981933 0.12899446
000110 95 6c 6c bd fd 64 92 be a2 b7 37 3d a7 e8 ff be
       -0.05772074 -0.28592673 0.04485286 -0.49982187
000120 07 be 0f bc 67 60 9d be fa 14 d9 bd 63 3f 86 3d
       -0.008773333 -0.30737612 -0.10599704 0.06555059
000130 ed ff 88 bd 04 67 d1 3d ec 96 54 3e d8 c9 a4 be
       -0.06689439 0.10224727 0.20760697 -0.32185245
000140 4e 9f 60 be d8 52 c6 be d1 81 24 bd 35 72 9b bd
       -0.2193577 -0.3873508 -0.040162865 -0.07590143
000150 3b 77 a6 be 8e fc fc 3e 61 36 bb 3d 46 ff 9c 3d
       -0.3251284 0.49411434 0.09141231 0.07665877
000160 a6 e8 db bd 12 4f 09 be 87 33 01 3d c9 a6 22 be
       -0.107377335 -0.13409069 0.03154328 -0.15883936
000170 69 99 3e 3e 7e a8 6a bc f3 7e 5f be 42 e7 05 3e
       0.18613209 -0.014322398 -0.21825771 0.13076499
000180 45 89 55 3d 84 a7 9b be b1 41 bc 3e d2 8c 99 be
       0.052132864 -0.30401242 0.3676887 -0.2999025
000190 35 52 50 3d b5 fb bb bd 19 28 2e bd a4 b7 57 3e
       0.05085965 -0.09178869 -0.04251871 0.21066147
0001a0 78 e5 3e 3e b2 51 d8 3e c8 c3 6f bd 04 5e 49 3e
       0.18642223 0.4224983 -0.05853632 0.1966477
0001b0 2b d1 eb 3e 2c 61 c6 bd db 27 c5 be 24 c0 bc be
       0.4605802 -0.09686503 -0.3850697 -0.36865342
0001c0 79 3e 27 be 13 69 bf bd af bb a9 bd 23 8a bc 3d
       -0.16332425 -0.09346213 -0.08287751 0.09206035
0001d0 b3 3f 90 3e d9 f0 b5 3e ec 69 b1 bc 1f a2 46 3b
       0.281736 0.35535315 -0.021656953 0.0030309034
0001e0 49 84 3c bf 34 f3 85 bd 0d 25 dc 3e 5e 30 2a 3e
       -0.7363935 -0.06540528 0.42997018 0.16620013
0001f0 06 c6 97 be 73 7f 28 3f 0f 12 87 3f a7 d2 73 bb
       -0.29643267 0.6581947 1.0552386 -0.0037204416
000200 bf 0c ac bd a0 62 b3 bc 94 ec 08 3d 27 22 48 3d
       -0.084008686 -0.021897614 0.033428743 0.048860695
000210 77 dc 31 3f 95 e3 78 3e ba 78 d1 bd 63 be 7a be
       0.6947703 0.24305566 -0.10228105 -0.2448669
000220 8b 57 50 3e eb 77 0d 3e 30 7d 80 3d c3 c4 02 be
       0.20345895 0.13815276 0.062738776 -0.12770371
000230 f5 0c 89 3e 59 82 84 be a4 1c 45 3e 10 e0 ec be
       0.26767698 -0.25880697 0.19249207 -0.46264696
000240 8d 5b 77 be 4d fa 06 3f 9a 0c 10 be d4 5d a5 bd
       -0.24156018 0.5272568 -0.14067307 -0.08074537
000250 fa 8c 03 3e cf 61 79 3d 09 02 a3 be bc 77 a5 be
       0.12846747 0.060884293 -0.3183749 -0.32317913
000260 88 48 ad 3e 22 07 2d bd c8 53 23 3d 1e 6e 71 3d
       0.338444 -0.04224313 0.039874822 0.058942907
000270 81 e6 ad be bd 68 0c 3e 87 a2 43 3e a4 c9 0d 3f
       -0.33964923 0.1371183 0.19104968 0.55385804
000280 ad 4e 09 be 52 8b c7 bd 89 ff 24 be 48 46 bb be
       -0.13408919 -0.0974337 -0.16113104 -0.36577058
000290 e2 ba ab 3c 3d b4 56 be 49 e7 aa 3e 32 c6 02 be
       0.020963136 -0.20967193 0.33379582 -0.12770918
0002a0 0c c1 b8 3e 4c 15 4d be 1d fb d6 3d 7d f7 35 3e
       0.36084783 -0.20027655 0.10497115 0.1777019
0002b0 ab f9 5c be ee 81 18 3e 22 74 17 3e ef be b4 3e
       -0.21579616 0.14893314 0.14790395 0.3530192
0002c0 15 9f 0a 3f d2 ac e1 3c db 03 58 be 0a 6f c6 bd
       0.5414899 0.027548227 -0.2109522 -0.09689148
0002d0 9e 86 1a bf 58 22 32 be 3a a2 2b 3e 64 27 1e 3f
       -0.6036166 -0.17395914 0.16761103 0.61778855
0002e0 b7 e3 5f 3d ed 68 0c 3f 74 3e 3a bf 5e e3 70 3d
       0.054660525 0.54847604 -0.72751546 0.058810584
0002f0 37 7a 8d 3f 49 8f b5 bd a3 40 39 bf d1 cb 79 bf
       1.1052922 -0.0886522 -0.7236425 -0.97576624
000300 d3 d7 0a 3e 49 f3 e4 3d bb a7 bd bd 98 bb e3 3e
       0.13558893 0.111792155 -0.09260508 0.4447906
000310 32 6f e0 bd 72 a2 cc be 60 fa 59 be 05 62 12 bf
       -0.10958709 -0.39967686 -0.21286917 -0.57180816
000320 a5 5d 9b 3e d4 ac d4 3d 8a 7a 58 3d f8 dc ba 3e
       0.30344883 0.10384527 0.052851237 0.3649671
000330 3b 35 98 be 2f 2c ce be 01 b4 93 3e 48 96 ae bd
       -0.29728112 -0.40268084 0.2884827 -0.085247576
000340 62 4e 25 be a6 6a a0 be 28 b2 2c 3e 5b ed 55 3e
       -0.16143182 -0.31331366 0.16864836 0.20891325
000350 2c 93 77 3e bd 25 a2 be a1 97 57 be 78 e7 2f be
       0.24177235 -0.31669417 -0.21053936 -0.17178142
000360 71 15 45 3e ae f5 aa be c1 e7 bb bd b7 0b 57 3e
       0.1924646 -0.33390564 -0.09175063 0.21000563
000370 7e 36 8c be 83 f6 91 be 2e f7 18 3e 0d fb 8a 3c
       -0.27385324 -0.28508386 0.14938042 0.016965413
000380 ed ff 8b 3d 3e 22 47 be 61 fa e1 bd 5e fe 95 bd
       0.06835923 -0.19446656 -0.11034084 -0.07323907
000390 1d 51 10 be a2 c6 af bd 21 fa 0a 3e cb 26 65 bd
       -0.14093442 -0.08582808 0.13571979 -0.0559452
0003a0 ba c6 39 bd 84 ce ba be f2 07 6f bd 7e b6 09 3f
       -0.045355536 -0.36485684 -0.058357187 0.53794086
0003b0 c3 b2 00 3e 9f 7e f0 3d c7 bd 87 bd 97 e3 c5 be
       0.12568192 0.11742901 -0.06627994 -0.386502
0003c0 87 4b 8a 3d 79 c7 15 be 8c ed 3e 3e 26 3b 86 be
       0.06752687 -0.14626874 0.18645304 -0.26217002
0003d0 ff 1d 24 3e 98 9a d5 be 58 e4 6d bd 69 c2 0b 3d
       0.16027068 -0.41719508 -0.058079094 0.03412095
0003e0 0b e1 6b 3d 27 39 16 be 32 dc 12 be 1c 83 e9 3e
       0.057587665 -0.1467024 -0.1434181 0.4560784
0003f0 79 d3 3f 3e 2d 3c f1 be 3d b7 ed be b1 31 b4 be
       0.18733014 -0.47116223 -0.46428862 -0.35194162

model.lstm.bias_ih_l0_reverse f4 [32]
000000 e6 e0 42 3f 75 dc 67 bd a1 71 d4 3e 25 39 0d 3f
       0.7612442 -0.05660673 0.41492942 0.5516532
000010 b4 11 54 3e 8b 56 1c be 0d 4c da 3e 9e 1e 23 3f
       0.20709878 -0.15267389 0.42636147 0.63718593
000020 f0 a0 09 bd 71 1f 7d be 5e 4e c4 bd ac 79 83 be
       -0.033600748 -0.24719025 -0.0958526 -0.25678766
000030 e6 b2 13 3e 19 95 72 3e da cb f1 be 1e c0 ae be
       0.14423713 0.23689689 -0.4722584 -0.3413095
000040 f0 fa de 3e e8 ca c8 be 79 d6 c8 3e c5 7b a2 bd
       0.43550825 -0.39217305 0.3922613 -0.079337634
000050 00 15 50 3e 54 3e 12 be 33 7b 76 be 99 0c 66 3e
       0.20320511 -0.14281589 -0.24070434 0.22465743
000060 49 2b 8f 3e b5 df c0 bc ed f2 18 3f 05 f1 0b 3f
       0.2796271 -0.023544172 0.59745675 0.5466464
000070 4f 9b 92 3d 77 01 45 bd bd 8f c5 3e 47 72 07 3f
       0.07158529 -0.0480971 0.38586226 0.5290875

model.lstm.bias_hh_l0_reverse f4 [32]
000000 a5 a0 6a 3f 8d 60 05 3e c2 d4 1c 3f f7 df 01 3f
       0.91651374 0.13025112 0.6126214 0.5073237
000010 74 b7 8e 3d 59 e3 08 3f 13 b2 c6 3e ec 2f 5e 3f
       0.06968585 0.53471905 0.38807735 0.8679187
000020 0f 67 b5 be 49 2a 7f 3d 85 31 99 3b fb 94 8f be
       -0.3543019 0.062296186 0.0046750926 -0.2804335
000030 b8 17 94 bd 5d f1 32 bd 33 74 12 3e cf 80 c6 be
       -0.072310865 -0.043687213 0.14302139 -0.38770148
000040 6e fd 73 bd b6 8b 56 3e 49 5f 88 bd 91 db 83 bd
       -0.05956786 0.20951733 -0.06658799 -0.06438363
000050 01 57 83 be 55 2d dc be 60 c0 93 3c 70 bc 50 3e
       -0.25652316 -0.43003336 0.018036067 0.20384383
000060 94 ad 22 3f b8 61 bd 3e 5f 52 4f 3e 48 8e a2 3e
       0.6354611 0.36988616 0.20246266 0.31749177
000070 fa 0f 91 3e b9 65 b8 3e 7a fc e4 3e b8 35 80 3e
       0.28332502 0.36015108 0.44723874 0.25040984

model.lstm.weight_ih_l1 f4 [32, 16]
000000 9a a0 95 bf 02 48 e1 3e 89 e2 84 bf aa 96 77 bf
       -1.1689637 0.4400025 -1.0381633 -0.9671427
000010 4e 2f fb be 14 56 2e 3f 93 16 9e 3c c3 d9 1a 3f
       -0.49059528 0.68100095 0.019297874 0.6048853
000020 df b4 85 be 70 30 4f be 9e d6 51 3e f2 15 9f 3b
       -0.26114556 -0.20233321 0.20492026 0.004854911
000030 53 80 6a 3e 50 a2 63 bf 9d a0 4f 3e 3d b9 2e bf
       0.22900514 -0.88919544 0.20276113 -0.682514
000040 8f e3 c2 3d d7 cf d8 3e 1f 5c 29 3e 84 ae 24 be
       0.095160596 0.4234607 0.16539048 -0.16082197
000050 03 2c f7 be e6 64 07 be 15 ea ec bc de b6 5d 3d
       -0.48275766 -0.13222083 -0.028920213 0.054129474
000060 86 07 c2 3d 7e 52 a2 bd 86 61 ba be 4b a3 8c 3e
       0.09474091 -0.079258904 -0.3640253 0.27468333
000070 dd 05 f0 bd 20 13 86 3b ba 27 6b 3e 09 2c e9 bd
       -0.11719868 0.0040916353 0.22964373 -0.11385352
000080 2a 3a 96 3e 3d b9 c0 3e 6c 6b 18 be 2e 8f 10 3e
       0.2934125 0.37641326 -0.14884728 0.14117119
000090 d4 fc fb 3d 5e f5 6c 3d 83 87 b9 bd f4 2d 5c be
       0.123040825 0.057851188 -0.0905905 -0.21501905
0000a0 90 29 3a be 1a 1d fa be ea 4b 7f 3e 90 f2 f2 3d
       -0.18179917 -0.48850328 0.24931303 0.118626714
0000b0 38 a0 12 bf ea b0 b2 3d 48 6c c5 bd c4 c7 d4 3e
       -0.57275724 0.0872515 -0.09639794 0.4155866
0000c0 96 45 bf be 0d e8 89 3e 2a 4b 63 bf 8b c0 a1 be
       -0.37357777 0.26934853 -0.88786566 -0.3159221
0000d0 cb 10 01 bf e5 97 05 3e 73 37 bf be 1f 8d 37 3f
       -0.5041625 0.13046224 -0.37346992 0.7169971
0000e0 92 20 99 be 76 62 ac 3e 40 35 20 be e6 fe 02 3d
       -0.29907662 0.3366887 -0.15645313 0.03198137
0000f0 56 10 a7 3e fc bb 1b bf 48 b9 63 3e a1 57 2c bf
       0.3262965 -0.60833716 0.22238648 -0.6732121
000100 38 f9 30 3c 02 61 1d be 83 df 2f 3d 90 61 d4 be
       0.010801606 -0.15369037 0.042937767 -0.41480684
000110 74 c8 ce be f9 e1 91 3e 4b 8c 14 be 48 08 8f 3e
       -0.4038731 0.28492716 -0.14506643 0.27936006
000120 47 aa 84 bd 8c b5 ed bc 42 2d 86 3e 32 21 e4 bd
       -0.0647779 -0.029017232 0.26206404 -0.11139144
000130 51 5e a5 be 7c 4c c9 be c5 07 83 be 69 04 aa be
       -0.3229852 -0.39316165 -0.25591865 -0.3320649
000140 48 bf d6 be 70 7a a5 bd 3c 0f 04 bf 90 c8 7b bf
       -0.4194281 -0.08079994 -0.51585746 -0.9835291
000150 c0 e1 a6 be cd d9 92 3e d2 a6 85 3d b7 8c ba 3e
       -0.3259411 0.28681794 0.06525959 0.36435482
000160 4b b1 93 be d0 1b 5c be e6 99 99 be 9d a7 ea 3e
       -0.288462 -0.21494985 -0.30000228 0.45831004
000170 d9 ab 12 3e 13 33 56 bf e6 6f dd 3e 16 01 c7 be
       0.14323367 -0.83671683 0.43249434 -0.38868016
000180 2c 9e dc be c7 32 94 3e d0 dd a7 be 1c 1b 1c bf
       -0.43089426 0.2894499 -0.32786417 -0.60978866
000190 65 87 f1 be c1 71 ee 3c 94 4f 7a bd 9b 86 b2 3e
       -0.4717361 0.029106976 -0.061111048 0.3486832
0001a0 e1 2e 9d 3e cf ec 82 be ec bb 79 be 2d 29 88 3e
       0.30699828 -0.25571296 -0.24388093 0.26593915
0001b0 47 a3 0e 3e ae 94 03 bf cc 0d 05 bf 13 ba c5 be
       0.13929473 -0.5139874 -0.5197418 -0.38618526
0001c0 f5 0f 1d bf f6 b0 3b 3f 6c d5 95 be c3 6b 73 bf
       -0.61352473 0.73316896 -0.2926439 -0.95086306
0001d0 7c c2 3d be 4e 32 ab bd eb 4c e1 3d 26 da 31 3f
       -0.18531221 -0.08359204 0.11000999 0.69473493
0001e0 d2 ad df 3a 77 03 21 be 2f 10 62 bc 90 0e 92 3e
       0.0017065352 -0.15723978 -0.013797804 0.28526735
0001f0 eb 4e ff 3e 04 79 36 bf dd 71 62 be 19 18 99 bd
       0.49864897 -0.71278405 -0.22113748 -0.074752994
000200 23 64 af be c4 3e f7 be 65 79 cb bd 8e a1 d1 bd
       -0.34256086 -0.48290074 -0.099352635 -0.10235892
000210 43 6d 86 be 7d c4 51 3e 20 cc 30 3d 37 a6 35 bc
       -0.26255235 0.2048511 0.04316342 -0.011086992
000220 f4 9e 02 bf de 6e bc 3e 96 5b 94 3e c3 4b 5e 3e
       -0.51023793 0.36803335 0.28976125 0.21708588
000230 d0 97 03 bf 37 8e 81 3e a6 29 9f 3d 13 6a 80 3e
       -0.5140352 0.25303814 0.07771616 0.25080928
000240 81 d6 dc be 4e fc 6b be 23 eb be bd 47 4a f2 be
       -0.43132403 -0.23045465 -0.093221925 -0.47322294
000250 a7 46 7a 3d fc 51 39 3e 22 64 58 3e ae 2c 7b 3d
       0.061102536 0.18097681 0.21131948 0.061321907
000260 b2 03 81 3d a0 46 e0 3c 18 6b 3a bd 09 8d b3 3e
       0.06299533 0.027377427 -0.04551229 0.3506854
000270 a3 70 e2 3d a7 3b 67 bd 44 fe 24 3e d0 d8 ed be
       0.1105664 -0.056453373 0.1611262 -0.46454477
000280 9c 88 24 3e 7d fb b6 be 77 6a 42 3d 8d 79 15 3e
       0.16067737 -0.35738745 0.047464814 0.14597149
000290 a1 cd b6 3c e1 3c 65 bd 15 d7 10 3e f2 b3 2c 3d
       0.022314848 -0.05596626 0.14144547 0.042163797
0002a0 96 d6 91 bd 2e 00 37 3e 91 ff 58 3e 7d 76 f1 be
       -0.07121007 0.17871162 0.21191241 -0.47160712
0002b0 7a f0 14 be 6b a4 29 be 5e 41 79 3d 9f 16 08 3f
       -0.1454486 -0.16566627 0.060853355 0.5315952
0002c0 48 53 00 3f 74 05 20 be 96 c0 e9 3e cf dd 11 3e
       0.5012708 -0.1562708 0.45654744 0.1424477
0002d0 7f 64 82 3e 66 00 9f 3e d4 ff ba 3d 76 ab 8a 3d
       0.25467297 0.3105499 0.091308266 0.06770985
0002e0 fa 2f 1f bf 63 78 11 3f 55 23 0b 3e df d1 81 be
       -0.6218258 0.5682432 0.13587697 -0.2535543
0002f0 a7 a2 5a bf f8 ae 89 3e 8c 85 18 3f 4c 03 89 3e
       -0.8540444 0.26891303 0.59578776 0.26760328
000300 5b 3f 13 3e 32 08 1f 3d eb ac b8 bd 60 57 39 bd
       0.14379637 0.038826175 -0.090173565 -0.045249343
000310 25 47 88 be 1b 52 49 3e fa f5 4a 3e a0 a9 82 3e
       -0.2661678 0.19660227 0.19820395 0.2552004
000320 29 58 ed be 78 b6 24 3e a8 d6 ba 3e b8 81 d7 3d
       -0.46356323 0.16085231 0.36491895 0.10522789
000330 57 22 1f 3c 76 3e 13 be 02 ad 33 3e 86 02 bf 3e
       0.009712777 -0.14379296 0.17546466 0.37306613
000340 5e 65 7c be bb 54 86 be 77 f8 f0 be 9e 1e f2 bc
       -0.24648044 -0.2623652 -0.47064564 -0.029555615
000350 e3 5d 98 be 6c a9 05 3d 5c e9 86 be 04 52 b0 3e
       -0.2975913 0.032632276 -0.26349914 0.34437573
000360 82 06 84 bc 40 e7 d2 3e c4 b6 3a be cc e8 b3 be
       -0.016116384 0.41192055 -0.18233782 -0.35138547
000370 1b 52 23 3d 4e 2c c7 be e5 4c 0e be dc 56 31 be
       0.039873224 -0.3890099 -0.1389652 -0.1731829
000380 4c c2 1b 3e 52 b8 f6 be 1b 7f f3 be 91 76 36 3e
       0.15210837 -0.481875 -0.4755791 0.17818667
000390 e6 ad 20 3d 83 08 35 bd 35 01 5d bd 40 1b 89 3d
       0.039228342 -0.04419757 -0.05395623 0.06694651
0003a0 46 4e 6d 3e 3d c2 20 bf 07 9e 89 be 92 8b a1 3e
       0.2317439 -0.62796384 -0.26878378 0.31551796
0003b0 b6 a9 3a 3c 28 4c 06 3f 84 3f 0c 3e a8 5c 10 bf
       0.011393001 0.52459955 0.13696104 -0.5639138
0003c0 6c 5b 32 be fb 1f 28 be 06 2a 34 be 4e 72 ab 3e
       -0.17417687 -0.1641845 -0.17594156 0.33485645
0003d0 8c 16 4c be 71 88 a3 be 2d b3 40 be 55 ff 38 3d
       -0.19930476 -0.31940034 -0.1881835 0.04516538
0003e0 7b 32 9c ba 25 54 9a bd f6 b1 9b be 5f 04 13 be
       -0.00119169 -0.075355805 -0.3040921 -0.14357136
0003f0 89 0d ae 3d d2 9f e1 3c c0 2a c1 3e c2 be f4 3c
       0.084986754 0.027542029 0.37727928 0.029876117

model.lstm.weight_hh_l1 f4 [32, 8]
000000 85 b2 36 3e 7d 77 7d bf a5 28 90 bf 83 a3 0a be
       0.17841537 -0.9901045 -1.1262404 -0.13538937
000010 61 57 15 3f f9 43 0c 3f 95 b8 25 3e 04 51 89 be
       0.58336455 0.5479122 0.16183694 -0.26819623
000020 c4 f4 a0 3b 00 f2 03 bf 9d 5e eb be 8b 8f c3 bd
       0.004911991 -0.5154114 -0.45970622 -0.09548863
000030 f6 a1 76 3e 3c 8b db bb f8 c6 82 3e 3e cb 89 3e
       0.2408522 -0.0066999476 0.25542426 0.26912874
000040 bc db 1b 3e ac bd 8e bc 3f 4b 8d be 82 85 a1 be
       0.15220541 -0.017424427 -0.2759647 -0.3154717
000050 0d 27 c3 bb 12 62 7c bd fa bd 99 3e b0 22 9c be
       -0.005955583 -0.061616965 0.30027753 -0.30495214
000060 f6 d4 08 bf 31 e7 bc be 03 b5 df be d9 ea 86 bd
       -0.5344995 -0.36895135 -0.43692788 -0.065877624
000070 86 f9 eb 3e 6b 52 cc 3e ea ca a5 3e 5a f8 b3 bd
       0.4608881 0.3990663 0.32381374 -0.08787604
000080 b0 a5 f4 be a3 5c e2 be f2 09 32 bf 36 66 28 3e
       -0.4778266 -0.442113 -0.69546425 0.1644524
000090 18 ea aa 3e 34 02 dd 3e af fa 6f be 9f 4f 2b bd
       0.33381724 0.43165743 -0.23435472 -0.04182398
0000a0 9f 22 30 be eb 38 70 bf bc 97 54 bf 36 f6 3d be
       -0.17200707 -0.9383685 -0.8304403 -0.18550953
0000b0 af eb ec 3d 48 48 5a 3d 65 d3 9c 3d ba 88 ba be
       0.115683906 0.05329159 0.07657508 -0.3643244
0000c0 21 c4 da be ca 8f 4e be af 17 50 bf d5 46 b7 3a
       -0.4272776 -0.20172039 -0.8128614 0.0013982902
0000d0 8b a4 d8 be e7 0e e3 3e 09 21 1a 3f 3b e1 97 bd
       -0.42313036 0.44347307 0.6020666 -0.07416006
0000e0 a1 70 9c 3c a8 77 41 bf 46 f7 aa bf 30 e2 ab 3d
       0.019096674 -0.75573206 -1.3356712 0.08392751
0000f0 be 12 5e bd a9 23 1d 3f c7 36 82 3e 79 29 4a be
       -0.054217093 0.6138254 0.25432417 -0.19742383
000100 44 a0 72 3e 7b 52 9c bd 09 29 3d 3e 0a 4d 37 be
       0.23693949 -0.076329194 0.18472685 -0.17900482
000110 cd a6 b6 3e cb 5d ab bd d4 36 e7 bd 27 51 d2 bc
       0.35674134 -0.08367499 -0.112897545 -0.025673462
000120 4c 63 40 3e 5f 51 7c be 11 30 01 bf 11 3e 49 3c
       0.18787879 -0.24640416 -0.5046397 0.012282864
000130 9f 53 8a 3e 1f 4b 37 3e e9 61 6c 3e 65 d5 a3 3d
       0.27016923 0.1789975 0.23084225 0.07999686
000140 c0 b0 95 3e d8 ab 4d be a0 1c 68 3e 9b 60 fa bd
       0.29236412 -0.20085084 0.2266717 -0.12225457
000150 1e 0f 9f bd 63 16 1a 3d 5e 34 f3 bd 7c d4 98 3e
       -0.07766555 0.037619006 -0.118752226 0.29849613
000160 f1 58 ee 3d b5 4c 1f 3d ca 08 40 3e aa 02 c0 be
       0.11638058 0.038891513 0.18753353 -0.37502033
000170 43 30 a5 3e 02 77 49 3d fa 0d 53 3c cb 5c 8f 3e
       0.32263383 0.04918576 0.01288175 0.28000483
000180 05 4a 79 bd 10 bb 3e 3e d6 aa 0f be 92 92 9e 3d
       -0.060861606 0.18626046 -0.14030012 0.077428
000190 82 1c 62 3d a8 51 ef bd 4d 12 a8 3e 1d dd 95 3e
       0.05520297 -0.116854966 0.32826462 0.2927026
0001a0 d0 de 36 be cb 16 e6 bd 5e f6 ff be 8b 00 8d be
       -0.17858434 -0.11234816 -0.4999265 -0.27539477
0001b0 6c 83 ea bd 4c f5 44 be 4e b7 91 be 43 ee db bd
       -0.11450848 -0.19234198 -0.28460163 -0.10738804
0001c0 37 22 a2 be ac 1b 00 3f 89 ec ce 3e ec 3d f1 be
       -0.3166673 0.50042224 0.40414837 -0.47117555
0001d0 98 64 1a be f1 65 c2 bd 92 e3 07 be 64 8d 9f 3d
       -0.15077436 -0.094921 -0.13270405 0.0779064
0001e0 16 5b 1d bc 1d 08 08 3f 3c d9 3f be 00 3e 2c bf
       -0.009604236 0.5313738 -0.18735212 -0.67282104
0001f0 52 ec de 3e 2d 2a 8a 3e d0 24 4d be b7 88 0b bf
       0.43539673 0.26985303 -0.20033574 -0.54505485
000200 2c 8f 68 3e f1 9e 7e be 0c a1 a6 3e e3 25 33 3e
       0.22710866 -0.24865319 0.32544744 0.17494921
000210 93 97 ff be 82 a6 f5 bd 6c dd 04 3f 7c 4c c0 3e
       -0.4992033 -0.119946495 0.5190036 0.37558353
000220 14 d9 bf 3e 7d 35 d4 3e 38 5d b5 3e 6c f6 95 3e
       0.37470305 0.41447058 0.35422683 0.29289567
000230 44 2a a8 3d f9 04 97 be 45 53 5b 3e b2 e5 af 3e
       0.082111865 -0.2949598 0.21418484 0.3435493
000240 f6 13 11 3e cd 63 fb 3c f6 b3 26 3e f0 fa b7 bc
       0.1416777 0.030687237 0.16279587 -0.022458524
000250 d6 a9 1a 3e 60 83 b2 bd f2 d5 85 be 27 ac d5 3d
       0.1510385 -0.08716464 -0.2613979 0.10433226
000260 61 67 95 3c 89 32 35 3d 85 80 bf 3d 5e a4 2d be
       0.018237771 0.044237647 0.09350685 -0.16957232
000270 d6 bb ce be 59 ad 1a 3d 66 2e 43 3f 49 fb fc 3c
       -0.40377682 0.037762973 0.76242673 0.03088154
000280 df b1 e7 3d ed 1e b6 3e bb 33 e1 be 50 68 9b 3e
       0.11313223 0.3557047 -0.4398478 0.30353022
000290 b1 f5 6b 3e 8e c8 96 be 9f 42 f3 be 67 bf 84 bc
       0.23042943 -0.29449886 -0.47511765 -0.016204549
0002a0 3f 15 43 3d 6c 8e d6 3c 65 63 6e be 88 61 8a be
       0.047627684 0.026190959 -0.23280104 -0.27027535
0002b0 d1 fc 02 3f b0 07 ad 3e c4 86 2a bf 42 fd 90 be
       0.5116702 0.33794928 -0.66611886 -0.2831822
0002c0 c1 7b 29 be ad dd 57 3d 62 cd 85 bd 89 f5 05 bf
       -0.16551115 0.05270164 -0.06533314 -0.5232778
0002d0 79 f0 c1 3e d7 54 57 3d d9 07 9d be c8 1e 2f bf
       0.3787878 0.052571144 -0.3067005 -0.68406343
0002e0 64 e7 90 3d ce 00 4d 3e 21 ba c4 3b 68 08 86 be
       0.07075384 0.20019838 0.0060036336 -0.26178288
0002f0 57 c0 ad 3e 3c 8f 54 3e 00 c6 f7 be d5 e5 2e bf
       0.33935806 0.20757765 -0.4839325 -0.68319446
000300 39 95 0d 3d d5 ee 8e bf 28 ce 3a bf 0b d4 50 be
       0.034566138 -1.1166636 -0.7297082 -0.20393388
000310 c5 44 0a 3f 12 ae c0 3e 4f 4b 12 3e 8b 39 d6 be
       0.54011184 0.37632805 0.1428654 -0.41840777
000320 a3 70 8a bd e1 b7 02 bf ac 1c d4 be 91 33 0f bf
       -0.06759765 -0.51061827 -0.41428125 -0.5593806
000330 d6 35 23 3e 80 c8 16 3b d9 a9 a1 3e ae 67 af 3d
       0.15938506 0.002300769 0.31574896 0.08564697
000340 6c 3c 8f be 1b 76 72 be 2c 5a 64 3e ae d5 a8 3e
       -0.27975786 -0.23677866 0.22300023 0.32975525
000350 06 f2 1a 3e 67 99 ba 3d fc 18 d3 3d c6 d8 f4 3e
       0.15131387 0.091112904 0.103075 0.47821635
000360 6f c8 6f bd 13 b3 d4 be 8a 3a 06 bf ad 85 26 3c
       -0.058540758 -0.41542873 -0.52433074 0.010163707
000370 f0 42 2f be ba e3 cf bd ee 1d 57 3e 58 98 82 be
       -0.17115378 -0.10150857 0.21007511 -0.25506854
000380 0f e5 c1 3d db e6 3f 3e c7 a2 cd be 2a 88 11 be
       0.094675176 0.18740408 -0.40163252 -0.14212099
000390 46 b9 8d be 2a f4 20 bd 14 07 10 be cb 99 a3 be
       -0.27680415 -0.039295353 -0.140652 -0.31953272
0003a0 a8 ce 94 bd b7 ef 0f bf 04 10 21 bf 18 7c ee bc
       -0.07265979 -0.5622515 -0.6291506 -0.029111907
0003b0 38 8e b8 3c 5e a9 54 bd 98 77 82 bd 8a 43 04 be
       0.022528753 -0.051919334 -0.06370467 -0.12916389
0003c0 ed cf 8b be 25 3d 17 bf e8 dc d0 be f6 c0 5d be
       -0.27307072 -0.59077674 -0.40793538 -0.2165564
0003d0 3d a5 a9 3e b9 77 70 3d 9d d5 fd 3d 89 64 0d 3e
       0.3313388 0.058707926 0.12394259 0.13807882
0003e0 de 46 15 be fb 8a 27 bf c4 1a 4f bf a1 60 9d 3d
       -0.14577815 -0.6544644 -0.80900216 0.07684446
0003f0 90 c0 2f 3d 39 86 3e 3e 4e 8f 54 3e 3f 09 d6 bc
       0.04290825 0.1860589 0.20757791 -0.026127456

model.lstm.bias_ih_l1 f4 [32]
000000 69 cb 9c 3f 48 a7 0e 3f ed be fb 3d d1 70 9f 3e
       1.2249576 0.55724 0.122922756 0.3114076
000010 7e f3 5e 3d 28 84 8a 3f d7 8a 34 3f 68 0a 69 3f
       0.05443143 1.0821581 0.7052435 0.91031504
000020 2e 42 93 bc b5 b7 fd 37 36 d1 ad be d5 cd 1a bd
       -0.017975893 3.0245496e-05 -0.33948678 -0.037793953
000030 19 d5 64 be 6f 06 55 bb fd 03 25 be 2d 5d 35 bf
       -0.22346915 -0.0032505055 -0.16114803 -0.708453
000040 57 8d 82 bb fd 20 f9 be 45 50 cc be 99 ae 00 3e
       -0.003984134 -0.4865798 -0.3990499 0.12566604
000050 84 1d 22 3e f3 03 5b be 63 d7 e7 bc ef cc 90 be
       0.15831572 -0.21388225 -0.028300947 -0.28281352
000060 19 6c 10 3f e2 90 12 3f 93 e0 1e 3d 6f 6a c0 3e
       0.56414944 0.57252324 0.03878839 0.37581202
000070 1d 66 c3 3e da b4 5d 3f ae bd f8 3e 11 f8 5e 3f
       0.38163844 0.8660408 0.48582214 0.8709727

model.lstm.bias_hh_l1 f4 [32]
000000 54 53 1f 3f 31 62 d6 3d 4d 25 49 3d 8f f7 50 3f
       0.62236524 0.10467947 0.04910784 0.81627744
000010 29 f7 c2 bd 88 93 1b 3f 9d c4 11 3f 12 88 6c 3f
       -0.09519798 0.6077199 0.56940633 0.92395127
000020 cd c1 1d be e3 1e f0 3e c8 75 98 3e 66 d3 f4 be
       -0.1540596 0.46898565 0.2977736 -0.47817534
000030 0b e4 b5 3e 4c 70 0f be 23 74 11 bf 3a 21 93 be
       0.35525545 -0.14007682 -0.56817836 -0.28736287
000040 c4 09 3d bb 92 87 5a be de 36 ad be f1 16 04 be
       -0.0028844932 -0.21340778 -0.33830923 -0.12899376
000050 0b 92 9e 3d 95 cb b1 3d ad ac 42 be e1 45 ac 3d
       0.07742699 0.08681408 -0.19011183 0.08411766
000060 be 8c 16 3f 31 6f a5 3e 9a 5b ac bd e6 aa 3a 3f
       0.58808506 0.32311395 -0.08415909 0.7291702
000070 08 13 f0 bc d0 ca 00 3f 70 24 dc 3e 6b cf 20 3f
       -0.02930595 0.5030947 0.4299655 0.62816495

model.lstm.weight_ih_l1_reverse f4 [32, 16]
000000 65 f1 81 be 93 24 ba 3d c6 3f 3f bc 3a bd 09 bf
       -0.25379482 0.09089007 -0.01167292 -0.5380436
000010 53 8e 17 bf 34 86 b6 3e fe 7c cd 3d 98 6a 7d 3e
       -0.59201545 0.35649264 0.10033606 0.24747694
000020 59 91 a6 be ec 9a e7 3c 83 eb 38 be 42 ea 13 be
       -0.32532766 0.028272115 -0.1805859 -0.14444831
000030 c0 ca 2f bd e5 74 f7 bd 1a f2 4e 3e 7f 9d cb be
       -0.042917967 -0.12082843 0.20209542 -0.39768597
000040 1e 14 72 3e 14 a5 8d be 82 df 44 3f 14 88 93 bc
       0.23640487 -0.27665007 0.76903546 -0.018009223
000050 d2 08 43 3e c7 d4 9a 3e cf d7 d4 3e 3a 8f fa be
       0.19046333 0.3024046 0.415709 -0.48937398
000060 c6 3b 1d 3f b1 2c 0b bd f9 00 2a 3e 7c 9c 8c be
       0.6141933 -0.033978168 0.16601934 -0.27463138
000070 fe 5f 0e be 2a 0a 49 3e 80 73 5b be 1a 2b e6 3e
       -0.13903806 0.19632784 -0.21430779 0.4495476
000080 4f e5 2d 3d 0f 2c f8 3d 85 b0 81 bd d8 54 d2 3c
       0.042455014 0.121177785 -0.063324966 0.025675222
000090 a8 02 b5 be fa f4 27 3e f6 27 5d be 61 85 16 3e
       -0.3535359 0.16402045 -0.21597275 0.14699318
0000a0 b6 8e fa 3c e9 dd 94 be b0 32 07 bd 23 6d 02 3f
       0.030585628 -0.29075554 -0.033007324 0.5094778
0000b0 60 01 80 3e fc da de bd 27 92 cb 3e bf c2 4e bf
       0.2500105 -0.10881612 0.39759943 -0.8076591
0000c0 57 e6 9f be 79 48 20 be 03 72 0f 3f 57 c1 14 be
       -0.31230423 -0.15652646 0.56033343 -0.14526878
0000d0 ac 6c 3c bf 4b 7d e4 3e c8 7b 05 3e 3c 69 88 3e
       -0.7360332 0.4462684 0.130355 0.26642787
0000e0 07 c9 bc 3e ee 72 19 be 71 3b e6 3e d6 0f 0a 3f
       0.36872122 -0.14985248 0.44967225 0.53930414
0000f0 87 7d 03 bf c3 d7 82 be cb c7 3b 3d fd 81 f1 be
       -0.51363415 -0.25555238 0.045844834 -0.47169486
000100 87 ad 2f bf 50 ff 8f bc b8 91 1b be 45 84 5b bf
       -0.68624157 -0.017577797 -0.15192306 -0.857487
000110 94 a7 49 bf 88 92 eb 3d 4e fa 30 3e c0 79 2d 3f
       -0.7877133 0.11502558 0.17282984 0.677639
000120 71 21 9c be 3d f4 08 be 21 02 43 bf 36 f9 38 3f
       -0.30494264 -0.1337442 -0.76175123 0.72255266
000130 9c 0c 07 3f 2c 4b 12 bf 03 f0 12 3f 26 50 2c bf
       0.52753615 -0.57145953 0.5739748 -0.67309797
000140 cb dc 9d be 25 d8 dc be 0e b1 78 3d 97 16 d5 bd
       -0.30832514 -0.43133655 0.060715728 -0.10404699
000150 98 35 c1 be 91 a1 d9 3e ac 61 a4 bd 13 9b b9 3e
       -0.377362 0.42506078 -0.08026442 0.36251125
000160 20 a4 dd be 19 54 22 be a7 1a ec 3d b6 2d a1 3e
       -0.4328928 -0.15852393 0.11528521 0.31480187
000170 c8 85 89 3c 1e 2c 18 bf 00 76 bd 3e 92 49 30 be
       0.016787425 -0.5944232 0.3700409 -0.17215565
000180 2f fa 0e bf af f7 76 3e a4 c9 98 3e 84 8c 17 bf
       -0.558505 0.24117921 0.2984134 -0.59198785
000190 ea 4f e0 be b7 85 f6 bc 4f 1d 0a be 9c ce 0b 3f
       -0.4381097 -0.030093057 -0.13487743 0.54612136
0001a0 60 46 9e 3d 1a bb 17 3d 29 c5 d7 3d 13 d7 16 3f
       0.07728267 0.03704367 0.10535652 0.5892193
0001b0 f4 f3 82 bd 91 fe 03 bf 45 7b 12 3f eb e5 3f be
       -0.063941866 -0.5156031 0.57219344 -0.1874005
0001c0 b7 e2 24 bf ba b2 1f be e0 f2 45 3d 34 b0 af be
       -0.6440844 -0.15595523 0.048327327 -0.3431412
0001d0 ed 60 08 be cc 75 ec bd 0f 75 19 bd 7a 3f aa 3e
       -0.13318224 -0.115459055 -0.03746515 0.33251554
0001e0 17 85 9f be 1b 30 94 bd e3 92 d7 be 1b 24 11 3f
       -0.31156227 -0.07235738 -0.42104253 0.5669572
0001f0 ba 7d 5f bd d7 54 27 bf c7 6b 52 3d e4 26 e4 be
       -0.05456326 -0.6536383 0.051372316 -0.4456092
000200 e4 ac 87 be 8c bd bb be fa 87 7d bd 54 38 8b be
       -0.26499093 -0.3666805 -0.061897255 -0.27191412
000210 d0 df 9b be 53 bf 8b 3d cf 6d b7 bc df 31 6d 3d
       -0.30444193 0.068236016 -0.022391228 0.05790889
000220 46 02 1f 3e 97 b2 3e 3e 16 24 3a 3e c8 4f b8 bd
       0.15528211 0.18622814 0.18177828 -0.08999592
000230 26 12 a9 3e 16 f0 88 be cd 2e ef 3c fc eb c1 be
       0.3302166 -0.2674567 0.029197121 -0.37875354
000240 a9 18 28 be c3 bd b5 3e 61 13 b0 3e 48 22 13 bc
       -0.16415657 0.3549634 0.34389785 -0.008980341
000250 16 81 66 be 92 1e b1 3e 7d 7a d0 3d 66 03 9d be
       -0.2251018 0.34593636 0.10179613 -0.30666655
000260 eb 83 4a bc 7a 31 ad be 81 dc 1c 3e 01 96 70 3d
       -0.012360553 -0.3382681 0.1531849 0.058736805
000270 0c ed 3b 3e 4b 0f 81 3d dd 5d e8 bd d3 d2 11 3f
       0.18352145 0.06301745 -0.11346028 0.5696232
000280 4b 71 32 be 65 5a e0 3d 64 53 b5 bd 76 68 34 be
       -0.1742603 0.109547414 -0.08853796 -0.17617974
000290 18 a0 53 be 04 45 6c be be 1a 45 be 03 37 bc 3e
       -0.2066654 -0.23073202 -0.19248483 0.3676072
0002a0 55 38 ce bd 43 8a c1 3d 26 c7 d2 3d 58 45 00 be
       -0.10069338 0.094501995 0.10291891 -0.12526453
0002b0 f9 9e 2f 3c c7 f0 f0 bc 9e ad f7 bd 04 1f 46 bc
       0.010719054 -0.029411687 -0.12093662 -0.012092356
0002c0 68 d7 98 be 84 2e fa 3d 1c 98 91 3e 6c 37 1b 3e
       -0.29851842 0.122159034 0.28436363 0.1515786
0002d0 0e a0 b2 be 2c 82 d6 3e 8a e7 c3 bd 4c 24 67 3e
       -0.34887737 0.41896188 -0.09565647 0.2257244
0002e0 db aa cb 3d 69 b5 15 3e f7 7f d0 3e df a3 a1 3e
       0.099446975 0.14619984 0.4072263 0.31570336
0002f0 5e cb be be 51 4e 24 bf 63 bd e2 bd db 7d 92 3e
       -0.37264532 -0.64182 -0.11071279 0.28611645
000300 05 08 a7 bd 9c 65 a3 bd 23 92 d3 be 7f 93 99 bb
       -0.081558265 -0.07978365 -0.4132243 -0.0046867724
000310 db 03 54 bd 7a 85 c0 be 86 78 9c be d4 b2 09 3f
       -0.05176149 -0.37601835 -0.30560702 0.53788495
000320 2d 1c 43 be 84 42 a4 3e 9b 49 84 be 9c 7e 22 3e
       -0.19053717 0.32081997 -0.25837407 0.1586861
000330 02 55 db 3d 98 45 7f be 34 bc fa 3d a3 b3 1c 3d
       0.10709573 -0.24928892 0.12242928 0.038257252
000340 90 00 92 3c b3 a1 1f 3e aa c6 58 be 50 89 73 3d
       0.017822534 0.15589027 -0.21169534 0.059457123
000350 d8 1c 87 bd 1f d2 89 be be d8 55 3d c4 b0 26 bd
       -0.065972984 -0.26918122 0.052208655 -0.04069592
000360 53 ea e1 be a9 3b 34 3e 2d a7 bd bd 84 1d 24 3d
       -0.44124088 0.17600884 -0.09260402 0.04006721
000370 cb f0 66 3e 10 05 fc bc c0 f9 55 3e ba 8d 16 be
       0.22552793 -0.030764133 0.20896053 -0.14702502
000380 27 45 0f bf 00 66 d9 be fd 50 f1 bd df 51 02 bf
       -0.55964893 -0.42460632 -0.117830254 -0.50906175
000390 5c ac bd be d9 6e ba 3d 0f d6 df 3d 86 9f 1b 3e
       -0.37045562 0.09103174 0.109295 0.15197572
0003a0 8f f8 bc be 78 51 e9 3e 35 46 8c bd e8 46 ad bc
       -0.36908385 0.45569968 -0.068493284 -0.021151975
0003b0 3e 30 6d bc c9 7f f8 bd 4c bf 02 3f 06 e4 2f bf
       -0.014476834 -0.12133748 0.51073146 -0.6870731
0003c0 1d d4 c4 be 8e f5 17 3e 56 cb b5 bd 90 b5 21 3d
       -0.3844308 0.14839765 -0.08876674 0.039479792
0003d0 5d 4b 99 3b 4d fd a3 bd c1 27 6b 3e 99 0d 7c 3e
       0.0046781735 -0.08007298 0.22964384 0.24614562
0003e0 30 3a 41 bf 36 07 26 3d 8c 51 6f bb f0 0e 30 3e
       -0.7547941 0.04053422 -0.0036517112 0.17193198
0003f0 11 19 92 be bf fe 11 be a5 42 f7 3e 95 e5 4a be
       -0.2853475 -0.14257334 0.48293033 -0.19814141

model.lstm.weight_hh_l1_reverse f4 [32, 8]
000000 a7 d1 04 3f c6 ef 0f bf 75 69 c4 3e 69 03 10 3e
       0.51882404 -0.5622524 0.38361707 0.14063801
000010 87 56 2e be 54 88 53 bd a5 6d d2 bd aa 81 07 bc
       -0.17025195 -0.051643685 -0.10274819 -0.00827066
000020 f8 e0 14 be 35 4d bb be d8 34 bb bd c7 a8 3b 3e
       -0.14538944 -0.36582342 -0.091409385 0.18326102
000030 f6 9a aa be 67 d1 8e 3e e0 53 d6 3d b1 5c a4 3d
       -0.3332135 0.27894136 0.10465217 0.08025492
000040 fc d6 97 3d 02 d7 00 bf fd 9c c4 bd 81 d3 93 3d
       0.07414052 -0.50328076 -0.09600256 0.072180755
000050 30 ca 10 3e 06 13 9d be 43 e6 b9 3e bf bd bd 3e
       0.14139628 -0.30678576 0.36308488 0.37058827
000060 3e ea ad 3e 3c b2 75 be db de 67 3e d3 be b0 3e
       0.33967775 -0.23993772 0.22643606 0.34520587
000070 58 46 93 3e 31 fd 3a bd 38 f7 f4 3e b2 9f 18 3e
       0.28764606 -0.04565162 0.47844863 0.14904669
000080 62 34 c6 3e 46 df 24 bf 35 11 e5 3e 73 cd ea 3e
       0.3871184 -0.6440319 0.4473969 0.4585987
000090 e9 f8 8d bc 5a db 2e bc 52 f0 09 3f d2 43 fc 3e
       -0.017330604 -0.010672415 0.53882325 0.49270493
0000a0 6b 4d 57 3f 26 22 1e bf ce e0 4b 3e ad 0e 22 3f
       0.84102505 -0.61770856 0.19909975 0.63303643
0000b0 e0 74 8e 3e 22 42 c2 3e 0b 55 a3 3e 01 31 1b 3f
       0.27823544 0.3794108 0.3190082 0.6062165
0000c0 41 03 a2 3e 8e 3a 06 bf 11 89 29 3e ae 14 ca 3b
       0.31643108 -0.524331 0.16556193 0.006167016
0000d0 5e cb a7 3e b6 2b 34 bd a8 13 10 be c6 0e 33 bd
       0.32772344 -0.043987 -0.14069998 -0.04371526
0000e0 fb 9d 0f 3f 76 ca 29 be fd 52 81 3e 2f 39 e2 3e
       0.56100434 -0.16581139 0.25258628 0.44184253
0000f0 3a ef d0 3e 48 30 1b 3e 95 12 05 3e 1f 39 91 bd
       0.40807515 0.15155137 0.1299537 -0.07090973
000100 37 a9 0c 3f f5 7b f1 3d d6 cf 18 be f1 22 11 3f
       0.549457 0.11791221 -0.14923033 0.5669394
000110 32 62 a4 bd 98 05 b6 3e 2a 42 fc bc 37 32 66 3e
       -0.08026542 0.35551143 -0.030793268 0.22480093
000120 06 c1 c6 3d fb 69 05 3e 7d 66 00 3e c5 99 25 bd
       0.09704785 0.1302871 0.12539096 -0.04042985
000130 72 2e 4e be f8 7a a6 bc 9a 31 1e be 4d e8 63 3e
       -0.20134905 -0.020322308 -0.15448609 0.22256584
000140 8c f5 19 be 82 9f cf be 2c 25 47 be 83 5a d6 bd
       -0.15035075 -0.40551382 -0.19447774 -0.104664825
000150 58 cd 8b bd 5c 68 da bd 17 5f 92 3e 9f 69 c7 bd
       -0.068262756 -0.10664436 0.28588173 -0.097369425
000160 9f 38 11 3e b1 e3 bc bd 72 f5 a5 3e 9f 51 97 3c
       0.14181755 -0.09223116 0.32413822 0.018471537
000170 7e b6 8c 3e cc f2 c8 3d e2 16 05 be 3a dc b2 3e
       0.2748298 0.09811935 -0.1299701 0.34933645
000180 31 74 69 3e ee 4b 0b bf a0 55 11 bd 7c 37 b0 3e
       0.2279823 -0.54412735 -0.03548205 0.3441733
000190 05 62 a1 bd 24 bc f1 3d 7b 42 ac 3d b9 32 05 3e
       -0.07880024 0.11803463 0.08411118 0.1300763
0001a0 1c 8f 21 3e e0 fa 82 3d 42 35 04 bd 03 eb 4f 3d
       0.15777248 0.06395507 -0.032277353 0.050761234
0001b0 cf cb ec 3d a6 00 67 be 89 01 36 3e 85 41 3f 3e
       0.11562311 -0.22558841 0.17774023 0.18677337
0001c0 12 bf 25 3f 1d 46 7b bd 52 b2 ce 3e 41 b4 0c 3f
       0.64744675 -0.061346162 0.40370423 0.54962546
0001d0 de 0a 82 be 03 d1 9c 3e 1f cc e4 3c 4b 59 c0 3e
       -0.25398916 0.30628213 0.027929364 0.37568125
0001e0 35 b8 f6 3e 0c cb b0 bd 56 29 5e 3e 09 c3 94 3d
       0.48187414 -0.08632478 0.21695456 0.072637625
0001f0 7a 0d 93 be 2e ef 80 3e 93 96 e4 3e 47 6a 68 be
       -0.2872122 0.2518248 0.4464613 -0.22696792
000200 dd 66 1a 3e ca 5a fa be 6f 52 1e be 41 b2 08 3e
       0.15078302 -0.48897392 -0.15461133 0.13349248
000210 11 94 a6 3d ec d5 b4 3b d4 b3 6c bd db 44 72 be
       0.0813371 0.0055186655 -0.057788685 -0.23659079
000220 ad cd a7 3d 24 ab 3d 3d 09 06 c1 be 18 2b 0d bd
       0.081935264 0.04630579 -0.37699917 -0.034464926
000230 23 0a 49 3e 92 6c c7 3d 03 c7 a4 be 87 dc 9e be
       0.19632773 0.09737505 -0.32183084 -0.31027624
000240 fb 5a 5f bc 17 1d 98 3e c2 9c f5 3d 8d ad 9a 3e
       -0.013632531 0.29709694 0.1199279 0.30210534
000250 ce 89 81 3e 43 ff 36 3e cc b5 46 be 79 a1 ea be
       0.2530045 0.17870812 -0.19405288 -0.4582632
000260 30 a9 8b 3e 63 78 b9 be 68 6e b6 3e 3e 98 94 bd
       0.27277517 -0.3622466 0.35631108 -0.072556004
000270 25 c8 25 3e 61 82 a9 be 36 11 01 be dc fb c5 be
       0.1618963 -0.33107284 -0.12604222 -0.38668716
000280 12 67 9b 3c 8a e2 f0 bc 02 8f c1 3c 40 76 e1 bd
       0.018970046 -0.029404897 0.023627762 -0.110088825
000290 d6 10 93 bb 98 a7 06 be ef ea 0c bc 19 d1 15 bf
       -0.004488091 -0.1314987 -0.008600934 -0.5852218
0002a0 5b 33 51 be df 9f 8e be 9d da 8d 3e ae c0 cd bd
       -0.20429747 -0.27856347 0.2770585 -0.10046516
0002b0 a2 92 e3 3e a9 64 17 be ce 04 0d be 70 7f ba be
       0.4444781 -0.14784493 -0.13771364 -0.36425352
0002c0 db 34 ee bd 49 4a fd be 22 23 0a be fb ad 07 3f
       -0.11631175 -0.49470738 -0.13489965 0.5299985
0002d0 60 7e a3 be bd 47 d1 bd be 5d 58 3c dd 53 17 bd
       -0.31932354 -0.10218761 0.013205944 -0.036945213
0002e0 59 f3 8c 3e a1 a1 9f 3d 13 57 9f bd 0d 81 05 3f
       0.2752941 0.077945 -0.0778028 0.5215004
0002f0 97 39 3d 3b 0a e8 88 3e fc 87 21 bc 89 42 2a bc
       0.0028873438 0.26739532 -0.009859081 -0.01039184
000300 c0 09 01 3e d8 03 7d 3e a9 79 84 3e ad e1 da 3d
       0.12601376 0.24708498 0.2587407 0.106875755
000310 e2 9a 8d be 61 f9 39 be ef c6 14 3f f8 1b 86 3c
       -0.2765723 -0.18161537 0.5811605 0.016370758
000320 f7 2a 34 3e 34 08 a1 bd ac 0f 26 be b7 70 0f be
       0.17594515 -0.07862893 -0.16216916 -0.14007841
000330 ca 38 38 3e 8f eb 0b be d0 67 1a be 83 04 94 bd
       0.17990413 -0.13664077 -0.15078664 -0.07227423
000340 ab 71 5d be 77 9f 2a 3c 3d 40 2d bd 1d 97 6c 3e
       -0.21625392 0.010413996 -0.04229759 0.2310452
000350 1e 81 bc 3c 7f 47 ee 3d 76 89 86 3e 4c a7 1d be
       0.023010787 0.116347305 0.2627675 -0.1539585
000360 05 bc 8c 3e b2 40 6d be cc f9 bc bc 09 ab 1a 3e
       0.27487198 -0.2316921 -0.023068331 0.15104307
000370 e1 4d 83 be 45 34 a8 3e 8a 15 8b bd df 5b e0 3b
       -0.25645354 0.32852378 -0.067912176 0.0068468894
000380 a3 81 b3 3e 7d 7d 2a bf c7 87 15 3f 13 b3 e2 3e
       0.35059842 -0.6659773 0.58410305 0.44277248
000390 75 a3 3f 3e 0e 0b 67 3e d4 b5 04 3f 84 2a 0e 3f
       0.18714698 0.22562811 0.5183995 0.55533624
0003a0 1f 2b 03 3f 1a 97 eb be eb 08 9e 3e 56 71 83 bc
       0.5123767 -0.4601372 0.3086618 -0.016045254
0003b0 b2 ed 39 bd 6d e7 d2 3e 7d ee 1c 3f 5c 92 ec 3e
       -0.0453927 0.4119219 0.61301404 0.46205413
0003c0 cc 01 0a 3f 06 42 4d be e8 33 b5 bd 5c c2 2d 3f
       0.5390899 -0.20044717 -0.08847791 0.67874694
0003d0 3c 90 8d be 21 43 be 3e 3b 84 d6 3b 92 78 f3 3e
       -0.27649105 0.3716059 0.006546525 0.47552925
0003e0 67 3f 35 3d 74 08 67 3e 45 77 88 3e 69 0d ae bd
       0.04424992 0.22561818 0.26653495 -0.084986515
0003f0 5b 94 5f ba 5c 73 c6 3d 87 ce 1d be 78 34 bc bd
       -0.00085288816 0.09689972 -0.15410815 -0.09189695
