detection_models/model.pt (torch, 205245 bytes, 9 tensors)

model.lstm.weight_ih_l0 f4 [256, 2]
00000000: c8fd 053f 7b13 113e 5a8f 0640 610d ea3f
00000010: 3359 85bf d6f6 abbd c804 1040 5940 65bd
00000020: a64f 3b3f 05ef e93e d60f 18bf 81a1 103f
00000030: 52c1 083f 1dde 9f3e 40f2 473f 9651 0f3f
00000040: cd83 27bf 74ae 07bf 24a8 9dbf 17e6 67bc
00000050: f4f1 0d40 84a4 4b3f 49b8 d0bf c2d9 9dbd
00000060: 8a7b 3abf 7ef0 81bf b17a 89bf 20bd 233e
00000070: 4c78 63bf 8930 8b3e 9000 1d3f 449d da3b
00000080: e4dd ec3f 8253 5d3f fd8e 96bf e1bb c3bd
00000090: a8ae 2e3f d1db 4ebf 8427 ee3f 45b5 f33f
000000a0: 86e0 ea3f 6758 0c3f 98e8 8cbf 8c47 18be
000000b0: 68a9 493f ea24 6b3e 105c c73f 1e01 093f
000000c0: 126c 25bf 3a93 3fbf e760 f83e 5939 243f
000000d0: e242 27c0 115b dc3e e413 3b3f 82e7 e1be
000000e0: 64fb 0840 c408 373f 5c00 9d3e de92 313e
000000f0: 4700 3440 14eb 953f 9062 0d40 6079 fe3e
00000100: e3b8 43bf b714 2bbb d000 05bf feb9 df3d
00000110: 751e fb3f 94a0 c03f 2ca5 2840 2d52 1240
00000120: 3791 2f40 22f1 883e 7774 e33e c951 b13e
00000130: 2611 c9bf 4f30 21bf 19ba 3d3f 6672 673f
00000140: 06cb f0be 851b a9bd de68 33c0 0b1f d8bd
00000150: d739 2e40 d079 a93f adde f23f 7811 9a3f
00000160: 2d8a 733f 09c2 da3e 1914 4e3f 208d 7e3f
00000170: 1fcb 603f e3df 1e3f 37ed a9be 67df 34bf
00000180: a1b4 873f 3583 843e f117 723f 361f d73e
00000190: f930 94bf 7799 9a3e 7943 0b40 5d6d f83e
000001a0: b42d 54bf 9c84 693e 10d5 b5be 43e5 bf3d
000001b0: c498 f63f 8bf0 a73f de52 90be 4fdf 98be
000001c0: 3018 b53f ab75 673f 366f 253e 9852 45bd
000001d0: 2e1c 6a3f 61ba 2dbc 5ccc ccbf 960b 5f3e
000001e0: 70e7 2b3e af2e b1be 87df 66bf 62e2 2ebf
000001f0: 2f25 953e 60b2 f13e 43fe 1ebf 6507 dfbe
00000200: adbe 98bf d4e7 acbe d5d8 2ac0 e45e 88bf
00000210: 1e4b c0bf 3c5e a2bf 45f7 913e b662 fcbd
00000220: 24c1 e5be 619d 0f3f a397 43bf 49e8 1c3f
00000230: 10ab f2bf ec81 85bf f9da cbbf 8587 0cbf
00000240: 732d ebbf 7b79 39bf d429 91c0 5457 943f
00000250: f335 1640 ead4 4e3f 37d1 8bbf 0d4f 96be
00000260: 4e38 a6bf 1d8f 73bf e450 83bf 4966 8cbe
00000270: fdf4 01c0 e404 7dbf 92f6 76bf 9542 7bbf
00000280: cec8 98bd af31 ac3d 0032 b1bf 01bf 37bf
00000290: cfe9 fabf 12d4 0abf e52a cf3f 8b52 6b3f
000002a0: ac8d b1be a097 4cbe fc53 0abf ae7f 8d3e
000002b0: 9e65 bb3f df94 bc3f 465c 05bf 3382 efbe
000002c0: 29d5 2dbf 6b38 2dbe f0d1 9dbf e0b7 37bf
000002d0: 60dd 03c0 8a7d 27bf 6016 abbe 2d68 54bf
000002e0: 9e58 313f 3726 b4be f412 fb3a 3599 663f
000002f0: 8288 db3f 28a4 3e3f 6712 15bf e1df 35bf
00000300: 4a4a 13c0 85a6 073f 8ab7 a5bf 1ad5 49bc
00000310: d787 3440 5989 ba3f 48fc 1f40 d15b f43f
00000320: 2d37 babf ae7b 4cbf 88a5 a0bf d05c 1fbf
00000330: b5ad 98bf 5cb8 08bf a9f8 aabb af32 c73e
00000340: ed66 a2be c8a7 aabc 62fa 04c0 a182 9c3e
00000350: c34c 93bf 4077 babd a890 933e 686c 67bd
00000360: e1ab 893f ac96 fc3d 17f5 0c3f 4394 783e
00000370: 80f1 cc3e 4e75 e7bd 3332 0cbe 3b5d babe
00000380: 0fc5 24bf ccfe 17bf 9454 8a3f 631e 0c3f
00000390: 2ccc b1bf 3893 d43d e4ef e6bc b5fb b83e
000003a0: 1f6e dfbf abbe 49be ad23 04c0 dcf3 003e
000003b0: 6e0b d63e 69de 013f 086d 01bf 956d 89bd
000003c0: 9e0d 993e a2cc 84be 4f10 d1bf 4b50 1b3e
000003d0: 6c83 e3be eb01 ba3d 2531 ddbf b84e ebbe
000003e0: 218b 11bf 72c8 15be 2489 e2be b59b 09be
000003f0: e26f 2cbf b108 e3bc 7975 d8bf c45a 8abe
0.52340364 0.14167587 2.1024995 1.8285333 -1.0417846 -0.083966896 2.2502918 -0.05596957
0.7316841 0.4569017 -0.59399164 0.56496435 0.53419983 0.31224146 0.7810402 0.55983865
-0.6543549 -0.5300057 -1.2316937 -0.014153979 2.2178926 0.79547906 -1.6306239 -0.0770755
-0.72844756 -1.0151517 -1.0740567 0.15990114 -0.88855433 0.27185467 0.61328983 0.0066715796
1.8505216 0.8645555 -1.1762387 -0.095573194 0.68235254 -0.80804163 1.8605809 1.9039694
1.8349769 0.5482239 -1.1008482 -0.14871043 0.7877412 0.229633 1.557497 0.5351733
-0.6461803 -0.74834025 0.4851143 0.64150006 -2.6134572 0.43038228 0.73077226 -0.4412194
2.1403437 0.7149775 0.30664337 0.17341182 2.812517 1.1712365 2.2091408 0.49701977
-0.7645399 -0.0026104876 -0.51954365 0.10924147 1.961867 1.5049005 2.6350813 2.2862656
2.7432382 0.2674647 0.44424793 0.3463271 -1.5708358 -0.6296434 0.7411209 0.90408933
-0.47029895 -0.08257202 -2.8032756 -0.10552796 2.7222803 1.3240299 1.8974205 1.2036581
0.95132715 0.42726162 0.80499417 0.9943409 0.8780994 0.62060374 -0.33188793 -0.70653385
1.0601999 0.25881353 0.9456778 0.42016 -1.1577445 0.3019521 2.1759932 0.48520938
-0.8288224 0.22804493 -0.35514116 0.093699 1.926537 1.3120283 -0.28188223 -0.2985787
1.4148006 0.9041392 0.16155705 -0.04817447 0.9144925 -0.010603518 -1.5999866 0.21781763
0.16787505 -0.3460593 -0.90184826 -0.6831418 0.2912993 0.47206402 -0.6210672 -0.4356033
-1.193319 -0.3377062 -2.6694844 -1.0653958 -1.5022924 -1.2685008 0.28508964 -0.12323515
-0.44873917 0.56099516 -0.76403254 0.6129194 -1.8958454 -1.0430274 -1.59262 -0.54894286
-1.8373245 -0.7245099 -4.536356 1.158915 2.3470428 0.8079363 -1.0923222 -0.29357186
-1.2985933 -0.9514025 -1.0259061 -0.27421787 -2.030578 -0.9883559 -0.96469986 -0.9814847
-0.074601755 0.08407914 -1.3843384 -0.71775824 -1.9602603 -0.54229844 1.6184965 0.91922826
-0.346784 -0.19979715 -0.540344 0.27636474 1.4640386 1.4732932 -0.52093923 -0.46779022
-0.6790338 -0.16916053 -1.2329693 -0.71764946 -2.0603867 -0.6542593 -0.33415508 -0.8297146
0.69275844 -0.35185406 0.0019155429 0.90077525 1.7151034 0.7446923 -0.58231205 -0.7104474
-2.3014092 0.52988464 -1.2946637 -0.012318874 2.820791 1.4573165 2.499773 1.909052
-1.4548088 -0.7987622 -1.2550516 -0.62250996 -1.1928011 -0.5340631 -0.005217631 0.38905856
-0.3171915 -0.020831957 -2.0777822 0.30568412 -1.1507801 -0.091047764 0.288213 -0.05649987
1.0755578 0.12333426 0.5506148 0.24275307 0.40028 -0.11301671 -0.13691024 -0.36399254
-0.6436319 -0.59373164 1.0807061 0.54733866 -1.3890433 0.10379642 -0.02819056 0.36129537
-1.7455481 -0.1970164 -2.0646775 0.12593025 0.41805595 0.50729996 -0.50556993 -0.06710354
0.29893202 -0.25937372 -1.6333102 0.15167348 -0.44436204 0.09082397 -1.7280623 -0.45958495
-0.5685292 -0.14627245 -0.44245255 -0.13438304 -0.6735822 -0.027714105 -1.691085 -0.27022374

model.lstm.weight_hh_l0 f4 [256, 64]
00000000: 914e 1d3d 479c 773e acef c03f 8486 2dbf
00000010: 9e53 88bf b5ec 7a3f 89c0 91be 32f0 5bbe
00000020: 679f 833f 8fea 0e3f 61eb 8d3e b855 643f
00000030: bf12 80be 8dec 57be 3524 b33e 0ab0 24bf
00000040: 940d bb3d 5886 acbf 4c5d 393f 6523 103f
00000050: 87a7 cc3e 4bc9 b8be d21c 01be cc5e 11bf
00000060: 23b7 903f b39d 1cbf 296d 6b3f a42d 003e
00000070: df6b 4a3c b331 40bf ad04 1dbd 408f 323f
00000080: 1c4c 023f ad22 ab3f f587 9c3e 1db0 25bd
00000090: da1c 89be 25da a23c b990 e2be 7d8d 7b3f
000000a0: 9957 243f 0cd3 8dbf f04c 903e 3409 3abe
000000b0: f6d4 33bf 1279 b93e 3e99 37be ca93 efbf
000000c0: 1822 bbbd 0cde c7be fa00 05c0 a3c5 a33e
000000d0: d364 5cbf 757b 5dbe 8d2c 3ebf 4626 ac3e
000000e0: 0224 d63e db2d 66bf 98bc b9bf 58bb 8bbf
000000f0: bce8 9c3f ffea b03d 70ed 7bbf 8221 0a3f
00000100: ed69 40bf 96d1 a1bd 54ab 713f 414f 103e
00000110: 297e efbe 670d 3f3f 36db 42be 790d 00bf
00000120: 2424 3a3f 3510 b73f 11bb 233e 65bb ef3e
00000130: dd20 93bf 1f22 f7be b4d7 193e f5cb 623f
00000140: d1cf 573f 03ea 9bbf 3597 e6bd 69d0 91bf
00000150: fd0e 803e da38 4abf 0802 ce3f c75d f6bf
00000160: e79c 913e 2d06 383e 0df4 a93e 905b 573f
00000170: 2fb9 8f3f f7ce c6be ff75 b33f 143d 103f
00000180: 44fe 613f 2947 963f 647d 533f d7a8 bb3f
00000190: 0d0e 7d3f 1908 5cbf 1fac fabe b708 9b3c
000001a0: adc5 f3bd ff41 0dbf 0df5 103f f4d0 843e
000001b0: 054a 873d 78a6 c1be 2195 a43f d2ce 813e
000001c0: 82e7 0dbf 0cee 273f 345c 2bbf 2e54 d8bd
000001d0: 2522 7cbf 9c75 913e c7df 933e aef2 f1be
000001e0: fd1d bb3f 8cd1 74bf dcb7 aebe 6216 96bf
000001f0: 5c97 b83d f3bf 293e fb67 3ebe ad63 4a3e
00000200: a5e1 e13d e015 1fbf e959 4fbc aebf b33d
00000210: 4070 dcbe 1eb0 01bf 273a f9be 6882 333f
00000220: cf44 4d3e bf91 57be cb73 42be a997 a23e
00000230: fe4c 84bd a973 963e da11 a1be 5607 41be
00000240: 1568 37be a757 3d3e da1c 70be c373 ae3f
00000250: 9298 3b3f 03ae 043f 11c4 02bf aa28 503f
00000260: a531 1e3d 089a 783f 3617 013e 6803 63bf
00000270: 5929 a0bf e129 74be 3874 cfbe 6fb0 60bd
00000280: 5510 be3d 821c 173e 50af 66bf a51e 22bf
00000290: 0a6b 13bd 9b07 4ebd 57db 35be b7d0 1ebd
000002a0: 4554 5d3d 0479 0dbf e849 b13d 3e34 e93e
000002b0: 2190 f23d bfdf 2abe f1ed b2bf da29 343e
000002c0: 3cdf e9be beed 38bf 6590 443e fbc3 9fbd
000002d0: 7b41 b2be 9064 0ebf c7b4 493f c063 50bf
000002e0: aba3 d3be 7616 10bf d166 adbd d28c 443f
000002f0: 29dd d5be 8873 afbd 3fa1 b63e 09bf e8bd
00000300: 0944 7fbf 547b 093f 8f7e 03bf c2d0 103f
00000310: ddda b8be ae22 673e 8f1d c6bf 58ae dcbe
00000320: 53b0 483e 5150 af3e 10c1 553f 59eb 73be
00000330: cd4d 4fbf e748 abbe 982e 3abf 46a0 28bd
00000340: 7c63 c83e 6afd 89be fc51 c1bf ec67 603f
00000350: 8663 4f3f 88b6 da3d 96d7 433d fa49 15bf
00000360: 3d5d ffbe 2c45 7ebf 7dd4 a53d c713 2d3e
00000370: 6ae1 673e 5dd2 37be 86f1 1b3f b097 233f
00000380: e6f5 483f 403c b73d eb75 243f 46b2 4c3f
00000390: 980e 913e 2d87 1d3d db3c b33e c768 173f
000003a0: 8684 753e 92ab 27bf b6e7 133f 6d85 24bf
000003b0: e641 843f 31b6 0a3e ab9f 6ebf 276f 083f
000003c0: 4164 7a3e 72bc 283d 8bad a93e 5566 b3be
000003d0: ae35 e4be c18d 99bf 594a b3be f6d3 483b
000003e0: 2a49 32bf 481d c5be 27ff e03e 3526 2b3f
000003f0: 3373 98be 4877 b63e 0bf4 b03e f5f1 283b
0.038405005 0.24180709 1.5073142 -0.6778338 -1.0650518 0.98017436 -0.28467205 -0.21478346
1.0283021 0.5582666 0.27718642 0.89193296 -0.25014302 -0.2108633 0.3498856 -0.64331114
0.09133449 -1.3478498 0.72407985 0.5630401 0.39971563 -0.36091074 -0.1260865 -0.56785274
1.1305889 -0.6117813 0.9196344 0.1251741 0.01235482 -0.75075835 -0.038334537 0.6974983
0.50897384 1.3369957 0.30572477 -0.040451158 -0.26779824 0.01987941 -0.4425104 0.9826277
0.64196163 -1.1080031 0.281837 -0.18167573 -0.7024683 0.36225182 -0.17929551 -1.8716977
-0.09137362 -0.39036596 -2.0781846 0.31986722 -0.86091346 -0.21629126 -0.7428673 0.3362295
0.41824347 -0.8991372 -1.4510679 -1.0916548 1.2258525 0.08638572 -0.98409176 0.5395738
-0.7516163 -0.079013035 0.9440205 0.14092733 -0.4677594 0.74629825 -0.19028935 -0.5002056
0.72711396 1.4301821 0.15989329 0.46822658 -1.1494404 -0.4826822 0.1502369 0.88592464
0.8430148 -1.218079 -0.11259309 -1.1391727 0.25011435 -0.78993 1.609437 -1.9247369
0.2844002 0.17971106 0.33194008 0.8412409 1.1228389 -0.38829777 1.4020385 0.563432
0.88278604 1.1740466 0.82613206 1.4660901 0.98849565 -0.85949856 -0.48959443 0.018925054
-0.11902938 -0.5517883 0.5662392 0.2594067 0.06605915 -0.37822318 1.285801 0.25353104
-0.5543138 0.65597606 -0.66937566 -0.10562931 -0.984896 0.2841004 0.28881666 -0.47255462
1.4618527 -0.95632243 -0.3412465 -1.1725581 0.090132445 0.16577129 -0.18594353 0.19764586
0.110293664 -0.62142754 -0.012655714 0.087767944 -0.4305439 -0.5065936 -0.4867718 0.7012086
0.2004578 -0.21051691 -0.18989484 0.31756333 -0.064599976 0.29385117 -0.31458932 -0.18850455
-0.17910798 0.18490468 -0.23448506 1.3629078 0.7327968 0.5182802 -0.51080424 0.8131205
0.038621563 0.97110033 0.1260651 -0.8867707 -1.2512618 -0.238441 -0.40518355 -0.05485576
0.09280459 0.14756969 -0.90111256 -0.6332801 -0.035990752 -0.050300222 -0.17759453 -0.038773265
0.054035444 -0.5526278 0.086566746 0.4554767 0.11843897 -0.16686915 -1.3978864 0.1759409
-0.45678127 -0.72237766 0.19195707 -0.07801052 -0.34815583 -0.55622196 0.7879147 -0.81402206
-0.41335806 -0.5628427 -0.08466876 0.76777375 -0.41770294 -0.08566958 0.35669896 -0.11364562
-0.9971319 0.5370381 -0.5136499 0.5656854 -0.3610448 0.22571823 -1.547777 -0.43101764
0.19598512 0.34240964 0.83497715 -0.23820247 -0.8097809 -0.33454058 -0.72727346 -0.041168474
0.391384 -0.26951152 -1.5103145 0.8765857 0.81011236 0.10679346 0.04781302 -0.58316004
-0.49875823 -0.993243 0.080971695 0.16902076 0.22644582 -0.17951341 0.6091541 0.6390333
0.7850021 0.08947039 0.6424243 0.79959524 0.28331447 0.03845899 0.35007367 0.5914425
0.23976335 -0.6549617 0.5777544 -0.6426609 1.0332611 0.13546063 -0.93212384 0.53294605
0.24452306 0.04119534 0.33140215 -0.3503901 -0.44572204 -1.1996385 -0.3501766 0.0030643917
-0.6964289 -0.38498902 0.43944666 0.66855174 -0.2977539 0.3563788 0.3456119 0.0025778983

model.lstm.bias_ih_l0 f4 [256]
00000000: 5538 4ebf 722c 2840 0028 243e 4978 d3be
00000010: e7a5 673e 3580 3e3e 4888 75be 64b3 a93e
00000020: 036c 013e 1053 e93e e983 aa3f a431 abbd
00000030: 6398 31bf 7503 353c 484b 6e3e a12f 0dbe
00000040: 9d66 db3c d376 51bd 2cc7 103f 079c a13f
00000050: 8302 b4be f674 c9bc 9fd4 33bf d338 b4bd
00000060: a1e6 e5be 0bb2 e13d 1f88 16bf 76c7 74be
00000070: a6b0 573f 0adb 85be b731 6cbf 8c6f 0bbf
00000080: 9dd9 2ebe 065c 61bd d929 c73f 029a fe3f
00000090: b6a5 443f 6327 143f a686 19bf 7811 2a3e
000000a0: 844b 8bbe 9f4b e4bd fa4d d83f d56e 1cbf
000000b0: b35b 98be 0db0 163e 1d7d 50be 43df 60bf
000000c0: 195d e0bd 5cbc 33bf 397d 0cbe 76ce 50bf
000000d0: caf1 01be 358f 073e 7ecc eebe 106b e5be
000000e0: da15 21be 4eee 57be 863e d1be a56a adbd
000000f0: 1ab7 89bd d48c 75bf e6a9 923e 12db 79be
00000100: 76f3 bdbf 06a4 6cbf 23a5 28bf 08cb af3d
00000110: 7a28 8fbe abd2 903e aa16 8ebf 6560 68bf
00000120: 97db 7abf be45 693e bb20 ec3d aeec 27bf
00000130: 2fcb 4ebf 5c76 67bf 2a44 41bf d436 2dbe
00000140: 3e3f a9be 7028 45bf 2194 023d 3896 93bf
00000150: a215 9abf 3123 923d 79cd 7bbf 231d b3bf
00000160: 9d9c cfbe 7d22 93bf 7710 7abf 663b d5be
00000170: 1dde 66bf e50e f7be 5622 95bf 0793 61bf
00000180: 1212 c4be 5def d5bd 1f3d cbbe 39d0 01bf
00000190: c678 05bf 484a 77bf 71bd 7ebe 4c36 bcbe
000001a0: 3d22 6dbe dc6b 22bf 1843 e4be 2c9a 6ebf
000001b0: 15a5 66bf 0131 8bbf 7044 a6bf 3645 55bf
000001c0: 2952 d6be feb1 86bf 3a1d 7b3d 5b58 10bf
000001d0: a98b e5be 65a6 6f3d abec 32bf 48fe 27bf
000001e0: 5891 62bf f7f4 94be 5915 adbe 4d0b e1be
000001f0: 98d1 3abf 33ce 31be a3b1 293d 431a aebe
00000200: 7883 5a3e 01e8 50be 9f52 f3bd 77f8 643e
00000210: 1c7b 20be 1d33 733d 7c70 8dbc 97bf ae3e
00000220: edfb 27be 4b30 333d 513c 76bd 39e5 b33e
00000230: ee99 dfbd 86ee ddbb b8e1 0dbe e100 183e
00000240: 23e0 d4be 7a66 523d 0608 c33d b235 aa3e
00000250: 37d2 b6be ebac 96be 48c1 133e fa4e e73e
00000260: af15 cd3e c377 c9bd 8f67 d93e 09eb 89be
00000270: 69d5 9d3e 23e3 273e 48de 71bc 0c59 c13d
00000280: a217 05be ddc2 023e 3610 1bbe 2079 2dbe
00000290: 5e4d 3dbd b300 a8bd 87fe a4bd 2a13 223e
000002a0: 5e84 d7bc 8e83 2f3e 3a39 02bd 00c3 c43e
000002b0: edf1 87bd 2378 c6be 7813 ae3d 412e a4be
000002c0: 719d 243e bf56 adbc fc60 41bd 7f54 78be
000002d0: f949 13bd bcd8 13be c0a2 163e f67f acbe
000002e0: 7440 89bd cc10 1fbe a509 c4be 7fef 653e
000002f0: 2840 4f3e 1cc7 0b3e 4df4 d8bd 58fc da3d
00000300: 39ce adbe 5aa5 b63f 444e c23e 628e 4bbe
00000310: 2a0e 773e 236a f2bb 7792 92be 6c72 14bc
00000320: 65f4 b6bd c7e9 393f 444d ad3f f914 8abe
00000330: f6f0 10be 5c36 11bf 8473 8fbe 9361 573e
00000340: 3f0d 25be ec7f e23a d71f da3e 5bb2 493f
00000350: 157a b9bd 7832 29be fd12 ddbe 1bd8 8cbf
00000360: 7701 c3be 8ac1 01be bd85 e9bd bd49 68be
00000370: 1a11 753e 2476 f5be c7c2 90bf 66bb 67bf
00000380: 9cc2 1a3f 0b87 bcbe 64c1 ac3f 29a7 d33f
00000390: b0e6 be3e 2370 8b3e ebcb e1be 7350 c53d
000003a0: d4ff 46bf 315c c7bd 7c60 dc3f cf06 3dbf
000003b0: 402a 5d3e 1a9a 0abd 528a 5ebf 0fb7 8dbf
000003c0: bbbe 82bc 4130 81be 8369 513d 89ea 1dbf
000003d0: 9d57 66bd 9d64 b8be 9dda 4bbf 0d55 d4be
000003e0: 796b abbe 42ad afbc bb3d f6be e636 10bd
000003f0: 6b9b 03be 77d6 debe 93f1 a13e 5eb4 a9be
-0.80554706 2.6277127 0.16030884 -0.41302708 0.2262188 0.18603595 -0.23977768 0.33144677
0.1263886 0.45571184 1.3321506 -0.083590776 -0.6937315 0.0110481875 0.23270905 -0.137877
0.026782328 -0.05113871 0.5655391 1.2625741 -0.35158166 -0.024591904 -0.7024631 -0.08799901
-0.44902518 0.11020287 -0.58801454 -0.23904213 0.8425392 -0.26143676 -0.9226336 -0.5446708
-0.170752 -0.0550194 1.5559646 1.989075 0.76815355 0.578726 -0.5997108 0.16608226
-0.2720605 -0.11147236 1.6898797 -0.61106616 -0.2975746 0.14715596 -0.20360227 -0.8784067
-0.10955257 -0.7020929 -0.13719644 -0.81565034 -0.12689891 0.13238223 -0.4664039 -0.44808245
-0.15730992 -0.21087 -0.40868014 -0.084676065 -0.06724377 -0.9591801 0.28645247 -0.24399975
-1.4839923 -0.9243778 -0.6587698 0.08583647 -0.2796057 0.28285727 -1.1100667 -0.90772086
-0.9799132 0.22780511 0.1152968 -0.6559552 -0.80778784 -0.9041498 -0.75494635 -0.16915447
-0.33056062 -0.7701483 0.031879548 -1.1530218 -1.2037852 0.071356185 -0.983604 -1.3993267
-0.40549174 -1.14949 -0.97681373 -0.4164688 -0.9018267 -0.4825355 -1.1651103 -0.8811497
-0.38295037 -0.104460455 -0.3969507 -0.5070835 -0.5213741 -0.9659772 -0.24876954 -0.36760175
-0.23157592 -0.6344583 -0.44582438 -0.93204 -0.90095645 -1.087433 -1.2989635 -0.8330873
-0.41859558 -1.0523069 0.06130717 -0.5638482 -0.44833115 0.058508296 -0.69892377 -0.6562238
-0.88503027 -0.29093143 -0.3380535 -0.43953934 -0.72976065 -0.17363815 0.041429173 -0.3400441
0.21339214 -0.20401002 -0.11880993 0.22360407 -0.15671962 0.059374917 -0.01726555 0.34130546
-0.16404696 0.043747228 -0.060116116 0.3513582 -0.10918032 -0.006772819 -0.13855636 0.14844085
-0.41577253 0.05136726 0.09523015 0.3324409 -0.35707256 -0.294288 0.144292 0.45177442
0.40055606 -0.09837296 0.4246182 -0.2693713 0.30826882 0.1639524 -0.014762469 0.094408125
-0.12997296 0.12769647 -0.15142903 -0.16940737 -0.04621636 -0.08203258 -0.0805636 0.15827623
-0.026308235 0.17140028 -0.031792857 0.38430023 -0.066379406 -0.38763532 0.08499807 -0.3206654
0.16075684 -0.021159528 -0.047211632 -0.24250983 -0.035959218 -0.14438146 0.14710522 -0.33691376
-0.067017466 -0.15533751 -0.38288608 0.22454642 0.20239317 0.13650173 -0.10593472 0.10692662
-0.33946398 1.4269211 0.37950337 -0.19878533 0.24126497 -0.0073979064 -0.2862737 -0.009060483
-0.08933333 0.7262234 1.3539205 -0.26969126 -0.1415442 -0.5672357 -0.2801782 0.21033315
-0.16118334 0.0017280555 0.42602417 0.78787774 -0.090564884 -0.16523159 -0.4317855 -1.100345
-0.38087055 -0.12671486 -0.11402462 -0.22684379 0.23932305 -0.47941697 -1.1309441 -0.9052032
0.604532 -0.3682178 1.3496518 1.6535388 0.37285376 0.2723399 -0.4410089 0.09634485
-0.7773411 -0.09734381 1.7216945 -0.73838514 0.21598148 -0.03383837 -0.8692981 -1.107149
-0.015960088 -0.25232127 0.051126014 -0.61686 -0.0562359 -0.36014262 -0.7963045 -0.4147114
-0.33480433 -0.02144492 -0.48093972 -0.035208605 -0.12852256 -0.43523 0.3162962 -0.33145422

model.lstm.bias_hh_l0 f4 [256]
00000000: a341 5fbf bc28 2f40 92c7 763e 9a33 dbbe
00000010: 2ad8 8f3e fa5b 9f3e f8c2 86be 2914 173e
00000020: a322 4d3e 486a ec3e c66c a33f 783c 6ebe
00000030: 3c29 34bf ce3c 6c3d 30eb e33e 74db 8abd
00000040: c02f ca3d 2fcb 403b 47d1 303f 42e5 ba3f
00000050: 58ef 9cbe 46e4 423d e4d3 01bf 1094 07bc
00000060: eda9 18bf 856a ec3d 87af 08bf 91ca 92be
00000070: cd0d 693f 06fe a1be 9791 52bf 86b1 21bf
00000080: bf2a eebd 4a02 debc b719 cb3f 2330 f43f
00000090: 5a7f 233f d9c9 c73e 3866 07bf 6e52 873e
000000a0: 0a02 55be 92c7 32be 9995 db3f bdb6 34bf
000000b0: fe74 86be f733 adbb 2eb1 64be e6a1 82bf
000000c0: 66d0 70be 8ec3 41bf a835 0ebe 25db 55bf
000000d0: 8124 0dbe ab6e c53d 71e9 04bf 7c1e cbbe
000000e0: cf00 3bbe ccf1 85be 312c 48be bc76 58be
000000f0: ae01 0bbe d0aa 3ebf cdcb 903e 2f02 0fbe
00000100: b60d b0bf 24ae 42bf 37cd 4bbf f122 0dbe
00000110: 2e08 1fbe 135b 913e d255 88bf 4036 52bf
00000120: ef4f 77bf e3bd 81bc 0334 e03d 5462 3fbf
00000130: 6701 5ebf 0f3d 6ebf 0a95 45bf 18bf efbd
00000140: b7a9 f9be 3bb8 30bf d375 40bd 6042 98bf
00000150: 1cd2 96bf 32d7 c93d 0f32 4fbf e31a 9dbf
00000160: af77 92be ace1 95bf 29e5 6cbf 744b 0cbf
00000170: fd11 54bf a2a7 1abf 4aff 96bf a650 55bf
00000180: aef4 8bbe 9ab4 59be 1fbf 0dbf 4c92 05bf
00000190: 55af 39bf f7ba 88bf 343e 82be 618a f7be
000001a0: b5e1 95be ea13 27bf 4392 15bf 1757 5cbf
000001b0: d92b 54bf b4f5 99bf d414 b1bf 88c2 20bf
000001c0: 1030 ecbe a198 8abf 3d48 09bd 8d88 eebe
000001d0: 8644 ecbe 99bb 003e 0adf 0dbf 0e0a 13bf
000001e0: fcfc 86bf 0a67 35be 8286 21be 89cf 0fbf
000001f0: 9d3b 0cbf 09d2 95be f058 0ebe 6691 9abe
00000200: 7252 793e 3d31 60be 3c24 4abe 8f94 713e
00000210: 830a aebe abe0 033e 60f9 18be da2e ae3e
00000220: 755b eebd c15c 3e3d 8eb4 54be 5085 eb3e
00000230: e2ab 01be ce3b efbc fe8a 2ebe 158e 3b3e
00000240: 4719 a0be e799 9dbd 1876 903d 2590 443e
00000250: 5723 84be 5e2a c2be c5ac 5fbd 8981 bd3e
00000260: aab2 a33e 72de 563d ca5d bb3e f161 37be
00000270: d87d 9b3e d5f2 5b3e 3d93 00be b0ce a2bd
00000280: 102f afbd 0d06 473e 3b7f 93be 9910 95be
00000290: 70de c5bc 2577 26be 62ff 3ebd b088 3b3e
000002a0: 2828 a1bb 5e82 46bb 29b5 bcbd f50b bc3e
000002b0: a116 21be 032e aebe a996 efbc 251d e9be
000002c0: c768 023e 89cc e0bd 081e 11be e7c6 a1bd
000002d0: 9762 05be 70aa 23be 2a7a 723e 0f48 aebe
000002e0: 68b0 8bbd d127 69bc e9b1 fabe a4ae 473e
000002f0: 9b02 853d 6c0f 293e bdea 41be eba5 8fba
00000300: 8e7a b3be 4bbc c93f 7fce 893e 05a4 3cbd
00000310: ae5c 823e bfb5 ad3d 3c14 85be bb29 80bd
00000320: 76c5 4cbd 024a 4a3f e4f9 b43f a886 a2be
00000330: 9d82 5fbe 6267 eebe 7755 c6be 5492 bc3e
00000340: 9368 0abd a5b4 343e 0831 fe3e 237a 3e3f
00000350: cbd1 80be e938 eebd abda eebe 3d5e 8abf
00000360: 1878 8cbe bcb6 38bd 8d85 39be 7aab 4abe
00000370: bcda 693e 481a f5be 49c0 6abf 63c8 77bf
00000380: e51c 073f 656d 41be 4546 b33f 67ae db3f
00000390: 5526 c43e 4278 423e 5ce5 0bbf 0c4c 8e3e
000003a0: 523b 3abf 75c3 b9bd 9fcb db3f 1f8b 6ebf
000003b0: 91fc 693e b273 f8bd 0852 2fbf 3609 91bf
000003c0: c6f1 d1bd 4163 f1be 7ba4 38bc f2d4 19bf
000003d0: 9f0b 07be 28a9 e3be 3565 74bf a505 1abf
000003e0: b023 dcbe 63c0 aabd c0fa e8be 2504 59be
000003f0: b028 89bd 1b99 fcbe 0242 c43e ad61 b3be
-0.8720953 2.7368612 0.24099568 -0.42812806 0.28094608 0.3112486 -0.26320624 0.14753784
0.20032744 0.46174836 1.276757 -0.23265254 -0.7037542 0.057675175 0.4451537 -0.067801386
0.09872389 0.0029417982 0.6906933 1.4601214 -0.30651355 0.04758098 -0.50713944 -0.008275047
-0.59634286 0.115437545 -0.53392833 -0.2867017 0.91036683 -0.31639117 -0.822534 -0.63161504
-0.11629247 -0.0271007 1.5867223 1.907719 0.638662 0.39021185 -0.5289035 0.26430076
-0.20801559 -0.17458943 1.7155029 -0.70591336 -0.26261133 -0.0052857357 -0.22333214 -1.0205657
-0.23516998 -0.7568902 -0.13887656 -0.83537513 -0.13783456 0.09640249 -0.51918703 -0.39671695
-0.18262027 -0.2616104 -0.19548108 -0.21139044 -0.1357486 -0.7447939 0.28280488 -0.13965677
-1.3754184 -0.7604697 -0.7961001 -0.1378286 -0.15530464 0.28389797 -1.065119 -0.8211403
-0.96606344 -0.015837615 0.109474204 -0.7475941 -0.8672089 -0.9306192 -0.7718054 -0.1170637
-0.48762295 -0.69031113 -0.046987366 -1.1895256 -1.178287 0.098554984 -0.8093576 -1.227383
-0.28606936 -1.1709495 -0.9253717 -0.5480263 -0.8283995 -0.6041204 -1.1796658 -0.83326185
-0.27335113 -0.212603 -0.5536975 -0.52176356 -0.7253316 -1.0682057 -0.25438082 -0.48347762
-0.29273763 -0.6526476 -0.584263 -0.8607039 -0.82879406 -1.2028108 -1.3834481 -0.6279683
-0.4613042 -1.0827829 -0.033516157 -0.46588555 -0.4614603 0.12571563 -0.55418456 -0.5743722
-1.0545955 -0.17715088 -0.15773967 -0.5617605 -0.5477846 -0.29261807 -0.13901114 -0.30189055
0.24347857 -0.21893783 -0.19740385 0.23591827 -0.33992395 0.12878673 -0.14938879 0.3402012
-0.11638538 0.046475176 -0.20772001 0.46000147 -0.12663224 -0.029203322 -0.17045209 0.18315919
-0.31269285 -0.0769537 0.070537746 0.19195612 -0.25808212 -0.3792295 -0.054608125 0.3701289
0.31972247 0.052458234 0.36594993 -0.17908455 0.3036945 0.21479352 -0.12556167 -0.07949579
-0.08553898 0.19435902 -0.28808007 -0.29114226 -0.024153918 -0.16256388 -0.04663027 0.18313861
-0.004918117 -0.0030290107 -0.09214241 0.36727872 -0.15731288 -0.3401948 -0.029246645 -0.45530048
0.12735282 -0.10976512 -0.14171612 -0.07899266 -0.1302589 -0.15982985 0.23679414 -0.3403935
-0.06820756 -0.014230684 -0.4896386 0.19500214 0.064946376 0.16509789 -0.18937202 -0.0010959482
-0.3505444 1.5760587 0.26915357 -0.04605486 0.25461334 0.08481931 -0.25992 -0.062579595
-0.049993 0.79019177 1.413876 -0.3174336 -0.21827169 -0.4656325 -0.3873708 0.3683039
-0.033791136 0.17647035 0.49646783 0.74405116 -0.2516006 -0.116319485 -0.46651205 -1.0810009
-0.27435374 -0.045096144 -0.18117352 -0.19791976 0.22837347 -0.47871614 -0.91699654 -0.9679014
0.52778465 -0.18889387 1.400582 1.7162598 0.38310495 0.18991187 -0.5464685 0.27792394
-0.72746766 -0.090704836 1.7171515 -0.9318103 0.22850253 -0.12131442 -0.68484545 -1.1330936
-0.10251193 -0.47146037 -0.011269684 -0.60090554 -0.13188027 -0.44464993 -0.9546693 -0.6016486
-0.42995977 -0.08337476 -0.45503807 -0.21192987 -0.06697214 -0.4933556 0.3833161 -0.35035458

model.lstm.weight_ih_l1 f4 [256, 64]
00000000: 3b06 97bf eeeb 21be 32f3 0e40 59fe c7be
00000010: 7eeb 26bf 3b04 373e b28e 40bf 2b1b 5abf
00000020: 498b 153f a256 283f 0af7 ee3f 537d 5240
00000030: 30df 3abf 8298 af3f bc74 a3be 04de b33f
00000040: c0bd 7c3f 1c1d ebbf 876f dfbe 0c6c 1ebf
00000050: 555b 3fbf 94e1 41bf 3d75 4f3d 4ee1 073f
00000060: 3bca 2ebf f9f6 e5bf 5933 eb3f 966a 9c3e
00000070: 1a5c a53f 9b24 20bf 91ca 6bbe 4020 13be
00000080: 6f99 803f bc1a e53f f198 923f 5585 08bf
00000090: ef5d f6be fb11 1fbf bff8 1dbe 2f60 a83f
000000a0: 9146 043f 5236 49bf d8ac c23e 80e8 033f
000000b0: 51b3 bfb9 a0c0 093f 6654 e93e ec53 aabf
000000c0: 2bee bb3f 79f1 9c3f 75f7 d0be c6be 91be
000000d0: 49b0 7cbf 93a0 00bf 60e0 b3bd a55a 85be
000000e0: 132c 1e3e 38cc 39bf 4941 35bf fc64 1ebf
000000f0: a232 d63e c95b 8b3f 2033 813d 67a4 04be
00000100: fe3b 55be 2018 a13f 5d2c ac3f 280a 63bf
00000110: 9e88 9ebf 1621 90bf de77 913f 2faa 1f3f
00000120: 2c5f 2f3f 04df febe f4a8 e33e 7ab4 c03d
00000130: 1c7d 8e3f deba 663e c0c7 d73e a112 c93d
00000140: d2ae 493d 119f ccbe 3edd 8b3f f211 60be
00000150: 51be fc3e 4957 38bf e633 0ebf 033c a33e
00000160: 45a3 da3f 1b2e c6be 9c63 95be 6b2d a4bd
00000170: 97b8 a13e b455 c2be 1dbf 8ebf cc31 36bf
00000180: f890 a8bf 3814 a7be ead0 abbf a575 e4bb
00000190: fc12 cc3c 8e8c 8cbe 3560 58bf fd42 e63f
000001a0: 8047 043f 3fcc 30bf 5b06 04be c06a e9bd
000001b0: a721 13bf dfa0 643f 94c9 a7bd b225 0fbc
000001c0: 124c 91be e662 823c 07e3 073f 7235 86bf
000001d0: 60c5 923e 2d82 d93e 6fca e1be 3d95 69be
000001e0: 0f2a 533f f977 e4be a85c 2f3e 2cfb f1be
000001f0: 4986 10bf 7dac 983e 9ac6 b3bf 496d 85bf
00000200: 2eb2 5abf ef70 19bf cdc0 9c3e e0fc f43e
00000210: 0622 d5be 5cf5 79be 5417 643f d386 f5bd
00000220: 3fe1 0f3f 8e51 da3e d383 0c3f d3d7 083e
00000230: aef6 863e 52e4 5b3f 1785 57bf 33d2 0a3f
00000240: 1dbb 31bf 4170 b6bd 7839 36bf cf70 933e
00000250: 388f 8fbe ea04 e2be a64f 4f3e d641 3dbe
00000260: 2ed6 c1be 5e8f 3e3e 0940 1e3f c9b3 49be
00000270: 412e 8d3f cc53 3abf 4cb8 08bf c82a e6be
00000280: ba1d 9b3f a083 95be 6384 4f3f 270f b03f
00000290: 928a eb3e 8ace e7bd d7a8 14bf ffad 333e
000002a0: 4623 cf3c 44cc 6fbf 918d c1be ee54 973f
000002b0: d6c3 573f 08e1 abbf 5ed1 963d b539 4f3f
000002c0: 2b72 2f3f 9b4d 0abf 530f 02bf 25cb 273f
000002d0: ab9f 983e abe1 3f3f 41c0 f53e 6093 113e
000002e0: c51f 4cbf 27fb c2bf 83a0 39bf da46 94be
000002f0: bcdc 44be bfee 1d3f 5a7d f8be 0253 883c
00000300: cf70 413e ba71 d1be 7f11 1fbf e950 2b3f
00000310: 34e5 0c3f cda9 0bbf ba46 d43e 3bd3 a1be
00000320: 0d9e 1cbe 5f9b b33f 234d 9ebf eee0 983e
00000330: a32e 7bbf cc73 90be cfc1 6dbf 0be0 083c
00000340: 2539 84bf 9c54 9abe d37a 703e eb1a 853f
00000350: 0228 8abf d76b 97bf 5a1d 89bf 5501 02bf
00000360: b33b 09bf 3e56 1b3f 7c55 eb3d 7945 5bbd
00000370: 79db 1fbf 9fb5 f7be 2b67 f7be 9ca5 dabe
00000380: b121 7bbd 0243 ddbe 0112 bdbf 5f5f 1bbf
00000390: 679a 47bf fda9 4b3f 5b05 8cbe 93ca abbe
000003a0: cdb4 6b3f 24f5 9d3e 4f10 27bf 2134 e73f
000003b0: 900b 71bd b5e5 8bbf 0938 8cbf 2800 d93f
000003c0: 42a6 0fbd 23eb 41bf 116d a53e ba0a adbf
000003d0: d7c9 473e 3921 68be deb8 7e3f 790c 0cbf
000003e0: 8942 20bf 3be0 0c3e 3111 523d 293f 2c3f
000003f0: 1bf0 0ebf 14c9 c73e abfa 863f 7aef a23f
-1.1798776 -0.15812656 2.2335935 -0.3906124 -0.6520308 0.17872708 -0.75217736 -0.85197705
0.5841566 0.6575719 1.866914 3.2888992 -0.7299681 1.3718417 -0.31925 1.4052129
0.98727036 -1.8368258 -0.43639776 -0.61883616 -0.74748737 -0.7573483 0.050648917 0.5307816
-0.6827733 -1.7965995 1.8375045 0.3055007 1.2918732 -0.62555856 -0.23026492 -0.14367771
1.0046824 1.7898784 1.1452924 -0.5332845 -0.4811854 -0.6213681 -0.1542692 1.3154353
0.51670176 -0.7859851 0.38022494 0.5152664 -0.0003656396 0.5380955 0.45572203 -1.3306861
1.4682058 1.2261192 -0.40813795 -0.2846586 -0.9870649 -0.50245017 -0.087830305 -0.2604572
0.154465 -0.7257724 -0.7080274 -0.6187284 0.41835505 1.0887386 0.063085794 -0.1295334
-0.20823666 1.2585487 1.3451039 -0.8868737 -1.2385442 -1.1260097 1.1364706 0.62369055
0.68504596 -0.49779522 0.44464839 0.09409423 1.113193 0.22532222 0.42144585 0.09818006
0.049238987 -0.39965108 1.0926893 -0.21881846 0.4936395 -0.72008187 -0.5554794 0.31881723
1.7081076 -0.3870705 -0.29177558 -0.08016475 0.31586143 -0.3795601 -1.1152073 -0.71169734
-1.3169241 -0.32632613 -1.342313 -0.006972032 0.024911396 -0.27450985 -0.845218 1.7989193
0.516716 -0.69061655 -0.1289305 -0.11397314 -0.57473224 0.8930797 -0.08192745 -0.008737015
-0.2837835 0.0159163 0.5308079 -1.048506 0.2866621 0.4248213 -0.44099757 -0.22810836
0.8248605 -0.44622782 0.1712519 -0.4726194 -0.564549 0.29819098 -1.4044983 -1.0423976
-0.8542813 -0.5993795 0.30615845 0.47849178 -0.4162752 -0.24410003 0.89098096 -0.11988606
0.56203073 0.42640346 0.5488865 0.1336358 0.26360077 0.85895264 -0.84187454 0.5422699
-0.6942614 -0.089081295 -0.7118144 0.28797004 -0.28038955 -0.44144374 0.20245227 -0.18482146
-0.3785872 0.18609378 0.6181646 -0.19697489 1.102974 -0.72784114 -0.53406215 -0.44954515
1.2118447 -0.29201984 0.8106138 1.3754624 0.46004158 -0.11318691 -0.5807013 0.17546843
0.025285374 -0.9367106 -0.3780332 1.1822793 0.84283197 -1.3428049 0.07364152 0.8094743
0.6853358 -0.54024667 -0.5080463 0.6554435 0.29809317 0.74953717 0.4799824 0.14216375
-0.79735976 -1.5232896 -0.72510546 -0.28960305 -0.19224828 0.6169242 -0.48533136 0.016641144
0.1889069 -0.4090708 -0.6213607 0.66920334 0.55037236 -0.5455597 0.4146021 -0.3160647
-0.15294667 1.403179 -1.236729 0.29859108 -0.98118037 -0.28213346 -0.92873853 0.008354197
-1.0329939 -0.30142677 0.23484354 1.039884 -1.079346 -1.1829785 -1.0712082 -0.5078328
-0.5360672 0.6067847 0.11490914 -0.05353305 -0.62444264 -0.48380753 -0.48320898 -0.42704475
-0.061311428 -0.43215185 -1.4771119 -0.606924 -0.77969974 0.79556257 -0.27347836 -0.3355299
0.92072755 0.3085109 -0.6525926 1.8062783 -0.058848917 -1.0929476 -1.09546 1.6953173
-0.035070665 -0.75749415 0.32309774 -1.3518898 0.1951059 -0.22668923 0.99500835 -0.5470653
-0.62601525 0.13757412 0.051285926 0.67283875 -0.5583512 0.39020598 1.0545248 1.2729332

model.lstm.weight_hh_l1 f4 [256, 64]
00000000: 0e12 f63e 37c8 133c ce7f 883f 8481 0ebf
00000010: 46c2 1f3f 6abd 653f 4c9b 5cbe a714 93bd
00000020: 3ad2 ab3f 7eb5 2a3f ba39 a8bf f84e 59bf
00000030: 5cb7 8dbf 1881 833e 9141 2b3f 5394 8ebe
00000040: 9f67 26be b0a4 a83e 4a35 2c3f 30c4 303f
00000050: 9235 9b3e eea7 00be 7d35 883f e918 69be
00000060: 102b eb3c c5c0 0fbe 1b1d 34be f40a a63f
00000070: 6073 743f 0c3e 6a3e 4398 67be 083b 74be
00000080: 4aca 493f ead4 a6b9 4a50 2fbf 868a 6a3f
00000090: b2fc 12bf 32c2 c03e 8ad1 bfbe da87 5e3f
000000a0: 87df 07bf ec0d c7be a405 1b3e 4d3b 1a3f
000000b0: 5b52 1b3f 6851 413f 76f8 59bf e761 3ebf
000000c0: 0920 8e3e 5f66 38bd c917 7bbe 1195 92bf
000000d0: c054 0d3f 13b0 d5be f09d ea3d 80f8 3a3f
000000e0: 024e 46bf 70d8 b6be f390 083f db90 723f
000000f0: 005f 46bf a067 f73e 25c0 1e3f b5e1 623e
00000100: 4f2a 90be 3cc9 a1bc 0dcc 08be 3b52 13be
00000110: 5a1b c0bd be4d 88bf 09bf 23bf 3eb6 263f
00000120: 30b1 d2be c48e 2b3d be00 d43e ad55 dbbf
00000130: bbf4 12bf 1705 26bd 9457 c33d fbfa 313f
00000140: 9c3a be3e a785 6fbf f90d c93e 5b7b 53be
00000150: c098 e3bf 808e 43be f302 9f3e 3990 933f
00000160: c12c 173e f27f 89be 6582 50bf ad43 d93e
00000170: 6552 95be 39cf 733e e40d de3d 984b b9be
00000180: 569b e53e 6c34 22bf e250 2c3f b3c5 22bf
00000190: 238d eb3e 0ec7 e6bd 5506 26bf f123 46bf
000001a0: fc25 f2be 3017 33be c40c 043f 44d9 db3e
000001b0: ecaf a4be f1de 653f be4b 8a3f 4d16 a53e
000001c0: fb9c e43d 3245 cd3e bf16 233e d4e6 77bf
000001d0: 7d28 403f 8722 0d3f d08c a13f 4561 0dbe
000001e0: 42e5 7c3f a21c e93e 2576 c6be 8528 5d3f
000001f0: 5b3b fe3e 05bb e23e a4e5 123e b3db 6f3d
00000200: b73e 91be 752a bb3f cd38 afbe a34d 9dbe
00000210: 38d3 8a3f 9d07 96be 7218 13bf cb6e 51bf
00000220: 66a5 0c3f 679d 143f db38 51bd 9078 04bf
00000230: f556 8bbf 7ffb 4eba f00d 473f c609 b9be
00000240: 6a8b 0c3f df97 a5bf bef3 81bf 07b7 423d
00000250: 40a3 e5be e858 90bf ce8e 60bf 2370 ea3e
00000260: 3b37 c2be edc4 28be f62a dbbe e311 b43f
00000270: 0744 9d3d 5f4e 8e3f b8d4 ddbe a4bb e13d
00000280: b801 e03f 019b c1be 606e ee3e f2d0 533e
00000290: 6667 613d 35a5 5e3f 2faa 0b3f 8d9c d7be
000002a0: 1d89 963b 7500 8fbf 04b2 ff3c c217 17bf
000002b0: cc27 3bbf 9f14 56bf 8bfb a63f 42d0 84be
000002c0: b3ec ed3f 162e 013f 311d 1cbe b061 093f
000002d0: 883e 1abf 76b5 f9bf eb49 83bf 7fd7 f9be
000002e0: 235f 173f d995 9f3e 904b ccbe 3a2f 8d3d
000002f0: dbac b53f 47e0 323f 4b0b 003e 2943 083f
00000300: a9ab 4abe 75d7 5ebf 7c02 55be 0116 85bf
00000310: 216f 3cbf e1a2 d5be 1b19 a13e 467b 01bf
00000320: 631d cd3f 0eb6 d1be 7875 983e 9a7f 2d3f
00000330: 6dd1 f13f 4067 b8bf bf26 fe3e c81a 38bf
00000340: c396 4b3e cdc1 473f 56c6 023f 9ec2 35bf
00000350: 246e 19bf 9a68 613f bb3f 14bd 2b8b 0ebf
00000360: b9b6 ad3f dde3 673e 2f0d ea3c 3ac4 57bf
00000370: d059 80be fadb 4a3f d1c9 d1be d4cd be3e
00000380: aae0 213f 5706 7d3e 8776 5d3f a8bd 823e
00000390: f9c8 99be 52f6 10bf 980f debe 9726 983f
000003a0: 4df5 323f a3f2 833f e533 37bd 905d 2ebf
000003b0: d46d 003e a37d 9a3e 1cf6 323f f9d7 35bf
000003c0: 1af0 afbe 9a7e 69bf dd88 f13e 6a19 633e
000003d0: a257 913f fc09 31bf 4960 2b3f f025 aabf
000003e0: 2625 57be 5b72 d23e 3eca 593f 2938 b1be
000003f0: e936 81bf 95a1 3fbf a0c1 323f a807 bc3d
0.4806065 0.009019903 1.0664003 -0.55666375 0.6240581 0.8974215 -0.21543616 -0.071816735
1.3423531 0.66683185 -1.3142617 -0.8488612 -1.1071582 0.25684428 0.6689692 -0.27847537
-0.16250466 0.32938147 0.6726881 0.6904936 0.30314308 -0.1256406 1.0641323 -0.22763409
0.028707057 -0.1403838 -0.17589228 1.2972093 0.9548855 0.22875232 -0.22616677 -0.23850644
0.78824294 -0.0003182062 -0.68481886 0.9161762 -0.5741683 0.3764816 -0.37464553 0.86926043
-0.5307545 -0.3887781 0.1513887 0.60246736 0.6067254 0.7551484 -0.85144746 -0.7436814
0.27758816 -0.045019504 -0.24520792 -1.1451741 0.55207443 -0.41735896 0.114559054 0.7303543
-0.7746278 -0.35712004 0.53346175 0.9475228 -0.7748871 0.48321247 0.6201194 0.22156413
-0.2815728 -0.019749276 -0.13359089 -0.14386837 -0.09380217 -1.0648725 -0.6396337 0.6512183
-0.41150808 0.0418842 0.41406816 -1.7135521 -0.5740468 -0.040532198 0.095381886 0.6952359
0.3715409 -0.9356331 0.39268473 -0.20652525 -1.7780991 -0.19097328 0.31056938 1.1528388
0.14763166 -0.26855427 -0.81448966 0.42434445 -0.29164425 0.23809518 0.10842493 -0.36190486
0.44845074 -0.6336124 0.6731092 -0.63582915 0.46006116 -0.112684354 -0.6485341 -0.7739859
-0.47294605 -0.17489314 0.5158198 0.42939198 -0.32165468 0.89793307 1.0804365 0.32243577
0.11162754 0.40091854 0.15926646 -0.9683659 0.7506178 0.5513081 1.2621098 -0.13806637
0.9878732 0.45529658 -0.38762012 0.8638995 0.4965466 0.4428331 0.14345413 0.05855913
-0.2836816 1.4622332 -0.34223023 -0.30723295 1.0845709 -0.29302683 -0.57459176 -0.8180968
0.5493988 0.58052677 -0.051079612 -0.51746464 -1.0885912 -0.0007895752 0.7775564 -0.3614027
0.5490023 -1.2936972 -1.0152509 0.04753783 -0.44851112 -1.1277132 -0.877179 0.4578868
-0.37932763 -0.16481371 -0.42806214 1.4067959 0.07678991 1.1117667 -0.43326354 0.11022118
1.7500525 -0.3781357 0.46568584 0.20685175 0.05503025 0.86970836 0.54556555 -0.42111626
0.004593982 -1.1172014 0.031212814 -0.59020627 -0.731076 -0.83625215 1.3045515 -0.25940138
1.858786 0.50460947 -0.1524551 0.53664684 -0.60251665 -1.9508502 -1.0256933 -0.48797223
0.5912954 0.31169012 -0.399014 0.068937734 1.4193376 0.6987347 0.12504308 0.5322748
-0.19792046 -0.8704751 -0.20801729 -1.039734 -0.7360707 -0.4172583 0.31464466 -0.50578725
1.6024593 -0.4095921 0.29777122 0.6777283 1.8892037 -1.4406509 0.49638936 -0.71915865
0.1988173 0.7803009 0.51083887 -0.7100009 -0.59933686 0.88050234 -0.03619359 -0.55681103
1.3571388 0.22645517 0.02857074 -0.8428379 -0.25068521 0.7924191 -0.40974286 0.3726641
0.63233435 0.2470945 0.86508983 0.2553532 -0.30036142 -0.56625855 -0.43371272 1.1886777
0.6990555 1.0308422 -0.044727225 -0.68111515 0.12541896 0.30173978 0.69906783 -0.71032673
-0.3436287 -0.91208804 0.4717473 0.22177663 1.1354868 -0.6915586 0.66943794 -1.3292828
-0.21010265 0.4110287 0.8507422 -0.3461316 -1.0094882 -0.7485593 0.698267 0.09181148

model.lstm.bias_ih_l1 f4 [256]
00000000: daa8 543f 408d 753e 71b9 6a3f bed6 803d
00000010: 917c 62be a1af b33f 4c28 a1bd 22e2 993e
00000020: 6e29 56bf 1695 9a3f eb49 2b3f d50f a13e
00000030: aecd c93f a83a 1e3f c578 2e3e 1586 a13e
00000040: 4dc2 643f 061c 6fbf da14 b1be 39c3 b13f
00000050: 2928 9d3e 670a a63f 168f 6f3f 6bf2 84be
00000060: 8ae7 2e3e 2844 603f 88d9 c33e 1e3a 12bf
00000070: 7528 993e 8cbc 88bf e7e8 a33e b4ae 833f
00000080: 4e5f 74be 0722 8d3f f55e 9fbe faa9 d03d
00000090: 464c da3e 3cb6 96be 54a2 8dbe d1ec 48bf
000000a0: 4806 fa3d fdd5 763f d717 193e 8a69 393f
000000b0: dfc4 c23e 5408 dd3e de0b 183e 07a6 8a3d
000000c0: f0fb ac3f da20 98bd 3876 023f ac64 ae3f
000000d0: b4e4 b5bd 5018 323f 5bc9 8e3f 18ca 473e
000000e0: 0c3a 4d3d 48b4 d23e 4e54 cd3f ae37 3f3f
000000f0: f844 9c3e 7f5a 79bf 5af8 b33e 15d4 773f
00000100: 7dea d4be 77c0 24bf 4bf0 6cbf c2d8 43bf
00000110: e5dd 14bf 2913 3c3f ff70 73bf e1d0 74bf
00000120: afda d6be a1f4 b63d f246 d3be a3e4 7c3d
00000130: 8337 07bf f766 5fbf 2911 cd3d 64e3 89bf
00000140: d1f1 1bbf 94c1 493c e9e0 c0be 4886 de3d
00000150: 7618 1ebf 2d3a e9be 2e40 65be c7ce abbe
00000160: 8dd5 37be cc15 02bf 73f7 ccbe d13f 36bf
00000170: 141f a2be 1d79 91bd 4077 63bf 6945 0fbf
00000180: 1ac8 83bd 3329 14bf a78d bdbd b7aa 45bf
00000190: 8b4b 993e 743a c0be 7a73 92bf 120f 4abf
000001a0: e2a2 c9be e517 1a3e 3dab c5be 6612 66bf
000001b0: fa08 8b3d f75f f03e 3e9a 2e3d 0794 c5be
000001c0: d74a 18bf 7d0d 70bf b8f8 87be efad 12bf
000001d0: 788c ea3e 53c4 b9be b2a8 46be 1076 213e
000001e0: 2271 9dbd 965d 81bf 83e5 f5be a377 55bf
000001f0: a43f e63c ffb8 bbbf b309 fabe e3f9 09bf
00000200: 043b dcbe 83af 923d 228a 9c3d 04ac 3cbe
00000210: 3443 fc3c 28c0 3d3f d3d0 1c3f baaf 0b3e
00000220: 4b2a 4b3e 62b3 233f efc1 21be 14a7 88be
00000230: cf45 bbbe fe59 e93e 1f02 61bd 298d 9c3f
00000240: 64be 73bd 8537 2a3f 86b0 a03d b86b b5bd
00000250: 0c6c da3e 211b 82bd f285 d5be fefa 033e
00000260: bbfb ddbe 77c3 a43d 5e2b d2be 3a77 3d3f
00000270: 0189 50be e15c d23c d49e 91be 0932 9cbd
00000280: 782a 683e 2792 013f 9b75 773e 23c6 053e
00000290: 7bb2 19bf d4ac 2fbe 399c b63e 0d36 b43c
000002a0: d51b a8bf 4db5 17bf ac67 0f3e c589 193f
000002b0: 0377 c7bc 6ae1 983e 2226 cbbd 2352 92bc
000002c0: 59e1 6b3f 3c6e 0d3f ce26 5ebd 162c 0a3f
000002d0: 2078 c13d be28 663f 3da0 a3be 7978 983f
000002e0: 1324 0b3e 7eba 06bf d296 593e 8f60 ad3e
000002f0: aeef 0b3d 13db 253f dfc6 f2be 8d4b 173e
00000300: a7cb b43f 5671 053f 2a1f c93e 9c00 9b3f
00000310: 37a4 133f 4072 90be 048c 7ebd 3d25 893e
00000320: 5c0d 34bf 07d4 533f 9764 f2bd 1d4f a53e
00000330: 9150 8c3f 4ea2 963f 15b0 833d c870 2c3e
00000340: 265e 873f dc29 61bf b1cf 653d c288 383f
00000350: d957 38be 7ab6 e13e 10e9 2f3f fb60 9dbe
00000360: 0315 0cbe 58c4 843e a0b5 0c3e 6191 aa3e
00000370: 0eec d03e d011 3cbd ba22 76bf c9df 8a3e
00000380: ca86 a03e 82d9 8e3f 1243 3abd 77ba 36be
00000390: d07d 1d3f 2962 753c ab40 f83e 8b41 5cbf
000003a0: 65ed a9bd b274 bf3f 6ea7 48bf c4a5 9b3e
000003b0: 6f53 323f b9c5 8d3e d8f3 b6bd a820 2d3f
000003c0: 16d0 9bbe af52 8cbf 8db1 513f a2bb ac3e
000003d0: 6ab8 4ebf ab03 acbd 6595 243f 0f3b 19bf
000003e0: 0e2e cd3f b49e ff3e 254f ae3e 424b 40bf
000003f0: 0f08 9bbe 31a7 e13e efa8 00bf b4c8 473f
0.8307015 0.23979664 0.9168921 0.06290959 -0.22117831 1.4037973 -0.07869014 0.30055338
-0.83656967 1.2076747 0.66909665 0.3145739 1.5765893 0.6180825 0.17038257 0.3154761
0.8935898 -0.93402135 -0.3458622 1.3887702 0.30694702 1.2971925 0.93577707 -0.259662
0.17080513 0.87604 0.382519 -0.5711993 0.2991368 -1.068254 0.32013628 1.028769
-0.23864481 1.1026009 -0.31127134 0.101886705 0.42636317 -0.2943591 -0.2766291 -0.78486353
0.12208229 0.9642027 0.149505 0.72426665 0.38040826 0.43170416 0.14848277 0.067699485
1.3514385 -0.07428141 0.5096164 1.3624473 -0.08881512 0.6956835 1.1155199 0.19510686
0.050104186 0.4115317 1.6041353 0.74694335 0.3052137 -0.9740371 0.35150415 0.96807986
-0.4158515 -0.6435618 -0.9255416 -0.7650262 -0.58151084 0.73466736 -0.95094293 -0.95631224
-0.41963717 0.08933378 -0.41265064 0.061741482 -0.5281908 -0.87266487 0.10013039 -1.0772519
-0.6091586 0.012314219 -0.37671593 0.10865456 -0.61756074 -0.45552197 -0.22387764 -0.33556196
-0.17952557 -0.5081451 -0.4003254 -0.71191126 -0.31664336 -0.07103179 -0.88853836 -0.55965286
-0.06434651 -0.57875365 -0.09255534 -0.77213615 0.29940447 -0.37544596 -1.1441491 -0.78929245
-0.39382082 0.15048178 -0.38607207 -0.89871824 0.067888215 0.46948215 0.042627566 -0.38589498
-0.59489197 -0.9377058 -0.26556945 -0.5729665 0.45810294 -0.36282596 -0.1940029 0.15767694
-0.07687594 -1.0106685 -0.48026666 -0.83385676 0.028106518 -1.4665831 -0.48835525 -0.5389692
-0.43013775 0.071623825 0.07643534 -0.18424994 0.030793764 0.7412133 0.6125614 0.13641253
0.19840352 0.6394559 -0.15796636 -0.2668997 -0.36576697 0.4557647 -0.054933663 1.2230579
-0.059507743 0.66490966 0.07846169 -0.08858436 0.42660558 -0.06352831 -0.41703755 0.12888715
-0.43356118 0.080450945 -0.41048712 0.7401005 -0.20364763 0.025679054 -0.2844149 -0.07626731
0.2267245 0.50613636 0.24165957 0.13063864 -0.60037965 -0.17155772 0.35666063 0.02199843
-1.3133494 -0.5926102 0.14004391 0.59975845 -0.024348741 0.29859477 -0.09919383 -0.017861431
0.9214073 0.5524633 -0.054236226 0.5397352 0.0944674 0.8990592 -0.3195819 1.1911765
0.1358798 -0.52628314 0.2124894 0.3386273 0.034164123 0.64787406 -0.47417352 0.14774914
1.412465 0.5212606 0.3928159 1.2109561 0.57672447 -0.28212166 -0.062145248 0.26786223
-0.70332885 0.82745403 -0.11835592 0.3228692 1.0962087 1.1768281 0.06430069 0.16839898
1.0575607 -0.879545 0.056106273 0.72083676 -0.18002261 0.4408453 0.68715 -0.30738053
-0.1367989 0.25931048 0.1374116 0.3331404 0.40805095 -0.045915425 -0.9614674 0.2712386
0.31352836 1.1160128 -0.04547412 -0.17844568 0.615201 0.0149770165 0.48486838 -0.8603751
-0.082972325 1.4957488 -0.7838048 0.30399907 0.6965856 0.27689913 -0.08933228 0.67627954
-0.30432194 -1.0962733 0.81911546 0.33736902 -0.80750144 -0.08399137 0.6429046 -0.5985574
1.602968 0.49925768 0.34044757 -0.75114834 -0.30279586 0.4407287 -0.5025777 0.78040624

model.lstm.bias_hh_l1 f4 [256]
00000000: 1e29 613f 7470 cf3d a07c 713f 53c4 4f3e
00000010: 3b5a 58bd 27cb c13f 2d77 bf3c 6fd3 ab3e
00000020: 58d9 56bf f473 8b3f 4d75 1f3f 058a b33e
00000030: fc11 d33f 978a 143f 9ab2 003e 9022 d23e
00000040: 0e14 6e3f 4fed 91bf 3039 8fbe 936c a93f
00000050: a29a cc3e 0116 aa3f e02f 823f 7ad8 a7be
00000060: 09ee ab3d 783b 603f 5c64 bb3e f00c 06bf
00000070: 1328 d93e c187 85bf a8a9 fd3e 3b9f 623f
00000080: 2bd5 c7be 4bf1 933f d9b2 d9be 4c89 5b3d
00000090: 6a99 ae3e 98cd 91be b042 65be bb55 48bf
000000a0: f367 d93d 6aec 683f 9efc 093d 705d 0e3f
000000b0: 3804 ae3e 33d0 b93e c1d0 103e 704d 653c
000000c0: 5fe7 af3f 9de0 a4bd ae17 033f f4dc b53f
000000d0: 6293 89be 6afb 153f 7cb5 813f 1295 473e
000000e0: 6cf4 883d 1094 7d3e beef cb3f 6b2b 0f3f
000000f0: 56c3 563e e43b 89bf 6eb6 a73e c0fa 793f
00000100: a041 d2be e7c4 1fbf 5b0f 7cbf 9460 56bf
00000110: 381d 25bf f912 3f3f 98e3 68bf 44b4 66bf
00000120: 82df d0be 05ab b1bd 8368 11bf 31a3 613c
00000130: 5c47 2ebf 6b6a 52bf f98d f73d 8199 8dbf
00000140: 2b9e 0dbf b0b7 bd3d 0d3d 8fbe 9da9 6b3e
00000150: 2a81 2ebf 640f c1be 274e 26be bd70 bfbe
00000160: ec3a 83be cc2c fcbe 65f4 e5be 0f74 4cbf
00000170: 34b9 8ebe dd31 efbd 707f 74bf 1d3e 2abf
00000180: 1fa7 9ebd e4e9 43bf ef9c 6e3d 9e7f 25bf
00000190: a00b da3e 497d 08be 2b81 9bbf ce82 2ebf
000001a0: 56b6 1cbf fcb7 893e b717 16bf 5aa8 83bf
000001b0: 6e6b f63c 3f96 db3e f7d1 e03d 1dfe 90be
000001c0: fe58 e5be 204c 60bf ced2 85be 6205 07bf
000001d0: a314 323f e2ae 97be 010f 8bbe 2bcd f83d
000001e0: bfdf 21bd 9b68 88bf 2d37 0abf 8b73 3ebf
000001f0: 19d2 21be 6803 afbf 2cb6 ddbe fa67 05bf
00000200: db25 babe cd0e 5c3d 18d3 1ebd 4acf a0be
00000210: 2483 b03d e75f 573f 1d39 2f3f 6c08 883e
00000220: b771 2f3e db04 1b3f c401 57be 6586 b6be
00000230: f3c8 dfbe bdb9 b73e 72b9 bd3d e8b4 a53f
00000240: 5c70 13bd 226f f93e c9e9 babd 802b 10bd
00000250: 2fb3 bf3e c2f2 33be 8b3f 1bbf a998 85bd
00000260: e13e dbbe f083 9e3d bef2 20bf 11d7 3b3f
00000270: 1357 22be fdde f3ba 4ba1 3bbe 5618 82be
00000280: 1662 fe3d bc54 d83e 1033 873e f567 ac3e
00000290: 01fc febe 1ac2 28be 2a3e bf3e 34bd 173e
000002a0: 5888 9ebf f961 23bf 5633 f53d 2a07 023f
000002b0: 44fe 803d 8c0d de3e 0603 afbd 3d18 51be
000002c0: bd99 7c3f 9df5 d33e 7ac4 3e3d 6708 d43e
000002d0: 3aa8 963d c791 5c3f d758 8ebe 91b2 9d3f
000002e0: 7d9f 543e 05ef 23bf 3e3e 6f3e d486 d93e
000002f0: 84b6 253e 4b96 313f b5b9 ebbe 040a 0c3e
00000300: 89f9 af3f 1baa d13e 8125 ab3e 6ae6 8c3f
00000310: 9503 133f d2f7 b9be 8a84 883d 9a80 e73d
00000320: 5233 05bf 1cc5 543f e552 6cbd 39d2 bc3e
00000330: 7b46 a73f 746c 8e3f cd3f 783e b26d 353d
00000340: 1714 913f 5bd8 7bbf 8dea 123c 8674 633f
00000350: 5fd1 12be 1b30 083f 515b 453f 5a0f 6fbe
00000360: ecb0 eebc 5fe4 e03e f679 2d3e a271 a33e
00000370: 71f5 ae3e db7c 273e ce35 61bf 9c54 993e
00000380: d91c 7a3e a476 8c3f d63a 17be bcbb 9abd
00000390: 1894 0b3f ece2 b3bd 11c9 b03e a5ad 47bf
000003a0: 76d7 b73d 341d a93f 5b25 2cbf 8c74 a33e
000003b0: 8c17 163f 938e f83d b423 2fbe 1987 093f
000003c0: cbbb 4dbe 7169 89bf 458f 373f 5a66 d43e
000003d0: e5ee 45bf e2e8 f1bd 1b2c 273f 3f92 36bf
000003e0: 5782 cc3f 257e 8c3e a337 663e 5e69 49bf
000003f0: 328e 3bbe 6e0f eb3e d122 c1be cb70 313f
0.87953365 0.101288706 0.9433079 0.20289735 -0.052820425 1.5140122 0.023372257 0.3355975
-0.8392539 1.0894761 0.6228836 0.35066238 1.6489863 0.5802397 0.12568131 0.41041994
0.9299935 -1.1400546 -0.27973318 1.3236259 0.39961725 1.3287965 1.017086 -0.32782346
0.08395011 0.8759074 0.36600006 -0.5236349 0.42413387 -1.0432054 0.495435 0.88524216
-0.39029822 1.1558012 -0.42519262 0.053597733 0.3410142 -0.28477168 -0.2238872 -0.78255814
0.1061553 0.9098574 0.03368818 0.55611324 0.33987594 0.36291656 0.14142133 0.013995513
1.3742484 -0.08050654 0.5120801 1.4208055 -0.26870257 0.5858675 1.013351 0.1949046
0.06687245 0.24763513 1.5932539 0.55925626 0.20972952 -1.0721402 0.3275637 0.9764824
-0.41065693 -0.62409824 -0.9846093 -0.83741117 -0.6449771 0.74638325 -0.9097228 -0.90118814
-0.40795523 -0.086751975 -0.568001 0.013771818 -0.68077636 -0.8219363 0.12087626 -1.1062471
-0.5531947 0.09263551 -0.27976266 0.23013921 -0.6816584 -0.37707055 -0.1624075 -0.373907
-0.2563089 -0.49252927 -0.4491302 -0.7986459 -0.27875674 -0.116794325 -0.95506954 -0.6650103
-0.077467196 -0.76528764 0.058255132 -0.64647853 0.42586994 -0.13329042 -1.2148794 -0.6816834
-0.6121572 0.2689818 -0.58629936 -1.0285752 0.030080523 0.42888066 0.109775476 -0.28318873
-0.44794458 -0.8761616 -0.26137394 -0.5274259 0.6956274 -0.29625612 -0.27159885 0.12148508
-0.03952002 -1.0656923 -0.5399044 -0.74395055 -0.15802802 -1.3672915 -0.4330305 -0.5211178
-0.36357006 0.053725053 -0.038775533 -0.3140815 0.08618763 0.8413071 0.6844652 0.26568925
0.17133223 0.60554284 -0.20996767 -0.3564941 -0.43708 0.35883895 0.092638865 1.2945833
-0.035995826 0.487176 -0.09126622 -0.035197735 0.37441394 -0.17573074 -0.60643834 -0.06523258
-0.4282141 0.07740009 -0.62870395 0.7337504 -0.15853529 -0.0018605884 -0.18323247 -0.25409192
0.12421052 0.42252147 0.26406145 0.33673063 -0.4980164 -0.16480294 0.37352115 0.14818269
-1.2385359 -0.6382137 0.11972682 0.5079218 0.06298497 0.4336971 -0.085454985 -0.20419402
0.98672086 0.41398326 0.046574093 0.4141266 0.073563054 0.8615994 -0.27802154 1.2320119
0.20763965 -0.6403659 0.23363587 0.42485678 0.16182905 0.69369954 -0.4604012 0.13675696
1.3748027 0.40950093 0.3342705 1.1007817 0.5742734 -0.36321884 0.06665905 0.11303826
-0.52031434 0.83113265 -0.057696242 0.36879137 1.3068384 1.1126847 0.24243088 0.044294067
1.1334256 -0.9837701 0.008967054 0.88849676 -0.14337681 0.53198403 0.7709246 -0.233457
-0.029137097 0.43924233 0.16941056 0.31922632 0.34171632 0.16356222 -0.87972724 0.29947364
0.24425067 1.0973706 -0.14768538 -0.07555339 0.5452285 -0.08783516 0.34528401 -0.77999336
0.08976643 1.3212037 -0.672445 0.31924856 0.5862968 0.12136569 -0.17103463 0.5372177
-0.20091169 -1.0735303 0.71702987 0.41484338 -0.7731765 -0.11811997 0.65301675 -0.71316904
1.5977277 0.2743999 0.22482161 -0.786764 -0.18315962 0.4591021 -0.37721875 0.69312733

model.linear.weight f4 [1, 64]
00000000: 3891 87bf 7805 183e 5d5c 913d f78b ffbd
00000010: 6c86 be3e 1de8 a4bd 9b8a e33c 1948 753e
00000020: 7464 873f f3b3 e53d 2c54 3b3e 2258 9bbe
00000030: 8fe6 7c3f ed0f ad3e 4285 acbe 5263 96bf
00000040: 75c9 68be 1709 d33e 98db 263e c3ae 76bd
00000050: 43dc 95bb 9018 adbe 7f53 91be 1c87 133f
00000060: f690 293e 0bb3 0bbe 9c65 aabd 0cc9 d8be
00000070: 361b e6be b467 39bf 41a1 04be 460d 9d3f
00000080: cafd 2cbe 98f1 d63f 18d1 1b3e 5a09 5fbe
00000090: 938c f03d 0a75 40bd bda6 bd3e c0fc 1e3e
000000a0: d9ed 8a3f 64af 59bf cd0c bdbf fe2a 0a3f
000000b0: b08d 3cbf 5882 acbd 94ee 0e3e 4b31 c7bc
000000c0: ad44 1ebf a17f adbf cdfa 413e 3a47 9e3e
000000d0: 3d89 7f3e 19c7 3fbe 0dbb 7d3d 8508 98bf
000000e0: dc52 eabe bcda 87be f028 b4be 53a4 d3be
000000f0: bedc 49bf 0d36 07c0 71fe 343e f67e 443f
-1.0591192 0.14845836 0.07097695 -0.12477868 0.3721193 -0.080520846 0.027776053 0.23953284
1.0577531 0.11215963 0.18293828 -0.30340677 0.98789304 0.33801213 -0.33695418 -1.174906
-0.227331 0.41217873 0.16294706 -0.06022526 -0.0045733764 -0.33807802 -0.28384015 0.57628036
0.16559204 -0.13642518 -0.08320162 -0.42340887 -0.44942635 -0.72423863 -0.12952138 1.2269676
-0.16893688 1.6792479 0.15216482 -0.21780911 0.117455624 -0.046986617 0.37041274 0.15526104
1.0853835 -0.8503325 -1.4769531 0.5397185 -0.736537 -0.084232986 0.13958198 -0.024315497
-0.6182354 -1.3554574 0.18943329 0.30913717 0.24954696 -0.18728293 0.061945964 -1.18776
-0.45766342 -0.2653407 -0.35187483 -0.41336307 -0.7885245 -2.112674 0.17675187 0.76756227
