public/models/nn_detection/model_fine_tuned.pt (torch, 6019 bytes, 10 tensors)

model.lstm.weight_ih_l0 f4 [32, 2]
0.95960534 1.1870953 1.3183941 1.5952358 -0.020600926 -0.41966748 1.1497623 1.1631832
1.150306 1.6700883 0.7624397 1.2506634 0.1856605 -0.60185015 1.7065253 2.9046507
-0.45283693 -0.44010425 0.06699563 0.822688 1.0739987 1.2932711 0.004554244 0.3372338
1.3563381 1.7035502 -0.66373175 -0.283788 -0.04279939 -0.60306525 0.6384573 1.0031018
0.856885 0.117650576 -0.624817 -1.5946858 1.0099002 0.96141154 0.8213728 0.6596201
0.4777179 0.90424806 -0.7846758 -1.5108513 -0.01318953 -0.5368328 -0.3844167 -0.694478
-0.6977659 -0.93491536 0.118508674 -0.004178695 0.8525829 1.4788939 -0.19472824 -0.33987853
0.8853657 1.3940954 -0.94655675 -1.1144518 0.22054814 -0.13863386 0.9033825 0.5012082
00000000: b2a8 753f bdf2 973f 23c1 a83f b030 cc3f
00000010: 46c3 a8bc a8de d6be 692b 933f 30e3 943f
00000020: 3a3d 933f 74c5 d53f 402f 433f bd15 a03f
00000030: c91d 3e3e da12 1abf 6c6f da3f cce5 3940
00000040: 3eda e7be 5855 e1be 0135 893d ae9b 523f
00000050: ca78 893f e889 a53f c53b 953b e9a9 ac3e
00000060: 7d9c ad3f ef0d da3f 53ea 29bf a94c 91be
00000070: 6a4e 2fbd 7c62 1abf f071 233f a465 803f
00000080: d15c 5b3f c9f2 f03d 02f4 1fbf aa1e ccbf
00000090: 6944 813f 111f 763f 7d45 523f dddc 283f
000000a0: 7197 f43e cd7c 673f 83e0 48bf 9363 c1bf
000000b0: e618 58bc e06d 09bf 44d2 c4be 4fc9 31bf
000000c0: c9a0 32bf 9d56 6fbf adb4 f23d 6fed 88bb
000000d0: df42 5a3f 654c bd3f d766 47be 8f04 aebe
000000e0: 54a7 623f b871 b23f 8b51 72bf 5ba6 8ebf
000000f0: 5fd7 613e 09f6 0dbe 1344 673f 2e4f 003f

model.lstm.weight_hh_l0 f4 [32, 8]
-0.7899643 -0.56356126 1.1222268 -0.2113055 0.6186676 -0.7244863 0.15046777 0.619718
1.1486844 -0.07358137 0.73153144 0.7233725 1.200343 -1.0084765 0.09174131 -0.6213059
3.1631439 1.1276897 1.3960736 -0.012241886 0.35388538 -2.969267 0.35840362 -1.3026576
-0.38773847 0.8256956 3.3502612 -1.4014472 0.67501324 -0.28607348 0.66452724 0.40960875
0.2490922 0.9442929 1.7279134 -0.5495567 -0.10835282 -0.22969171 1.4030863 -0.06132371
0.20446879 0.25543728 1.1555111 -0.8364773 0.4528925 -0.69403017 0.9794622 0.18805753
0.79423785 0.56501895 1.0922104 0.1604592 -0.41952348 -1.3321801 0.13274136 -1.7033917
0.40415475 0.07528914 1.4606909 0.4870443 0.69197124 0.25391844 -0.2640871 -0.3018308
0.25230858 -1.1625177 -0.029294042 1.0128045 0.91328377 -0.037475977 -0.4926783 -0.71294415
1.1424189 -0.85511637 0.07682245 0.6795944 0.2733781 -1.6790532 -0.27563375 -0.5138088
-0.23544018 2.3307302 0.20501135 -0.07208518 -0.6857195 -0.426703 0.346069 1.513282
-0.35494545 -0.32555965 0.9158359 -0.5132204 0.50111204 0.54220027 0.8086885 1.2464315
0.61395216 -0.005076176 0.50315505 -0.045276772 0.87267107 -1.1849828 -0.2558689 -0.29604164
-0.29787347 -0.76971513 -0.104288995 0.56783605 1.5939609 -0.37341005 -0.033377297 -0.10470407
-0.33255777 1.0418524 1.0864657 0.08043194 0.13049561 0.4697205 0.42082027 1.0821674
-1.1554998 -0.8312357 0.7834 -0.30742577 0.1053182 -0.007812038 0.307183 -0.24211352
0.90691346 -1.408924 0.2815989 0.60568297 1.5765493 -0.39548963 -0.05253743 -0.24208206
0.24736391 -0.013590703 -0.61924636 0.1477746 -1.1042949 0.0641056 -0.19821513 -0.7744988
1.2477874 1.471699 -1.430608 -0.8044088 -0.8518773 -0.09985438 -0.16825828 1.8814076
0.27727082 -1.9175171 -0.1889061 0.51565516 1.0789621 0.5851901 -1.367775 0.059620816
0.27794403 0.15866096 0.7301695 -0.78883123 0.76363975 -0.1375103 0.059443682 1.8767139
-0.5301771 0.999604 -0.08858668 -0.84257233 -0.37152413 0.84652627 0.21929814 0.32255322
0.19114697 2.1815975 -0.69443333 0.2493213 -1.7968063 0.2824335 -0.46411443 0.011607378
0.1837473 1.4201721 0.76539266 -0.64909023 -1.0851011 -0.927067 1.0202428 0.45701668
0.751153 -0.23328103 0.4320554 0.8735277 0.066813424 -1.1505634 -0.9411147 -1.6906402
0.9672618 0.38861415 0.5991807 -0.22258927 0.7735495 -0.33304703 0.62504375 -0.76106846
1.2204423 -1.1367446 0.29745826 0.69302016 -0.6628827 -1.8160387 0.06533155 -1.6315502
1.2164855 -0.3175815 0.78709555 0.52097803 -0.98322225 -0.6261108 -0.32886207 -0.976388
0.3342934 1.0897256 0.997339 1.005506 0.13055634 -1.9098297 0.5945345 -0.8805905
0.1461198 0.09893381 1.1656001 -0.39687088 0.12603904 -0.1573021 0.32994542 -0.036815014
0.738747 0.29274952 1.0804033 0.34738496 -1.4828464 -1.8368567 -0.36701924 -0.93772554
0.37118238 -0.20018274 1.5567182 -0.27163565 -0.25631198 -1.021381 0.24926278 -0.59436804
00000000: 1a3b 4abf 8d45 10bf 21a5 8f3f 7860 58be
00000010: 0061 1e3f ef77 39bf 3914 1a3e d7a5 1e3f
00000020: 1708 933f d4b1 96bd a545 3b3f f12e 393f
00000030: d7a4 993f c215 81bf dee2 bb3d e70d 1fbf
00000040: f370 4a40 2358 903f 8ab2 b23f 3192 48bc
00000050: 7730 b53e 7808 3ec0 ae80 b73e 7cbd a6bf
00000060: a885 c6be c960 533f ae6a 5640 9f62 b3bf
00000070: abcd 2c3f 3978 92be 751e 2a3f 3db8 d13e
00000080: 0712 7f3e 2ebd 713f 442c dd3f bfaf 0cbf
00000090: 15e8 ddbd 4e34 6bbe 5598 b33f 922e 7bbd
000000a0: 4460 513e adc8 823e cae7 933f 6023 56bf
000000b0: 87e1 e73e f6ab 31bf 09be 7a3f 2792 403e
000000c0: 2c53 4b3f 15a5 103f 8dcd 8b3f 6b4f 243e
000000d0: c8cb d6be e184 aabf 5aed 073e bd08 dabf
000000e0: 5fed ce3e 3131 9a3d ebf7 ba3f df5d f93e
000000f0: 0725 313f 9901 823e 6d36 87be 9189 9abe
00000100: 972e 813e 61cd 94bf 0ffa efbc 94a3 813f
00000110: f7cc 693f 6980 19bd 5540 fcbe 8283 36bf
00000120: c83a 923f e8e8 5abf 1755 9d3d e6f9 2d3f
00000130: 37f8 8b3e 37eb d6bf de1f 8dbe f988 03bf
00000140: 3b17 71be af2a 1540 7fee 513e 65a1 93bd
00000150: 508b 2fbf d178 dabe f52f b13e 39b3 c13f
00000160: 69bb b5be c1af a6be 3974 6a3f 6a62 03bf
00000170: e148 003f a3cd 0a3f 3606 4f3f 118b 9f3f
00000180: f82b 1d3f 0d56 a6bb c5ce 003f 2374 39bd
00000190: 5f67 5f3f 84ad 97bf 4001 83be c592 97be
000001a0: df82 98be 0d0c 45bf 7895 d5bd b45d 113f
000001b0: e906 cc3f 9a2f bfbe a2b6 08bd 166f d6bd
000001c0: 0345 aabe 6b5b 853f 4f11 8b3f 80b9 a43d
000001d0: a4a0 053e 357f f03e c175 d73e 7684 8a3f
000001e0: 6be7 93bf ddcb 54bf e78c 483f e966 9dbe
000001f0: 12b1 d73d 20fc ffbb 1747 9d3e 9bec 77be
00000200: 7b2b 683f 9f57 b4bf bb2d 903e 0a0e 1b3f
00000210: 5ecc c93f 9e7d cabe 7d31 57bd 5ce4 77be
00000220: f74c 7d3e 8aab 5ebc ee86 1ebf 3a52 173e
00000230: 8959 8dbf cc49 833d e8f8 4abe 8e45 46bf
00000240: 7fb7 9f3f a260 bc3f 2a1e b7bf bced 4dbf
00000250: a114 5abf 7480 ccbd e64b 2cbe f7d1 f03f
00000260: 71f6 8d3e 3371 f5bf 9a70 41be fa01 043f
00000270: 6e1b 8a3f 05cf 153f 4013 afbf f534 743d
00000280: ae4e 8e3e 0578 223e 63ec 3a3f d8f0 49bf
00000290: e57d 433f 80cf 0cbe 387b 733d 2938 f03f
000002a0: b0b9 07bf 0ce6 7f3f ef6c b5bd d2b2 57bf
000002b0: 6938 bebe f2b5 583f b18f 603e b225 a53e
000002c0: 08bc 433e 4b9f 0b40 62c6 31bf 154e 7f3e
000002d0: c0fd e5bf 209b 903e 68a0 edbe df2c 3e3c
000002e0: 4128 3c3e 33c8 b53f c6f0 433f c72a 26bf
000002f0: 98e4 8abf 4354 6dbf 5197 823f 17fe e93e
00000300: 904b 403f 39e1 6ebe 5e36 dd3e 839f 5f3f
00000310: 7ad5 883d a945 93bf e5ec 70bf e666 d8bf
00000320: 789e 773f 6ff8 c63e e863 193f 71ee 63be
00000330: 5707 463f 2485 aabe de02 203f 62d5 42bf
00000340: 7437 9c3f d980 91bf 734c 983e c569 313f
00000350: aeb2 29bf f573 e8bf 8ccc 853d a3d6 d0bf
00000360: ccb5 9b3f 0b9a a2be 187f 493f d15e 053f
00000370: 74b4 7bbf cc48 20bf 9c60 a8be 90f4 79bf
00000380: 8128 ab3e 217c 8b3f 9c51 7f3f 6cb4 803f
00000390: 90b0 053e 4d75 f4bf 6a33 183f 616e 61bf
000003a0: 6ea0 153e cf9d ca3d 6232 953f a932 cbbe
000003b0: 6110 013e cd13 21be 9bee a83e 57cb 16bd
000003c0: 861e 3d3f 44e3 953e a84a 8a3f 71dc b13e
000003d0: e9cd bdbf 1f1e ebbf f2e9 bbbe c80e 70bf
000003e0: 9e0b be3e b4fc 4cbe 8b42 c73f d413 8bbe
000003f0: 533b 83be 9dbc 82bf be3e 7f3e 8128 18bf

model.lstm.bias_ih_l0 f4 [32]
0.5132337 1.6745663 0.23581277 1.084009 1.6057281 0.62803644 0.3513108 1.8587222
0.45173886 0.2420092 -0.6139839 -0.0105316285 1.0849283 0.55913365 0.41177642 -0.1127595
0.44931784 0.44776174 0.8200841 0.0012845949 -0.27469388 0.041070428 0.77845097 -0.352811
0.36565337 1.6451722 0.6388587 0.7674105 1.6552564 0.71531373 0.5789458 1.3941377
00000000: 4963 033f 3058 d63f e778 713e cfc0 8a3f
00000010: 8088 cd3f ffc6 203f 02df b33e 9cea ed3f
00000020: 514a e73e 42d1 773e 0d2e 1dbf da8c 2cbc
00000030: eede 8a3f 6223 0f3f 5cd4 d23e 74ee e6bd
00000040: fd0c e63e 0741 e53e 08f1 513f da5f a83a
00000050: ada4 8cbe 7739 283d 9048 473f a5a3 b4be
00000060: eb36 bb3e 0195 d23f 3e8c 233f 0475 443f
00000070: 71df d33f cd1e 373f cb35 143f 1b73 b23f

model.lstm.bias_hh_l0 f4 [32]
0.32746458 1.8234727 -0.0896481 1.2181127 1.7001595 0.21470892 0.53838384 1.6009761
0.15156469 0.42741188 -0.064734176 0.047672026 1.2819949 0.40230256 0.008778215 0.20789984
0.1339748 0.8056641 0.5700497 -0.3164813 -0.38400003 -0.30724284 0.55264044 0.15016101
0.37556055 1.3080713 0.17373739 0.43519634 1.0872307 0.8387209 0.2871538 1.4186889
00000000: 70a9 a73e 8e67 e93f 6c99 b7bd 1eeb 9b3f
00000010: d49e d93f a8dc 5b3e 86d3 093f c9ec cc3f
00000020: c633 1b3e bbd5 da3e 5a93 84bd be43 433d
00000030: 6918 a43f 9afa cd3e 81d2 0f3c b2e3 543e
00000040: b130 093e 0140 4e3f c7ee 113f d609 a2be
00000050: a79b c4be ef4e 9dbe d879 0d3f cfc3 193e
00000060: 7949 c03e e16e a73f 37e8 313e 0ed2 de3e
00000070: 602a 8b3f 6ab6 563f d305 933e 9997 b53f

model.lstm.weight_ih_l0_reverse f4 [32, 2]
0.30994585 -0.15711217 -1.268162 -1.9825134 -0.34114912 -0.61154026 0.10303817 -0.058159266
-0.0527326 -0.6876783 -1.2034168 -1.8532344 -0.8063157 -0.67082894 1.4422301 1.7189312
0.5035819 0.41516593 0.08065274 -0.47021735 0.45241293 0.22242859 0.0073604733 0.35050848
0.9288707 1.5468451 0.12966208 0.3850236 -0.674096 -1.1032596 0.45806366 0.40924892
0.44497424 0.25766793 -0.2759727 -0.16046463 -0.17202173 -0.29340765 0.0757495 0.3670964
1.3743001 1.6133612 0.6425693 0.79644173 -0.34811825 -0.78595567 0.5250912 1.3293353
0.53172845 -0.59183496 -0.719834 -0.7905206 -0.046798207 -0.9203458 -0.3802763 -0.61117595
0.7444382 1.1432295 0.044367973 -0.37803853 -1.2395239 -1.2328717 2.1179745 1.4417878
00000000: 39b1 9e3e 03e2 20be 2253 a2bf 00c3 fdbf
00000010: 19ab aebe e78d 1cbf ad05 d33d 6938 6ebd
00000020: 24fe 57bd af0b 30bf 9009 9abf c936 edbf
00000030: b56a 4ebf 72bb 2bbf ff9a b83f f005 dc3f
00000040: beea 003f a190 d43e 442d a53d 54c0 f0be
00000050: aba2 e73e 52c4 633e 2030 f13b d975 b33e
00000060: 78ca 6d3f 05ff c53f 23c6 043e d021 c53e
00000070: 8e91 2cbf 9c37 8dbf 5287 ea3e 1389 d13e
00000080: aad3 e33e 0ded 833e 4b4c 8dbe d750 24be
00000090: 7726 30be 8739 96be 8e22 9b3d 0ff4 bb3e
000000a0: 11e9 af3f 9f82 ce3f 6c7f 243f 9be3 4b3f
000000b0: 8e3c b2be 6434 49bf 606c 063f a927 aa3f
000000c0: 5b1f 083f 7f82 17bf 0b47 38bf 8f5f 4abf
000000d0: 7aaf 3fbd c89b 6bbf 93b3 c2be 0776 1cbf
000000e0: 8093 3e3f 5855 923f 31bb 353d 448e c1be
000000f0: b8a8 9ebf bdce 9dbf e58c 0740 818c b83f

model.lstm.weight_hh_l0_reverse f4 [32, 8]
-1.4675273 -1.1914178 -1.5757132 0.89247215 0.8357221 -0.33713645 -0.5184 -0.8595619
0.41861045 0.75228244 0.21893558 -0.43690094 -0.18417066 0.71347106 -0.10585531 -0.11675283
-0.122858524 -0.3917941 -1.8754898 0.30837187 0.008691881 -0.32277507 -0.95979357 -0.16572025
0.9434895 -0.19384328 0.3365366 -0.50114423 -0.22051767 -0.85327935 0.6728884 -0.22497791
-0.10536201 0.83283806 -1.7581829 0.51194197 -0.016135963 0.7487369 -0.9095795 -0.31069127
-0.25385916 0.5484788 -0.45749584 0.2742283 1.3291551 0.12450085 -0.26512983 0.11615091
-0.5207072 0.47288078 -0.6151173 -0.033101264 0.9440069 1.0003078 -0.028593108 0.06413411
-1.4951388 -1.1182858 0.29879326 -0.7804045 -1.188656 -0.43355033 -0.7066941 0.6792399
-0.2256019 -0.6412633 -0.48765567 -0.043083835 1.674911 -0.486834 0.18522245 0.14966209
0.75540715 0.15927969 -0.1476587 0.24264687 -0.99551636 0.08707855 -1.221646 0.79466575
-0.7831659 -0.56800985 -0.2593417 1.0461488 1.831572 1.0837902 -0.06152295 -0.8307297
1.033831 -0.41008234 -0.25189856 -0.084367014 -0.43638128 -0.8370114 0.71734315 0.4659576
0.26212487 -0.2830914 0.23017733 0.25647533 -0.4551805 0.12588923 -0.42356926 1.4965024
0.6718548 -0.5649619 -0.002843676 -0.15286385 0.06597615 -0.7384909 -0.44834617 0.79958254
-0.7722704 -0.7840267 -0.58279425 0.20132692 1.2807348 -0.08238499 -0.27122456 0.2998914
0.5588426 -0.40966117 -0.4571076 -0.14295453 -0.55709046 -1.0994229 -0.250054 0.73972714
-0.09936667 -0.4492625 0.44295913 -0.5529365 -1.8366123 -1.3567175 0.11999367 0.8629696
2.0217998 -0.21496809 -0.078303486 0.19171803 -0.46163586 0.31372416 -0.75371355 -0.5659037
0.3645896 -0.12821211 0.62681407 -0.8107558 -1.4746702 -0.94075716 0.2448532 1.8035382
0.22827804 -0.4762712 -0.5232567 -0.25842792 -0.28144684 0.07012013 0.36602753 -1.6210148
1.2603375 0.34120992 0.24385293 0.9448302 0.3089938 0.08945994 0.14314204 -2.064556
1.9449406 -0.32394728 0.14635944 0.2827061 -0.25460017 0.012374335 -0.65614736 -0.89860106
0.009295366 1.4533008 0.66202515 -0.44120207 -0.8783868 0.9890159 0.8306244 0.65845513
-1.2542377 0.6378168 -0.63000304 0.12807265 1.147955 1.2972147 -0.23042075 1.6597524
-0.03940474 -0.8632254 -0.95311654 0.22498374 0.875809 0.36572346 -0.6252486 -0.5971252
0.5289989 0.6596679 0.47399893 0.19551498 -0.36487725 0.88289887 -0.57124317 -0.2677312
-0.20708244 0.083699636 -0.83695996 0.12516902 0.8746059 -0.045625836 -1.0951241 -0.284921
1.2527188 -0.6768824 0.15070778 0.20468983 -0.13593817 -0.7663707 1.0482295 -0.41200906
-0.27565083 -0.31972846 -1.8404955 0.9095942 0.55447936 -0.58230567 0.13974543 -0.8685445
0.036118664 0.8014354 -0.5949684 0.6042803 0.71974045 0.7536992 -0.5762759 -0.11417974
-0.3573603 0.065859795 0.057534743 -0.06618918 -0.2628131 -0.10417841 0.12496555 0.95678496
-0.029631248 -0.63609636 -0.41183436 -0.106430955 -0.34209028 -0.40828422 -0.504856 0.76860005
00000000: efd7 bbbf 6180 98bf f8b0 c9bf 0e79 643f
00000010: e2f1 553f 269d acbe ddb5 04bf 400c 5cbf
00000020: 1c54 d63e 9595 403f a630 603e 7bb1 dfbe
00000030: 3c97 3cbe 0aa6 363f abca d8bd 1c1c efbd
00000040: 409d fbbd 3c99 c8be 0d10 f0bf ebe2 9d3e
00000050: 6468 0e3c c642 a5be 08b5 75bf 92b2 29be
00000060: 8788 713f da7e 46be 864e ac3e fd4a 00bf
00000070: 62cf 61be 8470 5abf 6a42 2c3f 9c60 66be
00000080: 0ac8 d7bd e034 553f 230c e1bf a10e 033f
00000090: 912f 84bc 39ad 3f3f 34da 68bf ed12 9fbe
000000a0: d4f9 81be 1b69 0c3f e53c eabe a767 8c3e
000000b0: c121 aa3f 4dfa fe3d 19bf 87be 87e0 ed3d
000000c0: 114d 05bf 6e1d f23e 5478 1dbf 3195 07bd
000000d0: 70aa 713f 160a 803f 183c eabc bf58 833d
000000e0: b560 bfbf fd23 8fbf 6efb 983e 97c8 47bf
000000f0: e125 98bf 4ffa ddbe e8e9 34bf abe2 2d3f
00000100: 2f04 67be d529 24bf 01ae f9be ad78 30bd
00000110: 7c63 d63f 4e42 f9be f4aa 3d3e 0541 193e
00000120: 5d62 413f 371a 233e d833 17be 6c78 783e
00000130: 29da 7ebf 3d56 b23d e55e 9cbf 376f 4b3f
00000140: 8f7d 48bf 1869 11bf 6fc8 84be 34e8 853f
00000150: f470 ea3f a3b9 8a3f 7dff 7bbd b4aa 54bf
00000160: 9354 843f 50f6 d1be d9f8 80be 9dc8 acbd
00000170: 5e6d dfbe 6146 56bf cda3 373f ff91 ee3e
00000180: 3b35 863e 5bf1 90be 9bb3 6b3e bc50 833e
00000190: 6b0d e9be 1be9 003e 12de d8be 648d bf3f
000001a0: adfe 2b3f 58a1 10bf f75c 3abb 5788 1cbe
000001b0: 811e 873d bd0d 3dbf a18d e5be 71b1 4c3f
000001c0: 83b3 45bf f9b5 48bf 0132 15bf a528 4e3e
000001d0: 1eef a33f 76b9 a8bd f2dd 8abe 5e8b 993e
000001e0: 4f10 0f3f 1cbf d1be 020a eabe ac62 12be
000001f0: 7b9d 0ebf e4b9 8cbf 1407 80be c25e 3d3f
00000200: c180 cbbd bc05 e6be 8acb e23e 3f8d 0dbf
00000210: 1d16 ebbf eba8 adbf 3ebf f53d 93eb 5c3f
00000220: 2b65 0140 9820 5cbe 945d a0bd bb51 443e
00000230: 895b ecbe 74a0 a03e 5ff3 40bf 11df 10bf
00000240: 7dab ba3e 094a 03be e376 203f b18d 4fbf
00000250: fec1 bcbf 76d5 70bf ccba 7a3e 57da e63f
00000260: b8c1 693e d2d9 f3be 27f4 05bf aa50 84be
00000270: cd19 90be 259b 8f3d f667 bb3e 6a7d cfbf
00000280: bd52 a13f 11b3 ae3e 95b4 793e 64e0 713f
00000290: 6f34 9e3e c636 b73d d493 123e af21 04c0
000002a0: d0f3 f83f 6bdc a5be 40df 153e dbbe 903e
000002b0: f45a 82be b9bd 4a3c 46f9 27bf b80a 66bf
000002c0: 974b 183c c305 ba3f 7b7a 293f 3de5 e1be
000002d0: f5dd 60bf 2530 7d3f cda3 543f 8490 283f
000002e0: dc8a a0bf f647 233f e147 21bf 7a25 033e
000002f0: 30f0 923f 220b a63f 6bf3 6bbe c472 d43f
00000300: dd66 21bd 57fc 5cbf 72ff 73bf 2362 663e
00000310: 0535 603f 1b40 bb3e 4b10 20bf 32dd 18bf
00000320: 796c 073f ffdf 283f fdaf f23e 1435 483e
00000330: 31d1 babe a905 623f fe3c 12bf 1014 89be
00000340: 6b0d 54be b76a ab3d 0243 56bf 4f2c 003e
00000350: 2ce6 5f3f 28e2 3abd 072d 8cbf 2ae1 91be
00000360: 1759 a03f 2a48 2dbf 2453 1a3e 369a 513e
00000370: 6033 0bbe df30 44bf 622c 863f daf2 d2be
00000380: 1b22 8dbe 73b3 a3be 5b95 ebbf 2adb 683f
00000390: 5cf2 0d3f fc11 15bf 6d19 0f3e ef58 5ebf
000003a0: 2af1 133d df2a 4d3f d94f 18bf 1db2 1a3f
000003b0: e940 383f 6ef2 403f d186 13bf 11d7 e9bd
000003c0: eef7 b6be 80e1 863d 8da9 6b3d 318e 87bd
000003d0: 708f 86be 7d5b d5bd f0ed ff3d dcef 743f
000003e0: 3bbd f2bc 36d7 22bf f4db d2be 79f8 d9bd
000003f0: 7526 afbe a10a d1be 3e3e 01bf f9c2 443f

model.lstm.bias_ih_l0_reverse f4 [32]
0.520334 0.15896562 0.13803501 0.33379513 0.57882583 0.14083007 0.06538044 1.307807
0.1496916 0.5475362 0.14827713 -0.02398063 0.005227926 0.25552487 0.5945391 0.6706986
0.3288017 0.27557424 -0.010301828 0.11744381 -0.5502647 0.16954643 -0.268248 -0.5260092
1.1496103 0.333741 0.4325437 0.008641147 0.46077904 0.95760053 0.31851414 2.1313365
00000000: 9c34 053f e2c7 223e 0d59 0d3e 32e7 aa3e
00000010: ee2d 143f c235 103e 2ee6 853d 3866 a73f
00000020: c148 193e 552b 0c3f f6d5 173e 0773 c4bc
00000030: 064f ab3b 28d4 823e b733 183f e7b2 2b3f
00000040: b258 a83e 1118 8d3e 00c9 28bc 6186 f03d
00000050: 26de 0cbf 949d 2d3e cd57 89be 8aa8 06bf
00000060: 6e26 933f 1ae0 aa3e 5e76 dd3e 9993 0d3c
00000070: 3beb eb3e 4f25 753f 4914 a33e d167 0840

model.lstm.bias_hh_l0_reverse f4 [32]
0.42581925 -0.008875404 0.2220982 0.14449711 0.4064565 0.37635332 0.15848124 1.0085709
0.24461633 0.37905478 0.19153382 -0.011598234 0.12710473 0.5195655 0.5241073 0.41643533
0.3544247 -0.2679722 -0.3827103 -0.04607945 -0.28130254 -0.017838763 -0.6782909 -0.4095585
1.1813912 0.11579967 0.28108308 -0.1373143 0.3867669 0.6627405 0.31403148 1.7293246
00000000: fb04 da3e 246a 11bc b66d 633e 0df7 133e
00000010: 111b d03e 62b1 c03e e848 223e da18 813f
00000020: b47c 7a3e 7813 c23e 7121 443e 8506 3ebc
00000030: be27 023e 3f02 053f e52b 063f 0337 d53e
00000040: 2777 b53e a733 89be 9bf2 c3be cebd 3cbd
00000050: e306 90be 9922 92bc 79a4 2dbf a7b1 d1be
00000060: d437 973f 6128 ed3d 1fea 8f3e 1f9c 0cbe
00000070: 5006 c63e 5da9 293f bcc8 a03e 825a dd3f

model.linear1.weight f4 [1, 16]
0.8769988 -0.92257166 -0.949714 1.0397682 0.31583935 -0.25381684 -0.56464595 -0.87307847
0.6563423 -0.57066524 0.39990148 -0.57925826 -1.0516614 -0.4466857 0.008249197 0.8027409
00000000: fe82 603f a82d 6cbf 7520 73bf 2017 853f
00000010: b2b5 a13e 48f4 81be a38c 10bf 1282 5fbf
00000020: 0d06 283f 1e17 12bf e3bf cc3e 454a 14bf
00000030: d79c 86bf fdb3 e4be a427 073c 6d80 4d3f

model.linear2.weight f4 [1, 10]
-0.8669359 -0.5702679 -0.68907106 0.6767645 0.10825506 0.21684599 -0.53735805 -0.08119617
-0.14964442 -1.2500058
00000000: 83ef 5dbf 14fd 11bf f666 30bf 7040 2d3f
00000010: d4b4 dd3d e00c 5e3e 4c90 09bf 2d4a a6bd
00000020: 633c 19be 3100 a0bf
