public/models/nn_detection/model.pt (torch, 6022 bytes, 10 tensors)

model.lstm.weight_ih_l0 f4 [32, 2]
0	0x3f962dd4	1.1732736
1	0x3f8bab6c	1.0911689
2	0x3f134b70	0.57536983
3	0x3f1ca009	0.61181694
4	0xbefe4298	-0.49660182
5	0xbf6dbed1	-0.9286929
6	0x3f043310	0.51640415
7	0x3f7d8848	0.99036074
8	0x3f9c6695	1.2218806
9	0x3f97ca9f	1.185871
10	0x3f86e268	1.0537844
11	0x3f89ed24	1.0775495
12	0xbf044f7a	-0.5168377
13	0xbfb12eda	-1.3842423
14	0x3f8a21d1	1.079157
15	0x3ff5b2ec	1.9195228
16	0xbe627b46	-0.22117338
17	0xbebb5f1d	-0.36596003
18	0x3dfd0f80	0.12356472
19	0x3f3140f8	0.6923976
20	0x3fa24ff4	1.268065
21	0x3f8f4199	1.1191894
22	0x3e8c6857	0.27423355
23	0x3efbd7f9	0.49188212
24	0x3fb5473b	1.4162363
25	0x3fb6b04d	1.4272553
26	0xbe77bc6a	-0.24192968
27	0x3e16bca8	0.14720404
28	0x3f0cffc8	0.5507779
29	0x3e1f6cd3	0.15568857
30	0x3effb009	0.49938992
31	0x3f2bbf45	0.6708873
32	0x3f3baf6a	0.73314536
33	0x3e8e32ad	0.27773038
34	0xbf2eb98d	-0.6825188
35	0xbfb596a5	-1.4186598
36	0x3f88afa7	1.0678605
37	0x3f2f4972	0.68471444
38	0x3f514d87	0.8175892
39	0x3eaea7a4	0.34112275
40	0x3ec6011e	0.38672727
41	0x3f2d34a4	0.6765845
42	0xbf198941	-0.5997506
43	0xbf7efcfe	-0.99604785
44	0xbdad5b3f	-0.084646694
45	0xbf1987a9	-0.59972626
46	0xbf25334a	-0.64531386
47	0xbf360566	-0.7110199
48	0xbf2e8a55	-0.6817983
49	0xbf9cc9ea	-1.2249119
50	0xbeac4c71	-0.3365207
51	0xbedfe6be	-0.4373073
52	0x3f25f8b7	0.64832634
53	0x3f81557b	1.0104212
54	0xbec468ac	-0.38361108
55	0xbf14bb3c	-0.58098197
56	0x3f7582e1	0.9590283
57	0x3f903e88	1.1269083
58	0xbf94b3e9	-1.1617404
59	0xbfbf3069	-1.4936649
60	0xbcf7ab7e	-0.030233141
61	0xbef1bcf8	-0.47214484
62	0x3f8c2d0c	1.0951247
63	0x3f8d9d9d	1.1063725

model.lstm.weight_hh_l0 f4 [32, 8]
0	0x3e41e3ab	0.18934505
1	0xbe530264	-0.2060638
2	0x3fb6261e	1.4230382
3	0xbe70624f	-0.23475002
4	0x3f086740	0.53282547
5	0xbf6af526	-0.91780317
6	0x3f0b1ac8	0.5433774
7	0x3e1c02a7	0.15235387
8	0x3f97166e	1.180372
9	0xbe5cec67	-0.21574555
10	0x3f67e565	0.90584403
11	0x3f22c244	0.63577676
12	0x3fb11392	1.3834097
13	0xbf948bbf	-1.1605147
14	0x3e02c337	0.12769781
15	0xbf3106fc	-0.6915128
16	0x401b0850	2.4223824
17	0x3ecbce23	0.39805707
18	0x3f885008	1.0649424
19	0x3e04f0a3	0.1298242
20	0x3eab2554	0.33426917
21	0xc02d68e4	-2.709527
22	0x3dbe5388	0.09293276
23	0xbf4c9d30	-0.7992735
24	0xbf70b9ce	-0.94033515
25	0x3f873bea	1.0565159
26	0x40212867	2.518091
27	0xbfc839bf	-1.5642623
28	0x3f05b499	0.52228695
29	0x3edf0292	0.43556648
30	0x3f245cd4	0.64204144
31	0x3f285544	0.65755105
32	0x3e9a84d9	0.3017948
33	0x3eee1d91	0.46506932
34	0x3fc9670a	1.573457
35	0xbf2338c3	-0.63758487
36	0x3bd1f8ba	0.0064078243
37	0xbeb7ddc6	-0.35911387
38	0x3f9909eb	1.1956152
39	0x3cc49c59	0.024000334
40	0x3e7624bd	0.24037452
41	0x3ec379bf	0.38178822
42	0x3f934b8a	1.1507428
43	0xbf460c03	-0.7736208
44	0x3eb20606	0.3477022
45	0xbf332133	-0.69972533
46	0x3f84133f	1.0318373
47	0x3e49d216	0.19709048
48	0x3ecf2635	0.40458837
49	0x3f093f3d	0.5361212
50	0x3f910c3b	1.1331857
51	0xbf1822e0	-0.59428215
52	0xbee2680e	-0.44220012
53	0xbf50c11d	-0.8154467
54	0x3e996b54	0.29964697
55	0xbfa630c3	-1.2983631
56	0x3e8c2ae1	0.27376464
57	0x3e7ef706	0.2489892
58	0x3fbda711	1.481661
59	0x3e7fa01e	0.24963424
60	0x3f1edd69	0.62056595
61	0x3e243a00	0.1603775
62	0xbe342f5c	-0.17596191
63	0xbe1a3a90	-0.15061402
64	0x3f79565d	0.97397405
65	0xbf3db29a	-0.7410065
66	0x3e776013	0.24157743
67	0x3f3076ec	0.6893146
68	0x3f077e3c	0.52926993
69	0xbed42944	-0.41437733
70	0xbe0a70ba	-0.13519564
71	0xbf4cf969	-0.8006807
72	0x3f8514dc	1.0396991
73	0xbf27f2e4	-0.65604997
74	0x3dbda4f1	0.09259976
75	0x3e83836d	0.25686207
76	0x3e75ae29	0.23992218
77	0xbfaa878e	-1.3322618
78	0x3cbc6f62	0.02300233
79	0xbea2977d	-0.317562
80	0xbdb768bc	-0.08955523
81	0x3fe0df57	1.7568158
82	0xbd468a78	-0.048471898
83	0xbe5ba0d4	-0.2144807
84	0xbebc2c31	-0.36752465
85	0xbe3f0de6	-0.18657646
86	0x3e9b0b94	0.3028227
87	0x3fcd8760	1.6056938
88	0x3d4bd9d8	0.0497683
89	0x3ca407f8	0.020023331
90	0x3f3854e0	0.7200451
91	0xbec85b12	-0.3913198
92	0x3f3af888	0.7303548
93	0x3efeff03	0.49803934
94	0x3f381bcc	0.71917415
95	0x3f51c274	0.81937337
96	0x3f7abb6e	0.97942245
97	0xbc8ef3a6	-0.017450165
98	0x3f177456	0.5916189
99	0xbe13084d	-0.14358635
100	0x3f3faa0c	0.74868846
101	0xbf66b7c6	-0.90124166
102	0xbdace971	-0.08442963
103	0x3cfc53f4	0.03080175
104	0x3dff7bf9	0.12474818
105	0xbeb3f794	-0.35149825
106	0x3e29f363	0.16596751
107	0x3ec2704f	0.3797631
108	0x3fc13008	1.5092783
109	0xbead66fc	-0.33867633
110	0x3e44f338	0.19233406
111	0x3e4baa4a	0.19889179
112	0x3dbf94b6	0.09354536
113	0x3ee5357e	0.44767374
114	0x3f9722a7	1.180745
115	0xbe46894d	-0.19388314
116	0x3f65fc1e	0.89837825
117	0x3e9e74c7	0.3094847
118	0x3ecac1ce	0.39600986
119	0x3f4d9263	0.80301493
120	0xbf73fbe3	-0.95306224
121	0xbf2a305e	-0.6648005
122	0x3f39f4e5	0.72639304
123	0xbe86791d	-0.26264277
124	0x3e266edb	0.16253226
125	0x3d87076e	0.06593214
126	0x3ed0ea62	0.4080382
127	0xbe8c1aec	-0.2736429
128	0x3f7f2b3a	0.99675333
129	0xbfc19a9a	-1.5125306
130	0x3e621f07	0.22082148
131	0x3f15eb1a	0.5856186
132	0x3fbbabb8	1.4661779
133	0xbf20bdb1	-0.62789446
134	0xbdf3d62f	-0.11906087
135	0xbe008f8b	-0.12554757
136	0x3eaf6dff	0.34263608
137	0xbd42c504	-0.04755117
138	0xbef87b76	-0.48531693
139	0x3e70366f	0.23458265
140	0xbf80e189	-1.0068828
141	0xbe8cb4ac	-0.27481592
142	0xbeb3b309	-0.3509753
143	0xbf644fc5	-0.8918422
144	0x3f6f2e9b	0.9343049
145	0x3f89acb6	1.0755832
146	0xbf6e1acb	-0.9300963
147	0xbee99ad4	-0.45625937
148	0xbf945b73	-1.1590408
149	0x3e932e64	0.2874633
150	0xbeb5a121	-0.35474494
151	0x3fe9b455	1.8258158
152	0x3ed809f7	0.42195103
153	0xbfcb393b	-1.587684
154	0xbc9a90b4	-0.018867828
155	0x3f13b90d	0.5770424
156	0x3f985919	1.190219
157	0x3e3d7091	0.18499972
158	0xbf5b9bcd	-0.8578461
159	0x3bab8c7a	0.005235252
160	0x3d8fc267	0.07019501
161	0x3e87411d	0.26416865
162	0x3ef27473	0.4735447
163	0xbebd8f10	-0.3702321
164	0x3f2034cd	0.6258057
165	0xbe43dcda	-0.19127217
166	0xbe21e197	-0.15808712
167	0x3feb775c	1.83958
168	0xbf72c4ed	-0.94831735
169	0x3f7bdc81	0.9838334
170	0xbe01ebc9	-0.12687601
171	0xbf5c817d	-0.86135083
172	0xbf42e4e4	-0.7613051
173	0x3f549be9	0.830504
174	0x3e250363	0.16114573
175	0x3eab3056	0.33435315
176	0x3e4bb6b1	0.1989391
177	0x3fb3d24e	1.4048555
178	0xbea37d0a	-0.31931335
179	0xbea23c4b	-0.31686625
180	0xbfc3d46c	-1.5299201
181	0x3e6290e4	0.22125584
182	0xbe9245a9	-0.2856877
183	0x3db24791	0.087050565
184	0xbc889254	-0.016671337
185	0x3f921359	1.1412154
186	0x3ebedda5	0.37278476
187	0xbf225cb9	-0.63422734
188	0xbf737036	-0.95093095
189	0xbf405a7e	-0.7513808
190	0x3f64de6e	0.894019
191	0x3eddf266	0.43348998
192	0x3d6b4a7e	0.05744409
193	0x3eb6c23a	0.35695058
194	0x3ed3be10	0.41355944
195	0x3f15a713	0.5845806
196	0xbee5b470	-0.44864225
197	0xbf3cd705	-0.73765594
198	0xbf290df3	-0.6603691
199	0xbf9f1f13	-1.2431358
200	0x3ea11048	0.31457734
201	0x3ef15e3f	0.47142217
202	0x3f3235cc	0.6961334
203	0xbeec573e	-0.4616031
204	0x3e12dd96	0.14342341
205	0xbf24d419	-0.64386135
206	0x3f0e7502	0.5564729
207	0xbf27da57	-0.65567535
208	0x3f9cdfd5	1.2255808
209	0xbf2f49e8	-0.68472147
210	0x3ea4f3df	0.3221731
211	0x3f1717d1	0.59020716
212	0xbf25cd0a	-0.6476599
213	0xbfe0a401	-1.755005
214	0x3e290252	0.16504791
215	0xbfcce137	-1.600623
216	0x3f751a62	0.9574338
217	0xbd3fcde6	-0.04682722
218	0x3f0d2906	0.5514072
219	0x3f00af49	0.50267464
220	0xbf6b5474	-0.9192574
221	0xbf1034f4	-0.563308
222	0xbea4d7d8	-0.32195926
223	0xbf6c98bd	-0.9242056
224	0x3ec3b957	0.3822734
225	0x3f6aec16	0.9176649
226	0x3f97e9eb	1.1868261
227	0x3f4fad75	0.8112405
228	0x3ea65c31	0.3249221
229	0xbfd2ab8d	-1.6458603
230	0x3f3aa101	0.7290192
231	0xbf308369	-0.68950516
232	0x3cbfb1d9	0.023400234
233	0x3ebd9974	0.37031138
234	0x3f510b16	0.8165754
235	0xbe6d44d4	-0.23170787
236	0xbe79791b	-0.24362604
237	0xbe0b808d	-0.13623257
238	0x3e279203	0.16364293
239	0xbdd1f2d6	-0.102513954
240	0x3f2bdb92	0.6713191
241	0x3dc7545d	0.09732888
242	0x3f8bbe7f	1.091751
243	0x3e817b2e	0.2528929
244	0xbf800f9a	-1.0004761
245	0xbff63965	-1.9236265
246	0xbecf73c7	-0.4051802
247	0xbf4a43a5	-0.7900947
248	0x3ea4b1df	0.32166955
249	0x39879b87	0.00025865083
250	0x3fc15256	1.5103252
251	0xbe9f6b40	-0.31136513
252	0x3d8c5977	0.068530016
253	0xbf3e67cd	-0.7437714
254	0x3e76d0b5	0.24103053
255	0xbf435a29	-0.7630945

model.lstm.bias_ih_l0 f4 [32]
0	0x3f224414	0.6338513
1	0x3fb48169	1.4101993
2	0x3f2bd101	0.6711579
3	0x3f2304da	0.6367928
4	0x3fbe7269	1.4878665
5	0x3f65d122	0.89772236
6	0x3ed09ae2	0.40743166
7	0x3f8cbfee	1.0996072
8	0x3f39d669	0.7259279
9	0x3ea008a0	0.3125658
10	0xbec46ddb	-0.38365063
11	0x3eb39c14	0.35080016
12	0x3f9818f9	1.1882621
13	0x3f5097bb	0.8148152
14	0x3f4c07c6	0.7969936
15	0xbda2dbdd	-0.07952092
16	0x3e61a558	0.2203573
17	0x3ebaa8e2	0.36456972
18	0x3f375fbc	0.71630454
19	0xbdadf52a	-0.08494027
20	0xbe48de76	-0.19616112
21	0x3d26709b	0.040634733
22	0x3f5458bf	0.82947916
23	0xbeaac5fd	-0.33354178
24	0x3ebd479e	0.36968702
25	0x3fb4d5e1	1.4127771
26	0x3f4c9134	0.7990906
27	0x3f3fed20	0.749712
28	0x3fe7cdf2	1.8109725
29	0x3ee8ad61	0.45444778
30	0x3f182015	0.59423953
31	0x3fa39cb4	1.2782197

model.lstm.bias_hh_l0 f4 [32]
0	0x3ee56abf	0.44808003
1	0x3fc790c7	1.5591058
2	0x3eb0ff4e	0.34569782
3	0x3f45599a	0.77089846
4	0x3fca88bd	1.5822979
5	0x3ef8029c	0.4843949
6	0x3f183167	0.5945038
7	0x3f578374	0.84184957
8	0x3ed9fca4	0.42575562
9	0x3efef5a2	0.49796778
10	0x3e299219	0.16559638
11	0x3ed1690e	0.40900463
12	0x3fb15274	1.3853288
13	0x3f28719d	0.6579836
14	0x3ec9b906	0.39398974
15	0x3e76ecd2	0.24113777
16	0xbdc286f7	-0.09498399
17	0x3f38f404	0.7224734
18	0x3eeebaf7	0.46627018
19	0xbece2fac	-0.40270746
20	0xbe9c660e	-0.30546612
21	0xbe9d87c2	-0.30767637
22	0x3f1a8a0e	0.60366905
23	0x3e2d7ece	0.16942903
24	0x3ec25a43	0.3795949
25	0x3f89afc1	1.0756761
26	0x3eaafef9	0.33397654
27	0x3ed5c26d	0.41749898
28	0x3f9f18e1	1.2429467
29	0x3f13ee41	0.5778542
30	0x3e9ada4a	0.30244666
31	0x3fa6c132	1.3027709

model.lstm.weight_ih_l0_reverse f4 [32, 2]
0	0x3df8e354	0.121527344
1	0xbf00d50c	-0.50325084
2	0xbf871c6b	-1.0555547
3	0xbfda7c95	-1.706927
4	0xbe8a6cb2	-0.27036053
5	0xbf6e0537	-0.9297671
6	0xbe43d298	-0.19123304
7	0xbe909f4a	-0.28246528
8	0x3d269aa0	0.040674806
9	0xbf09b6ad	-0.53794366
10	0xbf824413	-1.0177025
11	0xbfdfdc9b	-1.7489198
12	0xbf42b517	-0.7605757
13	0xbf24fa48	-0.644444
14	0x3f927f93	1.1445183
15	0x3ffb89f6	1.9651477
16	0x3f070f38	0.52757597
17	0x3f01d157	0.5071005
18	0xbe09eca7	-0.13469182
19	0xbf4df995	-0.80458957
20	0x3e61ba9d	0.22043844
21	0xbe0d3e9f	-0.1379342
22	0xbe5fb37a	-0.21845809
23	0x3d11903f	0.035537954
24	0x3f5109f9	0.8165584
25	0x3f8b55b8	1.0885534
26	0xbd1e10c9	-0.038590226
27	0x3d113fd3	0.03546126
28	0xbf147d3e	-0.58003604
29	0xbf479366	-0.7795929
30	0x3eacfc71	0.33786348
31	0x3e8159a5	0.25263706
32	0x3e88f212	0.26747185
33	0x3ce41f62	0.027846996
34	0x3d8a798f	0.06761467
35	0x3ddff88f	0.10936081
36	0xbf10431e	-0.5635241
37	0xbea59193	-0.32337627
38	0x3eaf1871	0.34198335
39	0x3eb0c510	0.34525347
40	0x3fdee477	1.7413472
41	0x3f965ffb	1.1748041
42	0x3f6f19dd	0.9339884
43	0x3f6595ff	0.89682
44	0xbf005b77	-0.50139564
45	0xbedc9bf9	-0.43087748
46	0x3ebe1aaf	0.37129733
47	0x3f728487	0.9473347
48	0x3cedd924	0.029034205
49	0xbf7f352d	-0.99690515
50	0xbf693fb7	-0.91112846
51	0xbfb72503	-1.430817
52	0x3e8f51ec	0.2799219
53	0xbf3415ab	-0.7034556
54	0xbef1cba7	-0.47225687
55	0xbf22dc80	-0.63617706
56	0x3f5b633e	0.85698307
57	0x3f617ec5	0.8808406
58	0xbe909fa7	-0.28246805
59	0xbf89f183	-1.0776829
60	0xbf6aa6d1	-0.9166079
61	0xbf6d680b	-0.9273688
62	0x3fa509a9	1.2893573
63	0x3f8b3328	1.0874987

model.lstm.weight_hh_l0_reverse f4 [32, 8]
0	0xbf9d2319	-1.2276336
1	0xbf468d26	-0.77559125
2	0xbf98adbe	-1.1928022
3	0x3f2b8a64	0.6700804
4	0x3f2c2e87	0.67258495
5	0xbdce93b4	-0.10086766
6	0xbf1d2521	-0.6138478
7	0xbf6cc7b8	-0.92492247
8	0x3efb485f	0.49078652
9	0x3e82cc7d	0.25546637
10	0x3ea2c30e	0.3178944
11	0xbe4c1c30	-0.19932628
12	0xbedd8e06	-0.43272418
13	0x3ebb39eb	0.36567625
14	0xbd8a188d	-0.06742964
15	0xbe5b24d9	-0.21400775
16	0xbf05cca5	-0.5226539
17	0xbed75fe9	-0.4206536
18	0xbfcc73cf	-1.5972842
19	0x3eeb43f1	0.45950273
20	0x3f5ae050	0.85498524
21	0xbe91ec46	-0.28500575
22	0xbe8ce7bb	-0.27520546
23	0xbe60319e	-0.21893927
24	0x3e8ab9f9	0.2709501
25	0xbec10350	-0.3769784
26	0x3e89dac9	0.26924732
27	0xbe17c972	-0.14822939
28	0x3d693d8d	0.056943465
29	0xbf3ab254	-0.7292836
30	0x3f2929c1	0.66079336
31	0xbe975d65	-0.29563442
32	0xbee4a8f0	-0.4466014
33	0x3f0a3a13	0.53994864
34	0xbfb103d0	-1.3829288
35	0x3ec99f74	0.39379466
36	0x3f534acb	0.82536
37	0x3f0d2413	0.5513317
38	0xbf0be6e3	-0.5464918
39	0x3e429c98	0.19005048
40	0xbe72d4c1	-0.23713972
41	0x3ecb245a	0.39676172
42	0xbed54110	-0.416512
43	0x3e011bf5	0.12608321
44	0x3f85dcd5	1.0458018
45	0x3da2f55a	0.07956953
46	0xbe9354a5	-0.28775516
47	0x3dec930c	0.115514845
48	0xbe87b511	-0.2650533
49	0xbee5dc63	-0.44894704
50	0xbf1ac397	-0.60454696
51	0x3ebbf54a	0.36710578
52	0x3f6bafbd	0.9206503
53	0x3efc07af	0.49224612
54	0xbe9360c5	-0.28784767
55	0xbe934030	-0.2875991
56	0xbfb2dc67	-1.3973511
57	0xbf2b5540	-0.66926956
58	0xbe0242cf	-0.12720798
59	0xbe0bfd17	-0.13670765
60	0x3e960c3d	0.29306212
61	0xbe8c3b16	-0.2738883
62	0xbee89956	-0.45429486
63	0x3ee0d2e1	0.43910888
64	0xbc9fb365	-0.019494722
65	0xbe805c29	-0.25070313
66	0xbef32365	-0.4748794
67	0x3dc1f0b5	0.09469739
68	0x3fb01103	1.3755192
69	0xbe926a78	-0.28596854
70	0x3e70df7d	0.23522754
71	0xbdd06703	-0.10175898
72	0x3ef24e30	0.47325277
73	0x3ef14f9d	0.47131053
74	0x3d1d9a1c	0.03847705
75	0xbd8383f9	-0.06421656
76	0xbf33a281	-0.70169836
77	0x3ec7b56d	0.39005604
78	0xbea0c59c	-0.31400764
79	0x3f58ed65	0.84737235
80	0xbe847413	-0.25869808
81	0xbf655f0a	-0.89598143
82	0x3d2d7e7c	0.042356953
83	0x3f1c07c6	0.6094936
84	0x3fcfe3b0	1.624136
85	0x3ec98597	0.39359733
86	0x3df3b8f7	0.119005136
87	0xbf2aaf66	-0.66673887
88	0x3f08a02f	0.5336942
89	0xbef2e295	-0.47438493
90	0xbeadb361	-0.33925918
91	0x3ea209e9	0.31648186
92	0xbe4e736f	-0.20161222
93	0xbefba6f6	-0.4915082
94	0x3edcc10d	0.43116036
95	0xbd580225	-0.05273642
96	0x3e8c3561	0.27384475
97	0xbeaab035	-0.3333756
98	0x3e7172e7	0.23578988
99	0xbdbe028d	-0.0927783
100	0xbf088b00	-0.533371
101	0x3e1dca60	0.15409231
102	0xbef1851a	-0.4717186
103	0x3f957ad7	1.1678113
104	0x3eb108d0	0.34577036
105	0xbeaddacd	-0.33955994
106	0x3d7527e5	0.0598525
107	0xbda82c3c	-0.08211562
108	0x3ed979b3	0.42475662
109	0xbea1467b	-0.31499085
110	0xbe81d404	-0.25357068
111	0x3f4d8e08	0.8029485
112	0xbe82ec75	-0.25571027
113	0xbf5fa3a6	-0.8735908
114	0xbf15753f	-0.5838203
115	0x3ed64b1d	0.41854182
116	0x3f8848ef	1.0647258
117	0x3e06a216	0.13147768
118	0xbea02c60	-0.31283855
119	0x3ea640e6	0.3247139
120	0x3c895c9d	0.016767794
121	0xbf027269	-0.50955826
122	0xbf0d70ac	-0.5525005
123	0x3ddbdf04	0.10735896
124	0xbeca50ea	-0.39514858
125	0xbf87feb8	-1.0624609
126	0xbe8bc65f	-0.27299783
127	0x3f1db21d	0.61599904
128	0xbdeec059	-0.11657781
129	0xbe929ee2	-0.28636843
130	0x3e8899b5	0.2667977
131	0xbe8ee725	-0.27910724
132	0xbfb4358b	-1.407884
133	0xbf9b53a3	-1.2134899
134	0x3ca0114d	0.0195395
135	0x3f41d961	0.7572232
136	0x3fab8c3c	1.3402171
137	0x3e2c655a	0.16835538
138	0xbdd8b818	-0.10581988
139	0xbd80ea63	-0.06294706
140	0xbf307f81	-0.68944556
141	0x3e74dc11	0.23912074
142	0xbf229fe8	-0.6352525
143	0xbe883f52	-0.2661081
144	0x3e7d4060	0.24731588
145	0x3c134977	0.008989683
146	0x3f02c06a	0.5107485
147	0xbf31fd30	-0.6952696
148	0xbfb6e4a1	-1.4288522
149	0xbef263aa	-0.47341663
150	0x3e7669ba	0.24063769
151	0x3fae89c6	1.3635795
152	0x3de99df8	0.11407083
153	0xbf0c24d6	-0.5474371
154	0xbe08e592	-0.13368824
155	0xbe8cc5c5	-0.27494636
156	0xbe812c3d	-0.25229064
157	0xbe9d43dd	-0.30715838
158	0x3f239055	0.6389211
159	0xbf1f9445	-0.62335616
160	0x3f9b87be	1.21508
161	0x3d5c8e41	0.0538466
162	0x3e9e9f08	0.30980706
163	0x3f7f0e11	0.9963084
164	0x3e870952	0.26374298
165	0x3c0825ae	0.008309765
166	0x3e720656	0.2363523
167	0xbff816e9	-1.9381992
168	0x3f94ca02	1.1624148
169	0x3de8d33c	0.11368415
170	0x3c632255	0.013863166
171	0x3e9a959c	0.30192268
172	0xbe73079d	-0.23733373
173	0x3e4ce555	0.20009358
174	0xbf290822	-0.66028035
175	0xbf3918a3	-0.7230322
176	0x3ddedd2d	0.1088203
177	0x3f92fbb1	1.148306
178	0x3ee82afc	0.45345294
179	0xbf0d67d0	-0.5523653
180	0xbf11d0e9	-0.56959397
181	0x3f0f4e7c	0.5597913
182	0x3f44a97b	0.76821107
183	0x3f1850fc	0.5949857
184	0xbf8816f7	-1.0632008
185	0x3f297f16	0.6620954
186	0xbf2ada42	-0.66739285
187	0x3ddadc1c	0.10686514
188	0x3f8cfefe	1.1015317
189	0x3fa385c1	1.2775193
190	0xbee982bf	-0.45607564
191	0x3fcc2ff2	1.5952132
192	0xbeebfd9d	-0.4609193
193	0x3d9b4e1e	0.07583259
194	0xbe8af1aa	-0.271375
195	0x3df87fd6	0.12133758
196	0x3ee98823	0.45611677
197	0x3ed96dbb	0.4246653
198	0xbec943d0	-0.3930955
199	0xbf153371	-0.5828162
200	0x3e757d45	0.23973568
201	0x3eba5efa	0.36400586
202	0x3ef46fff	0.47741696
203	0xbe18cac6	-0.14921102
204	0xbf18183a	-0.59411967
205	0x3f06f571	0.52718264
206	0xbeb7ddb2	-0.35911328
207	0xbe006fb2	-0.12542608
208	0xbeef62a8	-0.46754956
209	0x3d6684b5	0.056278903
210	0xbf4ec239	-0.8076511
211	0x3df4c0b8	0.11950821
212	0x3f9e1bc8	1.2352228
213	0x3c97e2ee	0.018540826
214	0xbf39be49	-0.7255598
215	0xbe64162f	-0.22274087
216	0x3ef36df2	0.4754482
217	0xbf2af014	-0.6677258
218	0x3e8cf313	0.275292
219	0x3eadb839	0.33929613
220	0xbda755a6	-0.08170633
221	0xbf116381	-0.56792456
222	0x3f58da0e	0.84707725
223	0xbef1329a	-0.47108918
224	0xbf36ac52	-0.7135669
225	0xbed8efd8	-0.42370486
226	0xbfaf442b	-1.3692678
227	0x3f854e7d	1.0414578
228	0x3f243a1d	0.64151174
229	0xbebffb28	-0.37496305
230	0xbd5c6c2f	-0.05381411
231	0xbf63a17f	-0.889183
232	0xbdd7d2d9	-0.10538263
233	0x3f149131	0.58034045
234	0xbebc6a37	-0.36799785
235	0x3f2da120	0.6782398
236	0x3f232d25	0.6374076
237	0x3f31e31d	0.6948717
238	0xbebf7d9e	-0.37400526
239	0xbec91d6c	-0.3928026
240	0xbe43449f	-0.19069146
241	0x3e230128	0.1591841
242	0xbcb20af4	-0.021733738
243	0x3df3e249	0.11908395
244	0xbeda5d0e	-0.4264912
245	0xbc0eb520	-0.008710176
246	0xbd8b0d40	-0.067896366
247	0x3f4d4985	0.80190307
248	0xbed72d76	-0.4202687
249	0xbf504cab	-0.81366986
250	0xbec5b06a	-0.38611156
251	0x3e9fc7f6	0.31207246
252	0xbdb44592	-0.08802332
253	0xbf0091b3	-0.5022232
254	0xbec7e81f	-0.39044282
255	0x3f16f6b8	0.5897021

model.lstm.bias_ih_l0_reverse f4 [32]
0	0x3e98daa7	0.29854318
1	0x3dff9046	0.1247869
2	0x3e15b677	0.14620386
3	0x3e63637c	0.22205919
4	0x3f7e8a5e	0.9942988
5	0x3e0958a7	0.13412724
6	0xbd857937	-0.065172605
7	0x3f9de251	1.2334691
8	0x3e4ea891	0.2018149
9	0x3ef618bf	0.48065755
10	0xbdd2c9e9	-0.102924176
11	0xbe10a257	-0.14124428
12	0x3d5bfc21	0.053707246
13	0x3e5ae21c	0.21375316
14	0x3f0773ff	0.5291137
15	0x3f2c6756	0.6734518
16	0x3ed5829c	0.4170121
17	0x3ed8f066	0.4237091
18	0xbd674b6e	-0.05646842
19	0x3e45c57c	0.19313616
20	0xbef2f1fb	-0.4745024
21	0x3e730aba	0.2373456
22	0xbebafcb0	-0.3652091
23	0xbf019799	-0.50621945
24	0x3f25105c	0.6447809
25	0x3ea42b8f	0.32064483
26	0x3f02e194	0.51125455
27	0xbda0930e	-0.078405485
28	0x3f07abe3	0.52996653
29	0x3f36e7ed	0.7144764
30	0x3eeb7339	0.45986345
31	0x3fb69a8e	1.4265916

model.lstm.bias_hh_l0_reverse f4 [32]
0	0x3e50ee10	0.20403314
1	0xbd30569d	-0.04305135
2	0x3e6bca47	0.23026381
3	0x3d063246	0.03276279
4	0x3f5269ca	0.8219267
5	0x3ebd42c0	0.3696499
6	0x3ce4c7df	0.027927337
7	0x3f6f29cf	0.9342317
8	0x3e97eda8	0.29673505
9	0x3e9fd5e7	0.31217882
10	0xbd7466c6	-0.059668325
11	0xbe03f450	-0.12886167
12	0x3e33cc9f	0.17558526
13	0x3ef4a1b8	0.47779632
14	0x3eead8b9	0.4586847
15	0x3ed69f1b	0.41918263
16	0x3ee2a139	0.44263628
17	0xbdf56ef2	-0.11984052
18	0xbedb95a5	-0.42887607
19	0x3cf296db	0.02961295
20	0xbe527743	-0.20553307
21	0x3d4ca3ed	0.04996102
22	0xbf4676c0	-0.7752495
23	0xbec79015	-0.38977113
24	0x3f2d3320	0.67656136
25	0x3dd2569a	0.10270424
26	0x3eb8370b	0.35979494
27	0xbe65bef1	-0.2243612
28	0x3ee97302	0.45595556
29	0x3ed6d753	0.41961154
30	0x3ee927c7	0.4553816
31	0x3f83254d	1.0245758

model.linear1.weight f4 [1, 16]
0	0x3f34a6bf	0.70566934
1	0xbf5949c9	-0.8487821
2	0xbf832047	-1.0244225
3	0x3f275390	0.6536188
4	0x3f45cae4	0.7726271
5	0xbde14ef6	-0.11001389
6	0xbf38d428	-0.72198725
7	0xbf0b97b3	-0.5452835
8	0x3f2eb7f2	0.6824943
9	0xbf146d1e	-0.57979
10	0x3f0ed48f	0.5579309
11	0xbe3e80e6	-0.18603858
12	0xbfa60628	-1.2970629
13	0xbefae5df	-0.49003503
14	0x3aa23138	0.0012374287
15	0x3e1179a1	0.14206554

model.linear2.weight f4 [1, 10]
0	0xbf2a89e8	-0.6661668
1	0xbf694ba9	-0.91131073
2	0xbf4fcb85	-0.8116992
3	0x3f142948	0.5787549
4	0x3eefce78	0.4683721
5	0x3f07f4c0	0.53107834
6	0xbdc3b7f8	-0.09556574
7	0xba7da18e	-0.00096752576
8	0xbe5ad843	-0.2137156
9	0xbf3ced49	-0.7379957
