public/models/nn_detection/model_tmp.pt (torch, 6019 bytes, 10 tensors)

model.lstm.weight_ih_l0 f4 [32, 2]
0	0x3e2ca7c0	0.16860867
1	0x3c66c7aa	0.01408569
2	0x3e9ce57e	0.3064384
3	0x3f3d4e55	0.7394765
4	0xbd37066f	-0.04468387
5	0x3f0438df	0.5164928
6	0x3ea2e9ea	0.31819087
7	0x3f491d30	0.7856016
8	0x3eb5dbc8	0.35519242
9	0x3ee53fc3	0.4477521
10	0xbc5654e6	-0.013081765
11	0xbe986872	-0.29767185
12	0x3f197153	0.59938544
13	0x3f063e46	0.5243877
14	0x3f7a9a07	0.9789128
15	0x3fc762cc	1.5577025
16	0xbe825e8d	-0.25462762
17	0xbdb04007	-0.08605962
18	0xbf017895	-0.5057462
19	0xbd06ae71	-0.032881204
20	0x3a2fa9c3	0.00067010167
21	0xbd05671e	-0.032569043
22	0xbe00fe07	-0.12596904
23	0xb8c8721d	-9.5579984e-05
24	0x3ea49ef8	0.32152534
25	0x3e227127	0.15863477
26	0x3de1efe1	0.110320814
27	0xbe805790	-0.25066805
28	0xbefce5ae	-0.49393982
29	0xbe544dd1	-0.2073281
30	0xbf4c132f	-0.7971677
31	0xbee8351b	-0.45353016
32	0xbd10f214	-0.035387114
33	0x3e73164e	0.23738977
34	0x3ec181ca	0.37794334
35	0x3ed322ca	0.4123748
36	0x3e8d1ea5	0.27562442
37	0xbe232acb	-0.15934293
38	0xbeb6bf86	-0.35692996
39	0xbece837e	-0.40334696
40	0xbe98eb11	-0.2986684
41	0xbf048545	-0.51765853
42	0xbe99c8e6	-0.30036086
43	0xbe2ec9b7	-0.17069136
44	0xbf8dcc65	-1.1078001
45	0xbf2d67eb	-0.6773669
46	0x3fab7399	1.3394653
47	0x3fa6d06a	1.3032353
48	0x3f0f1c30	0.55902386
49	0x3ea57087	0.32312414
50	0x3ea73e2c	0.3266462
51	0x3f7844d9	0.96980053
52	0xbea44a9e	-0.32088178
53	0xbe693b61	-0.22776558
54	0x3f500cc2	0.81269467
55	0x3efd27a6	0.49444312
56	0x3e3ba7ac	0.1832568
57	0x3e6b5ed4	0.22985393
58	0xbed8f1cb	-0.42371973
59	0xbe6c2f4d	-0.23064919
60	0x3f70071c	0.9376085
61	0x3f228486	0.63483465
62	0x3fa9b7f9	1.3259269
63	0x3f888311	1.0664998

model.lstm.weight_hh_l0 f4 [32, 8]
0	0xbddd2241	-0.10797549
1	0x3f63a005	0.88916045
2	0x3e1939d7	0.1496347
3	0xbf135aa3	-0.57560176
4	0xbe67979f	-0.22616433
5	0x3d261026	0.040542744
6	0xbf016a86	-0.50553167
7	0x3e0543ce	0.13014147
8	0xbeafad7a	-0.3431204
9	0x3efdd3df	0.49575707
10	0xbea16a9c	-0.3152665
11	0xbb8d5e63	-0.0043142303
12	0xbce913df	-0.028451858
13	0xbebcad5d	-0.36851016
14	0x3e9bc272	0.30421788
15	0xbf033eeb	-0.5126788
16	0xbd9093b7	-0.07059424
17	0x3f0a0b0d	0.5392311
18	0xbee19f3e	-0.44066805
19	0xbe7252ee	-0.23664448
20	0xbf1f1472	-0.6214057
21	0xbe753f49	-0.23949923
22	0xbd4f82bd	-0.05066179
23	0x3f390a2b	0.7228114
24	0xbe397db3	-0.18114357
25	0x3f45cf43	0.7726938
26	0xbee5917b	-0.44837555
27	0x3c8debe9	0.017324405
28	0xbf20d678	-0.62827253
29	0xbe82986e	-0.2550692
30	0xbe708dc6	-0.23491582
31	0xbd02e447	-0.031955983
32	0x3e9d66d4	0.30742514
33	0x3e413864	0.18869168
34	0xbe86736f	-0.26259944
35	0xbe07c7a7	-0.13259755
36	0xbebdacf3	-0.37046012
37	0xbe8b90e7	-0.2725899
38	0xbe69d5a9	-0.22835411
39	0x3f1c9e4a	0.6117903
40	0xbd00eb8e	-0.031474642
41	0x3e3d4012	0.18481472
42	0xbe10c7d4	-0.14138728
43	0xbec2cfe3	-0.3804923
44	0xbe8d1948	-0.2755835
45	0xbeb6b10b	-0.35681948
46	0xbf1507e6	-0.5821518
47	0x3f638085	0.8886798
48	0xbf0ff5b6	-0.562343
49	0xbe09e968	-0.13467944
50	0xbedab8bc	-0.42719066
51	0x3f4408e2	0.76576054
52	0xbf7b8a28	-0.98257685
53	0xbf3eb278	-0.7449107
54	0xbcf3ec24	-0.029775687
55	0x3f00a4de	0.5025157
56	0xbf2956fa	-0.6614834
57	0x3d92a4c1	0.071603306
58	0xbf86d15b	-1.053264
59	0x3ebd7d81	0.37009814
60	0xbfabd2d4	-1.3423715
61	0xbf88f128	-1.0698595
62	0x3d5e7bf6	0.054317437
63	0x3f0c3248	0.54764223
64	0x3e16a696	0.14711985
65	0xbd456336	-0.048190318
66	0x3d9bb70d	0.076032735
67	0xbd66e69a	-0.056372263
68	0x3ec8b8d5	0.39203516
69	0xbe37cb57	-0.17948662
70	0x3e833836	0.25628823
71	0xbeefce47	-0.46837065
72	0x3eb203c0	0.34768486
73	0xbf0b2114	-0.5434735
74	0x3e1c90bf	0.15289591
75	0xbda7868a	-0.08179958
76	0x3c6cb9e5	0.014448618
77	0x3e2135a0	0.15743113
78	0x3f42254d	0.75838166
79	0xbf672d3b	-0.9030339
80	0x3d105b06	0.035243057
81	0x3df6b528	0.120462716
82	0x3e102c57	0.14079414
83	0xbe1a46b7	-0.15066038
84	0x3e81aa40	0.25325203
85	0x3e840dfb	0.25791916
86	0xbea2248b	-0.31668505
87	0xbdcc3bd8	-0.09972352
88	0x3f0afe4b	0.5429427
89	0xbe42370e	-0.18966314
90	0x3ec10dbb	0.37705788
91	0x3e0a78dc	0.13522667
92	0x3f255f60	0.64598656
93	0x3e620878	0.22073543
94	0x3eab8b0f	0.3350453
95	0xbeb48475	-0.35257307
96	0xbd9824c3	-0.07428887
97	0x3ee42455	0.4455897
98	0x3d7c79fa	0.061639763
99	0xbe47d621	-0.19515277
100	0xbecdd2b9	-0.4019983
101	0xbe8a1d1f	-0.26975343
102	0xbdfd43ca	-0.12366445
103	0xbba2dcd0	-0.0049701706
104	0x3e89363e	0.26799196
105	0x3f0a0695	0.53916293
106	0xbdcd592f	-0.10026776
107	0xbec61339	-0.3868654
108	0xbed82654	-0.42216742
109	0x3e6872fc	0.22700113
110	0xbe00f635	-0.1259392
111	0x3eab62e4	0.33473885
112	0x3e29d9b9	0.16586961
113	0xbd69ba5a	-0.057062484
114	0x3ee2aeea	0.44274074
115	0xbf1110f9	-0.56666523
116	0x3f373c5a	0.71576464
117	0x3f27b9b7	0.65517753
118	0xbe45b877	-0.19308649
119	0xbe9f46f0	-0.3110881
120	0x3ef9038f	0.48635527
121	0xbf4224ba	-0.7583729
122	0x3f6d0b1f	0.92595094
123	0x3bc192cb	0.0059073917
124	0x3f21a7dc	0.6314676
125	0x3f1d8f5c	0.61546874
126	0x3d1a2c94	0.03764017
127	0xbec1055f	-0.3769941
128	0x3d9480e9	0.0725115
129	0xbf159025	-0.5842307
130	0x3e709b20	0.23496675
131	0x3e2fd43b	0.17170803
132	0x3efb6a99	0.49104765
133	0xbd93073b	-0.071791135
134	0x3f9ab3fb	1.2086176
135	0xbf80cace	-1.0061891
136	0x3c8c749f	0.017145453
137	0xbf3c0ad6	-0.73454034
138	0xbe81a02a	-0.25317508
139	0x3f00dfd1	0.50341517
140	0x3e276afd	0.16349407
141	0xbe4378aa	-0.19088998
142	0x3f8392fa	1.0279229
143	0xbf4d536c	-0.80205417
144	0x3e5aa566	0.21352157
145	0x3cee540c	0.029092811
146	0xbd0bee3b	-0.03416274
147	0x3ec198a6	0.37811774
148	0x3d9cc43e	0.07654618
149	0x3da3df33	0.08001556
150	0x3f5abc65	0.8544372
151	0xbf5139fd	-0.8172911
152	0xbe9c2365	-0.30495754
153	0x3f0fa92e	0.5611752
154	0xbe189ab9	-0.14902772
155	0xbf27b4b3	-0.655101
156	0xbf008a33	-0.50210875
157	0xbe3eaf32	-0.18621519
158	0xbfaab55b	-1.3336595
159	0x3f9b5a78	1.2136984
160	0xbd808239	-0.06274838
161	0xbe48f46d	-0.19624491
162	0x3b8d7beb	0.0043177507
163	0xbe00621d	-0.12537427
164	0x3e92c6df	0.28667352
165	0x3ebe315c	0.37147033
166	0x3edf819d	0.43653575
167	0xbf26f44f	-0.65216535
168	0x3d5bed38	0.053693026
169	0xbeeb412e	-0.45948166
170	0x3ec0ad9f	0.37632462
171	0x3e7ca40a	0.24671951
172	0x3ec42e23	0.3831645
173	0x3e8558e3	0.26044378
174	0x3f498a86	0.78726995
175	0xbf397eb1	-0.7245894
176	0xbf0e547e	-0.55597675
177	0xbe865d84	-0.26243222
178	0xbd34d55d	-0.04414879
179	0x3e37b986	0.17941865
180	0xbc7f7de1	-0.015593977
181	0x3e599879	0.2124957
182	0xbf354e1a	-0.708223
183	0x3f985f03	1.1903995
184	0x3eb84562	0.35990435
185	0x3f359d8c	0.7094352
186	0xbedf0725	-0.43560138
187	0xbe8f5e41	-0.28001598
188	0xbe09eb4e	-0.13468668
189	0x3ea2122e	0.31654495
190	0x3f88f2e1	1.0699121
191	0xbf75463e	-0.95810306
192	0xbe15235a	-0.14564267
193	0x3f2b1ea5	0.66843635
194	0xbe0fd29e	-0.14045188
195	0xbdf81e94	-0.12115207
196	0xbefe649e	-0.4968614
197	0xbea0ba09	-0.31391934
198	0x3cffae9e	0.031211194
199	0x3e47019f	0.19434212
200	0xbea9313f	-0.33045384
201	0xbdb1e493	-0.08686175
202	0xbd7b4795	-0.061347563
203	0x3dea2553	0.114329
204	0xbea883da	-0.32913095
205	0x3d70f854	0.058830574
206	0xbc7c2d79	-0.015391701
207	0xbf67826f	-0.904334
208	0xbeec0ade	-0.4610204
209	0x3e052144	0.13000971
210	0x3d74339e	0.05961954
211	0x3e1ae6f3	0.15127163
212	0xbf3b0fba	-0.7307087
213	0x3ad4ce31	0.0016235766
214	0xbede01dc	-0.43360794
215	0x3e90f2bb	0.2831019
216	0xbe154a33	-0.14579086
217	0x3e634664	0.2219482
218	0xbf164ae8	-0.5870805
219	0x3c1ac6a0	0.00944677
220	0xbf2f605b	-0.685064
221	0xbea4cd7f	-0.3218803
222	0x3dd6bd7c	0.1048536
223	0x3dd67f84	0.104735404
224	0xbedc446c	-0.43020952
225	0xbd965a2f	-0.0734142
226	0xbe358b10	-0.1772883
227	0x3dffaa14	0.12483612
228	0xbeb1e386	-0.347439
229	0xbf1f2805	-0.6217044
230	0xbe024ede	-0.12725398
231	0x3f034dff	0.5129089
232	0x3e77e04d	0.24206658
233	0x3d32bee2	0.04363907
234	0xbdc59b8d	-0.096488096
235	0xbec93e6e	-0.39305443
236	0xbe905679	-0.28190973
237	0xbeec0b48	-0.46102357
238	0xbef54de7	-0.47910997
239	0x3f332805	0.6998294
240	0xbe6f4211	-0.23365046
241	0xbc0d269b	-0.008615161
242	0xbe3f6334	-0.18690187
243	0x3f3d2077	0.7387766
244	0xbf52b817	-0.8231215
245	0xbf027989	-0.509667
246	0xbe61b3d5	-0.22041257
247	0x3db0092c	0.085954994
248	0xbf5fbd8e	-0.8739861
249	0x3e05b78f	0.13058303
250	0xbf276559	-0.6538902
251	0x3ea48e3d	0.3213977
252	0xbf6eb4cb	-0.9324462
253	0xbf4a38fd	-0.7899321
254	0x3da6bd83	0.08141615
255	0x3e71ffd3	0.23632745

model.lstm.bias_ih_l0 f4 [32]
0	0x3ef64819	0.4810188
1	0x3f529fe8	0.8227525
2	0x3de71f40	0.11285257
3	0x3f63183c	0.88708854
4	0x3e6ca6f0	0.23110557
5	0x3e7de91a	0.24795952
6	0x3f04b1ce	0.5183381
7	0x3f8502e3	1.0391506
8	0x3e805e76	0.25072068
9	0xbda4bb21	-0.080435045
10	0x3da60130	0.08105695
11	0xbde96430	-0.113960624
12	0x3f05062e	0.51962554
13	0x3e1ca1a1	0.15296032
14	0xbe9c0421	-0.304719
15	0xbf705513	-0.9387981
16	0x3e85ec4e	0.2615685
17	0x3e819ae4	0.25313485
18	0xbe6ca32b	-0.23109119
19	0xbe5cdcd5	-0.21568616
20	0xbd59a29d	-0.053133596
21	0xbd93db2e	-0.072195396
22	0x3df9208c	0.12164411
23	0xbea07d2d	-0.31345502
24	0x3f06283d	0.5240515
25	0x3f422a05	0.75845367
26	0xbd2bff1f	-0.04199135
27	0x3ef4802c	0.47754037
28	0x3ddb320e	0.107029065
29	0x3ede7e4b	0.4345573
30	0x3f0cbc25	0.54974586
31	0x3f8b3d0e	1.0878007

model.lstm.bias_hh_l0 f4 [32]
0	0x3eb83de0	0.35984707
1	0x3e71a503	0.23598103
2	0xbbdc7474	-0.0067277495
3	0x3f4ed372	0.8079139
4	0x3f16c11f	0.5888843
5	0xbe729a28	-0.23691618
6	0x3f60bddb	0.87789696
7	0x3f63ac32	0.88934624
8	0x3e1389c2	0.14408019
9	0xbe3bac53	-0.18327455
10	0x3d456d38	0.048199862
11	0xbf3bb1aa	-0.7331797
12	0x3ec81005	0.39074722
13	0xbda01cd0	-0.078179955
14	0xbf290a30	-0.6603117
15	0xbf898287	-1.0742959
16	0xbdec1fab	-0.11529478
17	0x3e43e114	0.19128829
18	0x3d5a729b	0.053331953
19	0xbe4f22c5	-0.20228107
20	0xbc6af3e2	-0.014340373
21	0xbe14ede8	-0.14543879
22	0x3ebbde73	0.36693153
23	0xbef086bb	-0.4697779
24	0x3e389164	0.18024212
25	0x3f142e3b	0.5788304
26	0x3f12561f	0.5716266
27	0x3f315c4d	0.69281465
28	0x3dd763d0	0.105170846
29	0x3e7f9cee	0.24962208
30	0x3edff374	0.43740427
31	0x3f331def	0.6996755

model.lstm.weight_ih_l0_reverse f4 [32, 2]
0	0xbd324b28	-0.043528706
1	0x3e117394	0.14204246
2	0x3decf087	0.115693145
3	0x3dc3737c	0.09543511
4	0x3e6740e4	0.22583348
5	0xbe8989b3	-0.2686287
6	0x3f2a1339	0.6643558
7	0x3f3382e2	0.70121586
8	0x3f12a808	0.57287645
9	0x3e47d72e	0.19515678
10	0x3f136ecf	0.57590955
11	0x3d981c73	0.07427301
12	0x3f4c356b	0.7976901
13	0x3e86b52a	0.26310092
14	0x3e7e5ddf	0.24840496
15	0xbe902ebe	-0.2816066
16	0xbea31e3d	-0.31859007
17	0xbecd2687	-0.40068457
18	0x3eecb351	0.46230558
19	0x3ed307b5	0.41216817
20	0xbced8f3e	-0.028998967
21	0x3f312f4c	0.69212794
22	0x3f17f25c	0.59354186
23	0x3f19cb5a	0.60075915
24	0x3f00d3eb	0.5032336
25	0x3f404d6c	0.75118136
26	0x3e70f740	0.23531818
27	0x3eeb03c6	0.45901316
28	0x3e93b29f	0.28847215
29	0x3d1d8cea	0.038464464
30	0x3e907b06	0.2821886
31	0xbe461d5d	-0.19347139
32	0x3f110681	0.5665055
33	0x3f1c69dc	0.6109903
34	0x3dea6f7c	0.11447045
35	0x3efc1cdd	0.4924077
36	0x3dbe2cb3	0.092858694
37	0xbe6513fa	-0.22370902
38	0xbf1dd120	-0.61647224
39	0xbf728c9f	-0.9474582
40	0xbf011d1e	-0.50435054
41	0xbeae09a4	-0.3399173
42	0xbe432f30	-0.1906097
43	0xbed67814	-0.41888487
44	0xbf0f7ac6	-0.5604671
45	0xbf58ba4a	-0.84659255
46	0x3e5eb9dc	0.21750587
47	0x3de02ed8	0.10946435
48	0xbeeb6857	-0.45978042
49	0xbef7c7f7	-0.4839475
50	0x3df93714	0.121687084
51	0x3bf1d777	0.0073804217
52	0x3ebf4bb7	0.37362453
53	0x3e416622	0.18886617
54	0x3f25214f	0.6450395
55	0x3e443268	0.19159853
56	0x3e5484b5	0.20753749
57	0xbdfaea92	-0.12251772
58	0x3ea01779	0.31267908
59	0xbe836dd8	-0.25669742
60	0x3f81bf62	1.013653
61	0x3ef50727	0.4785702
62	0xbef7cea9	-0.48399857
63	0xbf33b71b	-0.7020127

model.lstm.weight_hh_l0_reverse f4 [32, 8]
0	0x3e37b324	0.1793943
1	0xbd7316e6	-0.05934801
2	0x3ebff0b4	0.3748833
3	0xbf507400	-0.81427
4	0x3d93e950	0.07222235
5	0x3dac63f9	0.08417506
6	0xbeedc883	-0.4644204
7	0x3e40950b	0.18806855
8	0xbee15fe0	-0.4401846
9	0xbdbef6a0	-0.09324384
10	0x3eb72be4	0.35775673
11	0xbf91699c	-1.1360354
12	0xbe76f2d4	-0.24116069
13	0x3e094601	0.1340561
14	0xbf6ef533	-0.93342894
15	0xbdab50e9	-0.08365042
16	0xbe44fd20	-0.19237185
17	0x3ca32697	0.019915862
18	0xbeef258b	-0.4670833
19	0xbf15a116	-0.5844892
20	0xbda4c8a0	-0.08046079
21	0x3ee5b17d	0.44861975
22	0x3cc84c12	0.024450336
23	0xbe89d2b8	-0.26918578
24	0x3cca5290	0.024697572
25	0x3c33673d	0.010949907
26	0xbe24f5a0	-0.16109324
27	0xbed51eda	-0.416251
28	0x3eb9700b	0.36218295
29	0x3e11e7b0	0.14248538
30	0xbeef5e01	-0.46751407
31	0xbc3d32e9	-0.011547782
32	0xbe7aedc9	-0.2450477
33	0xbeb508ba	-0.3535822
34	0x3e51d87f	0.20492743
35	0xbf1d99e9	-0.61562973
36	0xbe47b41a	-0.19502297
37	0xbe08bd32	-0.13353422
38	0xbf99b943	-1.2009662
39	0xbe9e409e	-0.30908674
40	0x3dd664b3	0.104684256
41	0xbe008ff2	-0.12554911
42	0x3e9bbc22	0.3041697
43	0xbea7a041	-0.32739452
44	0x3e815be7	0.25265428
45	0x3eb20c17	0.3477485
46	0xbe859750	-0.26092005
47	0xbc73e608	-0.014886387
48	0xbd2efebc	-0.042723402
49	0xbe1417ba	-0.14462176
50	0xbed74b67	-0.42049715
51	0xbf1bcfd2	-0.60863984
52	0x3ecf2859	0.4046047
53	0x3e9a3939	0.30121782
54	0xbe93f021	-0.2889414
55	0xbdfb6dbf	-0.12276792
56	0xbe547254	-0.20746738
57	0xbe004d69	-0.1252953
58	0x3ef91d59	0.48655203
59	0xbf056a5e	-0.5211543
60	0x3e81a19e	0.25318617
61	0x3d756566	0.059911154
62	0xbf379f6f	-0.7172765
63	0xbd9c2a18	-0.07625216
64	0xbe5ec0ab	-0.21753184
65	0x3e45c7a5	0.1931444
66	0x3eb64e76	0.35606736
67	0xbc5ec0bb	-0.013595755
68	0x3e87fc9d	0.26559916
69	0x3e8410e6	0.25794142
70	0x3d9b8155	0.075930275
71	0x3dd705da	0.10499163
72	0x3dacc08f	0.08435165
73	0xbde3e80f	-0.11128246
74	0xbe3d1658	-0.18465555
75	0xbf005a60	-0.501379
76	0x3d1ff793	0.039054465
77	0x3ec68f9d	0.38781443
78	0xbf4656a2	-0.7747594
79	0x3ea4db26	0.32198447
80	0xbe3ddfea	-0.18542448
81	0xbda953fb	-0.08267971
82	0xbe49afe5	-0.19696005
83	0x3dd9dea0	0.106381655
84	0x3c88586b	0.016643723
85	0x3ebf6150	0.3737893
86	0xbe3ddffa	-0.18542472
87	0xbb99d453	-0.0046945005
88	0x3e91bf55	0.28466287
89	0x3d2f4d92	0.042798586
90	0xbe07da4e	-0.1326687
91	0xbd964022	-0.07336451
92	0xbef1f2c7	-0.47255537
93	0xbe27481c	-0.16336101
94	0xbe9a1705	-0.30095688
95	0xbd7507a9	-0.05982176
96	0xbdba378f	-0.09092628
97	0xbe33fd28	-0.1757704
98	0xbe845922	-0.25849253
99	0xbf458ac7	-0.7716488
100	0x3e114add	0.14188714
101	0x3c1a279a	0.009408856
102	0xbf289b5a	-0.6586205
103	0xbd30ba3b	-0.043146353
104	0xbc02077f	-0.0079363575
105	0xbec284bf	-0.37991902
106	0x3e8030e4	0.250373
107	0xbf5b27ae	-0.8560742
108	0x3e9f8483	0.31155786
109	0x3e8a0841	0.26959422
110	0xbf20fbcc	-0.6288421
111	0x3d772e09	0.060346637
112	0x3e9f335c	0.31093872
113	0x3e024ce9	0.12724651
114	0xbea0e1fe	-0.31422418
115	0xbe833981	-0.2562981
116	0xbcd7ae44	-0.026328214
117	0xbe31635d	-0.1732306
118	0xbe27ecb7	-0.16398893
119	0x3e1553b7	0.14582716
120	0xbe91a615	-0.28447023
121	0x3e0e0435	0.13868792
122	0xbdcdea76	-0.100544855
123	0xbf30a100	-0.68995667
124	0x3e67413f	0.22583483
125	0x3ec7d52e	0.3902983
126	0xbf53ffab	-0.82811993
127	0xbe188cca	-0.14897457
128	0x3df841d4	0.12121931
129	0x3ee405fd	0.4453582
130	0xbccc9293	-0.024972236
131	0xbef565b3	-0.47929153
132	0xbdabdc85	-0.0839167
133	0x3cb6dfd0	0.022323519
134	0x3cd13e75	0.025542477
135	0x3ee744f8	0.45169806
136	0x3e613743	0.21993737
137	0x3f478207	0.7793278
138	0x3e867dcd	0.26267853
139	0x3e34420d	0.17603321
140	0xbf48044f	-0.78131574
141	0xbf167210	-0.58767796
142	0xbd124012	-0.035705633
143	0x3ed03ea8	0.40672803
144	0x3ecb1b0b	0.3966907
145	0x3e8a1838	0.26971602
146	0xbe1a57e0	-0.15072584
147	0xbe862b67	-0.26204988
148	0xbd582767	-0.052771952
149	0x3e1f1428	0.15535033
150	0xbee16084	-0.44018948
151	0xbd2f603c	-0.042816386
152	0xbe848fda	-0.25891
153	0xbec0bb26	-0.37642783
154	0x3e83837f	0.2568626
155	0x3bc47488	0.005995337
156	0x3d48758d	0.04894023
157	0x3df9ad6b	0.1219128
158	0xbc9cb0c7	-0.019127263
159	0x3da38f61	0.07986332
160	0xbe59c923	-0.21268134
161	0xbf1c6b28	-0.6110101
162	0xbea4524e	-0.32094043
163	0x3e57d710	0.21078134
164	0x3efe2444	0.49637043
165	0x3ef163fa	0.4714659
166	0xbeafe1c9	-0.34351948
167	0xbeebc147	-0.46045896
168	0x3cc27b96	0.023740571
169	0xbf0738ce	-0.5282105
170	0xbea1f7c1	-0.31634334
171	0xbc13539d	-0.008992103
172	0x3f168c5b	0.58807915
173	0x3ee6f497	0.45108482
174	0xbe67cba0	-0.2263627
175	0xbe35781f	-0.17721604
176	0xbd871c2a	-0.06597169
177	0xbeeb0520	-0.45902348
178	0x3ebb84e6	0.3662483
179	0x3e6e996e	0.23300716
180	0x3ed0e976	0.40803117
181	0x3d341e30	0.0439741
182	0xbdec0b69	-0.11525614
183	0xbf0a072f	-0.5391721
184	0x3dee9795	0.11650006
185	0x3ef95c23	0.48703107
186	0xbd74ec14	-0.059795454
187	0xbe8f0d91	-0.27940038
188	0xbf1b9990	-0.6078119
189	0xbf27e5d4	-0.65585065
190	0x3e857542	0.26066023
191	0x3f269ca4	0.65082765
192	0xbdc6bc43	-0.09703877
193	0xbd08ee11	-0.033430163
194	0x3e85007a	0.25976926
195	0xbecbff96	-0.39843434
196	0x3e1aa874	0.15103322
197	0xbb7c8359	-0.0038530438
198	0xbd8b014c	-0.06787357
199	0xbe40be11	-0.18822505
200	0x3e0bdd79	0.13658704
201	0xbdd626a8	-0.10456592
202	0xbe769c6c	-0.24083108
203	0xbed92d9d	-0.42417613
204	0xbe64864d	-0.22316857
205	0x3e8bc291	0.2729688
206	0xbf1948cc	-0.59876704
207	0x3e32247b	0.17396729
208	0xbe3f7024	-0.18695122
209	0xbec7d1b0	-0.39027166
210	0xbf17c54d	-0.5928543
211	0xbe969484	-0.29410183
212	0xbe05b8f9	-0.13058843
213	0xbe3405d4	-0.17580348
214	0xbe236d3a	-0.15959635
215	0x3c9c9b5e	0.019117054
216	0x3e0722f0	0.13196921
217	0x3e2fe918	0.17178762
218	0x3e30169b	0.17196123
219	0xbf3db290	-0.7410059
220	0x3e983381	0.29726794
221	0x3e7be1bb	0.24597828
222	0xbee9287f	-0.4553871
223	0x3dcc683e	0.0998082
224	0xbe4081d7	-0.1879953
225	0xbe9fdd4e	-0.3122353
226	0x3dcbfcb3	0.09960308
227	0xbea4db66	-0.32198638
228	0xbe17b096	-0.14813456
229	0x3e196339	0.14979257
230	0xbee7d1ac	-0.45277154
231	0x3e42c275	0.19019492
232	0x3e221979	0.1583003
233	0x3e0609d9	0.13089694
234	0xbdc0074c	-0.09376392
235	0xbeadcc03	-0.3394471
236	0x3c8193b1	0.015817495
237	0x3f010834	0.5040314
238	0xbed25132	-0.41077572
239	0xbe6727f9	-0.22573842
240	0xbdf3e1d3	-0.11908307
241	0x3e2040d7	0.15649734
242	0x3d9b4de5	0.075832166
243	0xbf1cf40d	-0.6130989
244	0xbe0ed8ed	-0.13949938
245	0x3ec30ad6	0.38094205
246	0xbf0e1325	-0.5549796
247	0xbdd65f56	-0.10467403
248	0xbd011f3b	-0.031523924
249	0x3e91dc28	0.28488278
250	0x3e5a0151	0.21289565
251	0xbebeb7f6	-0.37249726
252	0xbe42ecb1	-0.19035603
253	0x3ec3e2a0	0.3825884
254	0xbeeed371	-0.46645692
255	0x3dc638d2	0.09678806

model.lstm.bias_ih_l0_reverse f4 [32]
0	0x3eb93cbc	0.3617915
1	0x3f311fdc	0.6918924
2	0xbb0699a0	-0.0020538345
3	0x3eedf0a1	0.46472648
4	0x3eb46934	0.35236514
5	0x3efe8818	0.49713206
6	0x3f2c4e71	0.6730719
7	0x3f17de99	0.5932403
8	0xbe54a610	-0.20766473
9	0x3e5d6992	0.21622303
10	0x3ec47a70	0.38374662
11	0x3e654713	0.22390394
12	0x3ec3d6ca	0.3824981
13	0x3edcbd88	0.4311335
14	0x3e9aab5f	0.3020887
15	0x3ed4a6fc	0.4153365
16	0xbea45812	-0.32098442
17	0xbee24c93	-0.44199046
18	0xbe95b4ce	-0.29239506
19	0xbe9d18bd	-0.30682936
20	0x3eae3e20	0.34031773
21	0x3da9eb0b	0.08296784
22	0xbe6646f1	-0.22488
23	0xbe56608e	-0.2093527
24	0xbe3f8998	-0.18704832
25	0x3ebf81ba	0.3740366
26	0x3ecd0660	0.40043926
27	0x3ee45765	0.44597927
28	0x3f1d591d	0.614641
29	0x3e7da4e1	0.24769928
30	0x3f0d0c66	0.55097044
31	0xbe23675e	-0.159574

model.lstm.bias_hh_l0_reverse f4 [32]
0	0x3e4c2796	0.19936976
1	0x3f27ee38	0.6559787
2	0xbe055b0d	-0.13023014
3	0x3d2ecf45	0.042678136
4	0x3f1a3bec	0.60247684
5	0x3efe6d84	0.4969293
6	0x3e799d94	0.24376518
7	0x3ed83d2f	0.4223418
8	0x3e57c652	0.21071747
9	0x3f3f9991	0.748437
10	0xbe095ec6	-0.1341506
11	0x3e9b2ec5	0.3030912
12	0x3edb1abf	0.42793843
13	0xbd14850b	-0.036259692
14	0x3ecff623	0.40617475
15	0x3ec9fb97	0.3944976
16	0xbe2cdb3d	-0.16880508
17	0xbd0117d2	-0.031516857
18	0x3ddcb3b0	0.1077646
19	0x3e00f902	0.12594989
20	0x3d882ba9	0.066489525
21	0x3ec9445e	0.39309973
22	0xbee48b8f	-0.44637725
23	0xbd346f17	-0.044051256
24	0x3e93584a	0.28778297
25	0x3ee13fe0	0.43994045
26	0xbd5f86cf	-0.054571923
27	0x3f25124d	0.6448105
28	0x3f55c705	0.83506805
29	0x3ec29889	0.38007
30	0x3f13592d	0.57557946
31	0x3ecd290e	0.40070385

model.linear1.weight f4 [1, 16]
0	0x3eb1df1d	0.34740534
1	0x3f04bc84	0.5185015
2	0x3ec6de9b	0.3884171
3	0xbf25c43a	-0.6475254
4	0x3e3a42f4	0.18189603
5	0x3ec0d9eb	0.37666258
6	0xbec47407	-0.38369772
7	0x3f368d3d	0.7130926
8	0x3ea0689a	0.31329805
9	0x3e948d5b	0.29014096
10	0xbd48d8ec	-0.049034998
11	0xbf2b0fb4	-0.66820836
12	0xbecdddd7	-0.40208313
13	0xbdb266f1	-0.08711041
14	0xbf19d096	-0.600839
15	0x3ee34cf9	0.44394663

model.linear2.weight f4 [1, 10]
0	0xbe6fb280	-0.23407936
1	0x3f335386	0.7004932
2	0x3eb51847	0.35370085
3	0xbb856614	-0.0040710066
4	0x3e52bdc5	0.20580204
5	0xbdcd582c	-0.10026583
6	0x3f0baa91	0.5455714
7	0xbeac3d7f	-0.33640668
8	0xbcb3cc1e	-0.021947917
9	0x3d8b84b0	0.068124175
