public/models/nn_detection/model_fine_tuned.pt (torch, 6024 bytes, 10 tensors)

model.lstm.weight_ih_l0 f4 [32, 2]
0	0x3ff177b1	1.8864652
1	0x3f45f78d	0.7733086
2	0x3f3d0a37	0.7384371
3	0x3f0bee3e	0.54660404
4	0xbf358efb	-0.70921296
5	0xbef52110	-0.47876787
6	0x3f657bc5	0.8964198
7	0x40099faa	2.1503701
8	0x3f93ae96	1.1537654
9	0x3fb38f41	1.4028093
10	0x3f99c147	1.2012109
11	0x3f8d81c7	1.105523
12	0xbf6e86cb	-0.9317443
13	0xbfd32917	-1.6496915
14	0x3ff0a23e	1.8799512
15	0x3fe1e86e	1.7649057
16	0xbeb8eded	-0.36119023
17	0x3e891933	0.26777038
18	0x3e954755	0.29155985
19	0x3f8193e7	1.0123261
20	0x3faaf5ad	1.3356224
21	0x3f2f388f	0.68445677
22	0x3e7dd8ea	0.24789777
23	0x3f24f0d9	0.64430004
24	0x3fe5913e	1.7934949
25	0x3ff162a2	1.8858225
26	0xbdaca88c	-0.08430585
27	0x3f4eb616	0.8074659
28	0x3f734545	0.9502757
29	0x3f657b06	0.89640844
30	0x3f065428	0.5247216
31	0x3f5ae8a2	0.8551122
32	0x3f64e4c5	0.89411575
33	0x3dc9e016	0.09857194
34	0xbf411766	-0.7542633
35	0xbfe329eb	-1.7747167
36	0x3f932db7	1.1498326
37	0x3f846ddc	1.0346026
38	0x3f661c12	0.8988658
39	0x3ed39f21	0.41332343
40	0x3eb638d9	0.35590246
41	0x3f64e24e	0.89407814
42	0xbf5cf14b	-0.86305684
43	0xbfc247ff	-1.5178221
44	0x3d0ed5cf	0.034871873
45	0xbf4fb58b	-0.8113639
46	0xbf41cbc0	-0.7570152
47	0xbe6d944a	-0.23201099
48	0xbf8b8114	-1.0898767
49	0xbfdac4c3	-1.7091297
50	0xbe80cb39	-0.25155047
51	0xbeb82fb0	-0.35973883
52	0x3f5c74fb	0.86116
53	0x3fab9fdc	1.340816
54	0x3dee7a0b	0.116443716
55	0xbd514787	-0.051093604
56	0x3f8ce234	1.1006532
57	0x3fc010ce	1.5005128
58	0xbf09d16d	-0.53835183
59	0xbf864976	-1.0491168
60	0x3e708c75	0.2349108
61	0x3d21e2ed	0.039523054
62	0x3f0a3100	0.5398102
63	0x3f0aea25	0.54263526

model.lstm.weight_hh_l0 f4 [32, 8]
0	0x3e142886	0.14468583
1	0xbf02f629	-0.5115686
2	0x3fa5cead	1.2953697
3	0xbf1f5706	-0.6224216
4	0x3f7b1d5e	0.98091686
5	0xbed6cb7d	-0.41952124
6	0x3f186cac	0.5954082
7	0x3f8c7823	1.0974163
8	0x3fc77f63	1.558575
9	0xbea16162	-0.3151961
10	0x3f391e3f	0.72311777
11	0x3f468550	0.7754717
12	0x3fa30f35	1.2739016
13	0xbfa15f8f	-1.2607287
14	0xbcd36c0a	-0.025808353
15	0xbf5de826	-0.86682355
16	0x402243b8	2.5353832
17	0x3e95984b	0.29217753
18	0x3fc3db8e	1.5301378
19	0x3d578068	0.052612692
20	0x3e878d33	0.26474914
21	0xc06b00a4	-3.671914
22	0x3ede9f47	0.43480894
23	0xbf51caa5	-0.81949836
24	0xbf95166a	-1.1647465
25	0x3f7adc71	0.97992617
26	0x404769d4	3.1158342
27	0xbfd726dc	-1.6808734
28	0x3f025550	0.50911427
29	0x3f2e9147	0.68190426
30	0x3f151d9e	0.5824832
31	0x3f6c9e56	0.924291
32	0x3e1947e6	0.14968833
33	0x3e8d81f1	0.276382
34	0x3fd8be49	1.693307
35	0xbef02402	-0.46902472
36	0xbe80859b	-0.25101933
37	0xbe4f9737	-0.20272528
38	0xbd8e3b6d	-0.06944928
39	0x3e188ae2	0.1489673
40	0x3f163071	0.58667666
41	0x3e61cd4e	0.22050974
42	0x3f73e44b	0.9527022
43	0xbf7e04ab	-0.9922587
44	0x3f4386f9	0.76377827
45	0xbefb3ac0	-0.4906826
46	0x3f95ba3f	1.1697463
47	0x3ede2dec	0.4339441
48	0x3ebe3f05	0.37157455
49	0x3ee650ae	0.4498343
50	0x3fad923a	1.356025
51	0x3f00e077	0.50342506
52	0xbf21bd1c	-0.63179183
53	0xbfa98b8b	-1.324571
54	0xbe8b6bdc	-0.27230728
55	0xbfbcb2dc	-1.4742084
56	0x3edec974	0.43513072
57	0x3e6f81ab	0.23389308
58	0x3f848fcb	1.0356382
59	0x3f076e41	0.5290261
60	0x3f73749c	0.95099807
61	0x3f083048	0.5319867
62	0xbe9c68ad	-0.3054861
63	0xbea102be	-0.31447405
64	0x3f53afb2	0.82689965
65	0xbf87e47a	-1.06166
66	0x3e02ce10	0.12773919
67	0x3f860906	1.0471504
68	0x3f5d4607	0.8643498
69	0xbf1a8a80	-0.60367584
70	0xbea31034	-0.318483
71	0xbfac50f6	-1.3462207
72	0x3f71591c	0.94276595
73	0xbf2d4f07	-0.6769871
74	0x3e78f902	0.24313739
75	0x3f0837f0	0.53210354
76	0x3ea3fd9a	0.3202942
77	0xc0007e3e	-2.0077052
78	0xbc387015	-0.011257191
79	0xbec9bab0	-0.39400244
80	0x3da0680f	0.078323476
81	0x3fee5537	1.8619756
82	0x3be2359e	0.0069033643
83	0xbe5b2b78	-0.21403301
84	0xbe6672d8	-0.22504747
85	0xbf34ef92	-0.70678055
86	0x3f555fb8	0.8334918
87	0x3fdf6185	1.7451636
88	0xbeeef892	-0.4667402
89	0x3ea15f31	0.31517938
90	0x3f7a0128	0.97658014
91	0xbf02bd93	-0.5107052
92	0x3f24c9da	0.643705
93	0x3f71ee3c	0.9450414
94	0x3efce232	0.49391323
95	0x3f9fbc30	1.2479305
96	0x3fc10506	1.5079658
97	0xbe952551	-0.29130033
98	0x3c04de78	0.008109681
99	0x3dea79ee	0.114490375
100	0x3f7b9e5e	0.98288524
101	0xbf3d9233	-0.7405121
102	0x3cd6801d	0.026184136
103	0xbe43b317	-0.19111286
104	0xbf72c52f	-0.9483213
105	0xbf0cb2a2	-0.5496007
106	0xbe314e6f	-0.17315076
107	0x3f4fbae5	0.81144553
108	0x3fcb8c94	1.5902276
109	0x3d52f018	0.051498502
110	0xbe268e9e	-0.16265342
111	0xbefe7232	-0.496965
112	0xbe3dffd8	-0.18554628
113	0xbea014f0	-0.31265974
114	0x3fc17a73	1.5115494
115	0xbf150fc5	-0.5822719
116	0x3f85a316	1.0440395
117	0x3f543329	0.82890564
118	0x3f7b0175	0.980491
119	0x3f86e9c0	1.0540085
120	0xc00544e2	-2.0823293
121	0xbf75fd33	-0.96089476
122	0x3f3fffcd	0.74999696
123	0xbe8a4fea	-0.27014095
124	0x3de285cd	0.11060677
125	0x3e8bcef9	0.27306345
126	0x3ea6db42	0.32589155
127	0xbe7d142e	-0.24714729
128	0x3f7407a4	0.9532416
129	0xbfc6df72	-1.553694
130	0x3bb9626d	0.005657485
131	0x3f403242	0.7507669
132	0x3fd47769	1.6598941
133	0xbef61f3e	-0.4807071
134	0xbe671447	-0.22566329
135	0xbe567c45	-0.20945843
136	0x3f069a12	0.5257884
137	0xbe85bdeb	-0.26121458
138	0xbef70cce	-0.48251957
139	0x3eb29037	0.34875652
140	0xbf579cc3	-0.84223574
141	0x3b8e585c	0.0043440294
142	0xbe328990	-0.17435288
143	0xbf8609f3	-1.0471786
144	0x3f13ab50	0.5768328
145	0x3f929a11	1.1453267
146	0xbf369568	-0.71321726
147	0xbf15cbec	-0.58514285
148	0xbfd68633	-1.6759704
149	0x3f852efa	1.0404961
150	0x3ddd9af7	0.10820573
151	0x40046f66	2.0692992
152	0xbe2aa538	-0.16664588
153	0xc028f275	-2.6397984
154	0xbef20bca	-0.4727462
155	0x3f1aa59e	0.6040896
156	0x3fb48cf6	1.4105518
157	0x3f0a3468	0.53986216
158	0xbf9a379b	-1.204822
159	0x3ccc85a3	0.024966067
160	0x3ea06864	0.31329644
161	0x3e3fa5e0	0.1871562
162	0x3f3534c0	0.70783615
163	0xbff53af7	-1.915862
164	0x3f4f3931	0.8094664
165	0xbe60cf40	-0.2195406
166	0x3ec60b3f	0.38680455
167	0x3fe0f177	1.7573689
168	0xbe8a9a45	-0.27070823
169	0x3f6a9d57	0.9164633
170	0xbe4b8072	-0.19873217
171	0xbf5b9fe3	-0.8579084
172	0xbe9c121d	-0.3048257
173	0x3f7246eb	0.9463946
174	0x3e13b44f	0.14424251
175	0x3f295a13	0.6615307
176	0x3ebb2d66	0.36558074
177	0x4011978d	2.274875
178	0xbeeb8ef9	-0.46007517
179	0xbdfec416	-0.12439744
180	0xbfde1b75	-1.7352129
181	0x3ed85517	0.42252418
182	0xbf5a2699	-0.85215145
183	0xbe1847cf	-0.14871143
184	0x3e316f1a	0.17327538
185	0x3fa448df	1.2834738
186	0x3f691bee	0.9105824
187	0xbf8b391c	-1.0876803
188	0xbf9a4036	-1.2050846
189	0xbf8228a5	-1.0168654
190	0x3f88366d	1.064161
191	0x3ef67dbc	0.48142803
192	0x3f3b24d1	0.7310305
193	0xbec8943d	-0.39175597
194	0x3eb47c9d	0.35251322
195	0x3f415757	0.75523895
196	0xbdda8e29	-0.10671646
197	0xbe592271	-0.21204545
198	0xbf7eb7b0	-0.99499035
199	0xbfb1d2a4	-1.3892407
200	0x3fcae0b7	1.5849828
201	0x3e812c48	0.25229096
202	0x3e6fecca	0.23430172
203	0xbe294fe3	-0.1653438
204	0x3e7af059	0.24505748
205	0x3d278ed3	0.040907692
206	0x3e7016c7	0.23446189
207	0xbf5cd9ac	-0.8626964
208	0x400060aa	2.0059
209	0xbf511485	-0.81671935
210	0x3e9ee15f	0.3103132
211	0x3f682e33	0.90695494
212	0xbf48338a	-0.7820364
213	0xc00dbb09	-2.2145407
214	0x3c91e83d	0.017810935
215	0xbfd4f8da	-1.6638443
216	0x3fd7e3fb	1.6866449
217	0xbe1654c7	-0.14680777
218	0x3e5059c0	0.20346737
219	0x3f953807	1.1657723
220	0xbf67130e	-0.9026345
221	0xbf301979	-0.6878887
222	0xbf2e8193	-0.68166465
223	0xbf9894c3	-1.1920398
224	0x3ea7b737	0.3275697
225	0x3fc1dddf	1.5145835
226	0x3f6b9e38	0.920383
227	0x3f699c1d	0.91253835
228	0x3e039412	0.12849453
229	0xbfda2e16	-1.7045314
230	0x3f2fce2b	0.6867396
231	0xbf2babfe	-0.67059314
232	0x3ec8d400	0.39224243
233	0x3f47d9b0	0.7806654
234	0x3f73151d	0.9495409
235	0xbf4e9504	-0.8069613
236	0xbe74f82e	-0.23922798
237	0xbe847bc9	-0.2587569
238	0x3ed866d7	0.4226596
239	0xbd6c0ba2	-0.05762828
240	0x3f53379c	0.8250673
241	0xbdba812a	-0.09106667
242	0x3f86b632	1.0524352
243	0x3f11c03a	0.5693394
244	0xbf81b107	-1.013215
245	0xc0114ee2	-2.2704396
246	0xbee8daa7	-0.45479318
247	0xbf45098e	-0.76967704
248	0x3ebe4e93	0.37169322
249	0x3f038e88	0.5138936
250	0x3ff5f5d9	1.9215652
251	0xbe562ec4	-0.20916277
252	0xbf07ed65	-0.5309661
253	0xbfe6b77a	-1.8024743
254	0x3d378c20	0.044811368
255	0xbf827b75	-1.0193926

model.lstm.bias_ih_l0 f4 [32]
0	0x3eb42b76	0.35189408
1	0x3fb1a248	1.3877649
2	0x3eeaea97	0.45882103
3	0x3f29888c	0.6622398
4	0x3fa45f73	1.2841629
5	0x3f3cf4dd	0.7381113
6	0x3ea06f3a	0.3133486
7	0x3f9a53bb	1.2056803
8	0x3f326c5f	0.6969661
9	0x3e9679d5	0.29389825
10	0xbea5d750	-0.32390833
11	0x3de7d6d4	0.11320272
12	0x3fbb69ff	1.4641722
13	0x3f0d40b6	0.55176866
14	0x3f74f159	0.9568077
15	0xbe1bfba7	-0.15232717
16	0x3e4659c2	0.19370177
17	0x3f02f23b	0.51150864
18	0x3ed3ef57	0.4139354
19	0xbd9b656a	-0.075877026
20	0xbdbbcf8c	-0.09170446
21	0x3daa89b2	0.083270445
22	0x3f436ed2	0.76340973
23	0xbe03fbfa	-0.1288909
24	0x3f566088	0.83741045
25	0x3fc08253	1.5039772
26	0x3f1ad966	0.60487974
27	0x3f55c9ee	0.83511245
28	0x3fd5ce25	1.6703535
29	0x3f7488b3	0.95521086
30	0x3eda7125	0.42664447
31	0x3f80e4f0	1.0069866

model.lstm.bias_hh_l0 f4 [32]
0	0x3e2a1c7f	0.16612433
1	0x3fc4b1a6	1.5366714
2	0x3e088fbe	0.13336083
3	0x3f4bdd4c	0.7963455
4	0x3fb075c7	1.3785943
5	0x3ea649d3	0.32478198
6	0x3f001b99	0.5004211
7	0x3f72aabb	0.94791764
8	0x3ecb287e	0.3967933
9	0x3ef566f8	0.4793012
10	0x3e66bf18	0.22533834
11	0x3e2f854f	0.17140697
12	0x3fd4a37a	1.6612389
13	0x3eca353c	0.3949374
14	0x3f0dc5f6	0.5538019
15	0x3e2c5eea	0.16833082
16	0xbdf91da8	-0.121638596
17	0x3f5e91bd	0.8694113
18	0x3e27d5a5	0.16390093
19	0xbec98bb8	-0.3936441
20	0xbe4dd5df	-0.20101117
21	0xbe87b325	-0.26503864
22	0x3f099ff3	0.5375969
23	0x3ebf8791	0.37408116
24	0x3f58e9d9	0.84731823
25	0x3f955c33	1.1668762
26	0x3e0f1dfd	0.13976283
27	0x3f00be07	0.5028996
28	0x3f8d1914	1.1023278
29	0x3f8a101c	1.0786166
30	0x3e0a15bb	0.13484852
31	0x3f840970	1.031538

model.lstm.weight_ih_l0_reverse f4 [32, 2]
0	0x3f3379d1	0.7010775
1	0x3e23368c	0.15938777
2	0xbfb5a132	-1.4189818
3	0xbff7872b	-1.9338125
4	0xbf18fb35	-0.5975831
5	0xbf9fd397	-1.2486447
6	0xbf042185	-0.51613647
7	0xbee31a85	-0.4435617
8	0xbf1889de	-0.5958537
9	0xbf8f542e	-1.1197565
10	0xbfb5dc32	-1.4207823
11	0xbff80454	-1.9376321
12	0xbfab3e32	-1.3378356
13	0xbf8e8da5	-1.1136976
14	0x3fe12d0b	1.7591871
15	0x3f5191b2	0.8186294
16	0x3ee72b9a	0.45150453
17	0x3e9c0369	0.30471352
18	0xbc3ee76d	-0.011651856
19	0xbf41f836	-0.75769365
20	0x3ecfc790	0.40581942
21	0xbd50e2ea	-0.050997652
22	0xbd4fc3ab	-0.050723713
23	0x3f6f5528	0.93489313
24	0x3f62f6ac	0.8865764
25	0x3f8939db	1.0720781
26	0x3eba69d0	0.36408854
27	0x3f192b98	0.59832144
28	0xbf59ffe8	-0.85156107
29	0xbf826e5d	-1.018993
30	0x3f21fdee	0.6327809
31	0x3f2cde44	0.6752665
32	0x3ee0e2f9	0.43923166
33	0xbe36838c	-0.17823619
34	0xbdea0cfe	-0.11428259
35	0x3d895a7f	0.06706714
36	0xbec44a47	-0.3833792
37	0x3d2dcba1	0.042430524
38	0xbe7c3abe	-0.24631783
39	0x3f014e5c	0.5051019
40	0x3fedb9b9	1.8572303
41	0x3f9bbdaf	1.2167262
42	0x3f8bf5ae	1.093435
43	0x3f992307	1.1963814
44	0xbec4cd1a	-0.3843773
45	0xbebb31bb	-0.3656138
46	0x3e97bbf6	0.2963559
47	0x3f7886bc	0.9708059
48	0x3f4bfdc7	0.7968411
49	0xbedc0c7a	-0.4297827
50	0xbf96518b	-1.1743635
51	0xbfc165db	-1.5109209
52	0x3e4d32b2	0.2003887
53	0xbf2aa8cc	-0.66663814
54	0xbf463e2c	-0.77438617
55	0xbf5219cd	-0.8207062
56	0x3f0dff5c	0.5546777
57	0x3e0492c7	0.12946616
58	0xbf06f5b5	-0.5271867
59	0xbf8b5365	-1.0884825
60	0xbfc93dde	-1.5722005
61	0xbf9de419	-1.2335235
62	0x3fa5290b	1.290315
63	0x3f6eb03c	0.9323766

model.lstm.weight_hh_l0_reverse f4 [32, 8]
0	0xbfc35fbc	-1.5263591
1	0xbed80605	-0.42192093
2	0xbf8c25bf	-1.0949019
3	0x3f81fb2f	1.015478
4	0x3f7c19e4	0.98477006
5	0xbeb1629c	-0.34645545
6	0xbf0ed0fa	-0.5578762
7	0xbf968031	-1.1757871
8	0x3f3ec644	0.7452128
9	0x3dff18a7	0.12455874
10	0x3e0d1917	0.13779102
11	0x3ea85224	0.32875168
12	0x3ccdcde1	0.025122585
13	0x3eb69009	0.35656765
14	0xbe0a2903	-0.13492207
15	0xbf680e9f	-0.9064731
16	0xbe28de68	-0.16491091
17	0xbee2cb78	-0.4429586
18	0xbfc97c71	-1.5741102
19	0x3f0af099	0.5427337
20	0x3fbe0c7f	1.4847564
21	0xbeb9a150	-0.36255884
22	0xbe66c204	-0.22534949
23	0xbef8451a	-0.4849022
24	0x3f82761c	1.0192294
25	0xbf35d754	-0.7103169
26	0xbc5d22a5	-0.013497029
27	0x3f0a4bda	0.5402199
28	0xbd8bffc4	-0.06835893
29	0xbf53e5e5	-0.82772666
30	0x3ec0742a	0.37588626
31	0xbed1e6e9	-0.40996483
32	0x3e07a1df	0.13245343
33	0x3f25a98a	0.6471182
34	0xbfd2ee37	-1.6478947
35	0x3f5e0920	0.86732674
36	0x3f904cb5	1.1273409
37	0x3f3bcf46	0.7336315
38	0xbf3d880b	-0.7403571
39	0x3e3bf49c	0.1835503
40	0xbedfd466	-0.43716735
41	0x3f002976	0.50063264
42	0xbf3e9529	-0.7444635
43	0x3eb37f60	0.35058117
44	0x3f8cae4a	1.0990689
45	0x3ebfc9ce	0.37458652
46	0xbecdac5e	-0.40170568
47	0xbda137a6	-0.07871942
48	0x3d091b0a	0.033473052
49	0xbf5f07bf	-0.87121195
50	0xbf0bf146	-0.5466503
51	0x3eb5bd5b	0.3549603
52	0x3f1e1923	0.61757106
53	0x3e075e52	0.13219574
54	0xbe4c1851	-0.19931151
55	0xbf1cf9cd	-0.61318666
56	0xbfd56c9a	-1.6673768
57	0xbe95cdfc	-0.29258716
58	0xbdd545d5	-0.1041371
59	0xbe111ad4	-0.1417039
60	0xbd927c3b	-0.07152601
61	0xbd60cffb	-0.054885846
62	0xbf3b06eb	-0.7305743
63	0x3e99221c	0.29908836
64	0xbe03bcc9	-0.12864985
65	0xbe06eab2	-0.13175467
66	0xbec76530	-0.38944387
67	0xbf064bd9	-0.52459484
68	0x3f35d287	0.71024364
69	0xbeb7fc30	-0.3593459
70	0x3e640734	0.22268373
71	0x3e748bd1	0.2388146
72	0x3f17f1ee	0.5935353
73	0x3ea99476	0.3312108
74	0x3e18fe89	0.14940847
75	0x3e58db06	0.21177301
76	0xbecab8f7	-0.39594242
77	0x3e95722d	0.29188672
78	0xbecda48a	-0.40164596
79	0x3ea07196	0.3133666
80	0xbd4bbb92	-0.049739428
81	0xbf8ddecb	-1.1083616
82	0x3e228930	0.15872645
83	0x3f08f63a	0.5350071
84	0x3fb0a7fb	1.3801264
85	0xbf122f44	-0.5710337
86	0x3e5a47e1	0.21316482
87	0xbf549c69	-0.8305116
88	0xbe8e42d6	-0.27785367
89	0xbf6080fa	-0.876968
90	0xbebd9442	-0.37027174
91	0x3e09995c	0.13437408
92	0xbe10adf0	-0.14128852
93	0xbf210cf0	-0.62910366
94	0x3f8f8ea7	1.1215409
95	0x3d3b4a26	0.04572501
96	0x3f1f1b1e	0.6215075
97	0xbe2b176c	-0.16708153
98	0x3eea78f1	0.45795396
99	0xbe8971eb	-0.26844725
100	0xbf398fd0	-0.72485065
101	0xbca698d2	-0.020336542
102	0xbeb53254	-0.3538996
103	0x3f8a5bcd	1.0809265
104	0x3ebfb259	0.37440756
105	0xbe169f7e	-0.14709279
106	0x3e3e62ff	0.18592452
107	0xbdafca0d	-0.0858346
108	0x3e6787b9	0.22610368
109	0xbf04a133	-0.5180847
110	0xbef84dbc	-0.48496807
111	0x3f144c13	0.5792858
112	0x3e07eb6e	0.13273403
113	0xbfa1e159	-1.2646896
114	0xbea5cdce	-0.3238358
115	0xbe415fac	-0.18884152
116	0x3f8989db	1.0745195
117	0xbe8a7486	-0.27042025
118	0xbe803ed6	-0.2504794
119	0xbe84b7a1	-0.25921348
120	0xbed3c1db	-0.41358837
121	0xbeeb75a9	-0.45988205
122	0xbf0a7de5	-0.5409835
123	0xbdbe0dc7	-0.092799716
124	0xbf12fa66	-0.5741333
125	0xbf867347	-1.050393
126	0xbe7aca23	-0.24491172
127	0x3f6fb4b4	0.93635106
128	0xbd762cf5	-0.060101468
129	0xbf01e7c9	-0.507443
130	0x3f5ce3e4	0.86285233
131	0xbe82aa60	-0.2552061
132	0xbfd069b2	-1.6282256
133	0xbfdc621f	-1.7217444
134	0x3d8c2986	0.068438575
135	0x3f2374c3	0.6385004
136	0x3fab0379	1.3360435
137	0xbe4b5b7c	-0.19859117
138	0xbf06e85c	-0.526983
139	0x3f2abe72	0.66696846
140	0xbf30f99d	-0.6913088
141	0x3c897414	0.016778983
142	0xbf8a3385	-1.0796973
143	0xbf28a5de	-0.65878093
144	0x3d85cf9c	0.06533739
145	0x3e984a3a	0.2974413
146	0x3f0a687e	0.5406569
147	0xbee7dd4c	-0.45286024
148	0xbf70753c	-0.93928885
149	0x3ee020ea	0.4377511
150	0x3f370364	0.7148955
151	0x3fd8a12d	1.6924187
152	0xbd80f652	-0.06296982
153	0xbf226fd5	-0.6345189
154	0xbd9f43fe	-0.0777664
155	0xbf1c74c7	-0.6111569
156	0xbf073fc1	-0.52831656
157	0xbeba38ca	-0.36371452
158	0x3f6d6aca	0.9274107
159	0xbf437645	-0.7635234
160	0x3f92e7f4	1.1477036
161	0x3e8f7688	0.2802012
162	0x3e915324	0.28383744
163	0x3f6dea5c	0.9293573
164	0x3e1baa3f	0.15201662
165	0x3cb0a442	0.0215627
166	0x3d9bc05b	0.07605048
167	0xc011f024	-2.280282
168	0x3fa19156	1.2622478
169	0x3dae316e	0.08505522
170	0x3da63d9e	0.08117221
171	0x3d97316e	0.07382475
172	0xbe9f1f65	-0.3107864
173	0xbcdcf5e1	-0.026972713
174	0xbf562507	-0.8365025
175	0xbf95d554	-1.1705728
176	0xbf28dc0c	-0.65960765
177	0x3f590126	0.8476738
178	0xbd5bc941	-0.053658728
179	0xbdbbcb28	-0.09169608
180	0xbf5addb4	-0.8549454
181	0x3eee62b7	0.46559688
182	0x3f289945	0.6585887
183	0x3f94e74c	1.1633086
184	0xc01179c5	-2.2730572
185	0x3f29d686	0.6634296
186	0xbf2821ee	-0.6567677
187	0xbe0ce0bf	-0.13757609
188	0x3f804d87	1.002366
189	0x3facf4b9	1.3512183
190	0xbea87e0a	-0.3290866
191	0x3fcf3269	1.6187259
192	0xbf8699e9	-1.051572
193	0xbe8c8290	-0.2744336
194	0xbf0fee31	-0.56222826
195	0x3f0245ed	0.5088795
196	0x3f300606	0.6875919
197	0x3db8bf54	0.09020868
198	0xbed99406	-0.42495745
199	0xbf512956	-0.817037
200	0x3efd8057	0.49511978
201	0x3ee60105	0.44922653
202	0x3e3baa7d	0.18326755
203	0x3f186df2	0.59542763
204	0x3e35ffa9	0.17773308
205	0x3f2bbc99	0.6708465
206	0xbf027072	-0.5095283
207	0xbf569c22	-0.8383199
208	0xbe187adc	-0.14890617
209	0xbdc83238	-0.097752035
210	0xbf4ef7cb	-0.8084685
211	0x3e6a4a58	0.22879922
212	0x40107b3c	2.2575216
213	0x3d0ceede	0.03440749
214	0xbf3edb80	-0.7455368
215	0xbefb0bec	-0.49032533
216	0x3f80ce75	1.0063006
217	0xbfb1a5b6	-1.3878696
218	0x3e4e843a	0.20167628
219	0x3f3c9bef	0.73675436
220	0xbe42ef43	-0.19036584
221	0xbf654eb0	-0.8957319
222	0x3f8ba4a0	1.0909615
223	0xbf21849e	-0.6309298
224	0xbf2993e8	-0.6624131
225	0x3f34d233	0.7063324
226	0xbf9e3a71	-1.2361585
227	0x3f7b3d4d	0.9814041
228	0x3f751570	0.95735836
229	0x3eb46949	0.35236576
230	0x3e3ff8c0	0.18747234
231	0xbf69aed9	-0.9128242
232	0xbe16c818	-0.14724767
233	0x3f47f4e5	0.78108054
234	0xbf26d489	-0.6516805
235	0x3f804f6c	1.0024238
236	0x3f88049e	1.0626409
237	0x3fa5a861	1.294201
238	0xbebceed5	-0.36900964
239	0xbee831a1	-0.45350364
240	0x3e52f03a	0.20599452
241	0xbf1ea22f	-0.6196622
242	0x3e58f379	0.21186627
243	0xbd90c767	-0.07069283
244	0xbf4b2720	-0.79356575
245	0xbf11b13d	-0.5691107
246	0x3e00cc60	0.12577963
247	0x3ea3458d	0.31889
248	0xbed69000	-0.41906738
249	0xbff04aa3	-1.8772777
250	0x3d9874a1	0.0744412
251	0xbeee8a55	-0.46589914
252	0xbf848809	-1.0354015
253	0xbf7f6784	-0.9976733
254	0x3e2efc39	0.17088403
255	0x3f96193c	1.1726451

model.lstm.bias_ih_l0_reverse f4 [32]
0	0x3e92d4bc	0.28677928
1	0xbd3ac2f8	-0.045596093
2	0xbcfb1568	-0.030649856
3	0x3dd3fc82	0.103508964
4	0x3ec3f112	0.3826986
5	0xbd38ba72	-0.045099683
6	0xbeb28afc	-0.34871662
7	0x3fbf293b	1.4934458
8	0x3da146af	0.0787481
9	0x3e8c45eb	0.27397093
10	0xbea0d374	-0.31411326
11	0xbe5e689f	-0.21719597
12	0xbdb3a9bb	-0.08772608
13	0x3ea69d9e	0.32542127
14	0x3eb03705	0.34416977
15	0x3f40ea4e	0.7535752
16	0x3f1b62d3	0.6069767
17	0x3ea9cd4d	0.33164445
18	0x3d23419a	0.039857484
19	0xbe0118da	-0.12607136
20	0xbf10229a	-0.563028
21	0x3e99354f	0.29923484
22	0xbea64ca3	-0.32480344
23	0xbf1b3fb1	-0.6064406
24	0x3f1e1d9a	0.6176392
25	0x3e40d8a5	0.18832643
26	0x3eb4e371	0.35329774
27	0xbe4350fe	-0.19073865
28	0x3ef89d65	0.48557582
29	0x3f1cbfe3	0.61230296
30	0x3e9d83dc	0.30764663
31	0x3fad9c4d	1.3563324

model.lstm.bias_hh_l0_reverse f4 [32]
0	0x3e44e1cd	0.19226761
1	0xbe5a8e87	-0.21343432
2	0x3d5ac422	0.053409703
3	0xbdafb1c6	-0.085788295
4	0x3e5760c1	0.21033002
5	0x3e42fe05	0.19042213
6	0xbe82e03e	-0.25561708
7	0x3f98dbd6	1.1942089
8	0x3e31d609	0.17366804
9	0x3dd80c86	0.10549264
10	0xbe8aadde	-0.27085775
11	0xbe51babf	-0.20481394
12	0x3d0be34c	0.034152314
13	0x3f16e717	0.58946365
14	0x3e8c2794	0.27373946
15	0x3effa4eb	0.4993051
16	0x3f21f21d	0.6326006
17	0xbe58fdc7	-0.21190558
18	0xbeaa43e3	-0.33254918
19	0xbe9445ad	-0.28959408
20	0xbe968f16	-0.2940604
21	0x3de511c3	0.111850284
22	0xbf3c1e97	-0.73484176
23	0xbefae053	-0.4899927
24	0x3f26405e	0.64941967
25	0xbcf294f3	-0.02961204
26	0x3e4eaee0	0.20183897
27	0xbeac6362	-0.33669573
28	0x3ed2b87d	0.41156378
29	0x3ea2877e	0.31743997
30	0x3e9b385a	0.3031643
31	0x3f744dfd	0.954315

model.linear1.weight f4 [1, 16]
0	0x3f307d41	0.6894112
1	0xbf353b98	-0.7079406
2	0xbf7378a5	-0.95105964
3	0x3f072d5d	0.52803594
4	0x3ed82a15	0.42219606
5	0xbd751dcb	-0.059842866
6	0xbf2779cb	-0.65420216
7	0xbf4c224a	-0.7973982
8	0x3f33b402	0.70196545
9	0xbdfb0218	-0.12256259
10	0x3f2ace3d	0.66720945
11	0xbdc5b896	-0.096543476
12	0xbfd6169e	-1.6725652
13	0xbe9e0611	-0.30864003
14	0xbd5672aa	-0.052355446
15	0x3f35292c	0.7076595

model.linear2.weight f4 [1, 10]
0	0xbefcd5d3	-0.49381885
1	0xbf1c35e5	-0.61019737
2	0xbf19aa2b	-0.6002528
3	0x3f3b4000	0.7314453
4	0x3ed02895	0.40655962
5	0x3f19a1e0	0.60012627
6	0xbf2cf9c4	-0.6756861
7	0x3eb8a6fd	0.36064902
8	0xbdda4b25	-0.10658864
9	0xbf363490	-0.71173954
