models/transformer/transformer.pt.ckpt (torch, 795951 bytes, 204 tensors)

encoder.weight f4 [32, 3]
0.08688272 -0.14100482 -0.17306882 -0.36924374 0.12981322 0.24460654 -0.13447477 0.43257597
-0.47754183 0.31415603 0.5122214 -0.28361452 -0.1172412 -0.24490198 0.020312114 0.20468993
0.26421613 -0.06654753 -0.3192435 0.27318722 -0.16076365 -0.436525 -0.5233645 0.04542262
-0.1786915 -0.4796071 0.015136049 -0.37308967 -0.18115069 -0.23465201 -0.35005617 0.27329206
-0.20133038 -0.53465444 -0.5115989 -0.1326088 -0.41902748 0.44022277 0.32889014 0.0093337335
-0.3058299 -0.4129386 0.08269438 0.36602888 -0.46366066 -0.28626254 0.27983835 0.27032045
-0.060662266 0.2384577 -0.08125211 -0.09484971 0.48060438 0.09891903 -0.17459625 0.06930567
-0.47412017 -0.1674142 0.022721972 -0.23347405 0.4927195 -0.5414349 0.31018296 0.24213012
-0.6087889 0.29179317 0.05366323 -0.04805869 -0.001132056 -0.47324473 0.4554546 0.21672717
0.08719945 -0.5181737 -0.41253516 -0.0060632876 0.4004405 -0.37038404 -0.16014943 0.5555263
-0.14419326 -0.27076498 -0.36233866 0.29332107 0.092859834 0.0792627 -0.24399683 -0.40562978
-0.10747406 0.4077506 0.37393746 -0.53382313 -0.26589632 0.5037478 -0.5320031 -0.24284516
00000000: 91ef b13d 9163 10be f438 31be 840d bdbe
00000010: c2ed 043e 237a 7a3e c1b3 09be 997a dd3e
00000020: 5d80 f4be 0fd9 a03e f120 033f ec35 91be
00000030: 271c f0bd 96c7 7abe 9765 a63c 3d9a 513e
00000040: 5647 873e 124a 88bd e273 a3be 32df 8b3e
00000050: 3a9f 24be 3480 dfbe 37fb 05bf 120d 3a3d
00000060: e8fa 36be 108f f5be 31fd 773c 9c05 bfbe
00000070: 917f 39be 9e48 70be 903a b3be f0ec 8b3e
00000080: 8d29 4ebe 1ddf 08bf 25f8 02bf 9aca 07be
00000090: c58a d6be e164 e13e 4a64 a83e 84ec 183c
000000a0: bd95 9cbe b06c d3be ac5b a93d 2368 bb3e
000000b0: ee64 edbe 0191 92be f946 8f3e 7167 8a3e
000000c0: ff78 78bd 412e 743e 8267 a6bd 9140 c2bd
000000d0: c711 f63e 0f96 ca3d 5cc9 32be 22f0 8d3d
000000e0: e1bf f2be a16e 2bbe 6e23 ba3c d213 6fbe
000000f0: bb45 fc3e 7a9b 0abf 4dd0 9e3e f5f0 773e
00000100: 97d9 1bbf ea65 953e facd 5b3d 30d9 44bd
00000110: 7f61 94ba 224d f2be 5831 e93e baed 5d3e
00000120: a095 b23d 08a7 04bf cf37 d3be 8bae c6bb
00000130: 8a06 cd3e faa2 bdbe 36fe 23be f936 0e3f
00000140: 66a7 13be b5a1 8abe 7484 b9be 2e2e 963e
00000150: 4c2d be3d 7c54 a23d 4eda 79be b5ae cfbe
00000160: 5c1b dcbd b0c4 d03e bb74 bf3e a2a8 08bf
00000170: 9023 88be 9ef5 003f 5b31 08bf 67ac 78be

encoder.bias f4 [32]
0.054265957 0.06980904 0.2714613 -0.16913167 -0.11911211 -0.28291947 -0.47397608 -0.17853175
0.13425598 0.37094912 -0.34435084 0.46012238 -0.2141409 -0.39817008 -0.08236514 -0.28864053
0.15475734 -0.47202677 0.19320762 0.38466933 -0.3659552 0.12105658 0.18457797 -0.00890304
0.45939472 -0.5463733 -0.18727438 -0.15116926 -0.47875684 -0.3906313 0.3503518 -0.18502815
00000000: fb45 5e3d 0bf8 8e3d fafc 8a3e da30 2dbe
00000010: 0df1 f3bd d2da 90be feac f2be 07d1 36be
00000020: 667a 093e 0bed bd3e c14e b0be 2995 eb3e
00000030: c147 5bbe f3dc cbbe 0eaf a8bd b1c8 93be
00000040: b578 1e3e 7ead f1be 38d8 453e 61f3 c43e
00000050: 7b5e bbbe 83ec f73d 0202 3d3e 0ede 11bc
00000060: c935 eb3e 1fdf 0bbf dbc4 3fbe 1dcc 1abe
00000070: 9e1f f5be d300 c8be 5061 b33e 0578 3dbe

transformer.encoder.layers.0.self_attn.in_proj_weight f4 [96, 32]
-0.16747242 0.2534512 -0.078866124 0.17027596 0.23209414 -0.020700749 -0.18202485 0.14667001
-0.10324959 0.16937502 0.06810551 0.16233005 0.11547369 0.089259155 -0.22393896 0.14799981
0.05972281 -0.03481491 -0.0020565118 0.15919833 -0.19371945 -0.12933168 0.18037295 0.077868
0.01236178 -0.00044619068 -0.2656235 0.22441702 -0.042270478 0.03605152 0.16334741 0.0034752279
-0.10353999 -0.0060298974 -0.11314543 -0.38995618 -0.049444668 -0.083880745 -0.15283515 0.051864807
-0.026627794 -0.013165007 0.005601828 -0.026445469 0.23715842 0.0022617294 -0.020466376 -0.14030866
0.13012822 0.24864037 0.0012982211 -0.122323245 0.052717067 -0.083083555 0.0054976693 -0.0040437775
-0.21481709 0.01721985 0.06640376 -0.12694755 0.07901048 0.14445347 0.24087685 -0.16212794
0.01741599 0.17317072 -0.050600123 0.32606968 0.063514255 0.1417857 -0.26709047 -0.14826846
0.050160114 -0.06138475 -0.21750146 0.07044074 0.076203905 0.021805942 -0.05794104 -0.0063450974
-0.019977162 -0.00016444249 0.035929725 -0.082163125 0.14242105 0.19653957 0.119444616 0.0879581
0.052323136 -0.17560396 0.013388472 0.19721559 -0.18061931 0.20814215 -0.059614312 0.21709554
-0.15416044 0.11099102 0.00092231773 0.4988568 0.0020022825 0.07113371 0.025718823 -0.1593793
0.18683474 0.08097311 0.09312348 0.13717034 -0.08502039 0.0076628453 -0.04828341 0.17166139
0.22959207 0.2504369 -0.044613052 -0.05402727 -0.08471761 0.24588814 0.13656546 0.20403151
0.15342313 0.1501161 -0.09256796 0.21418756 -0.09622265 0.31212795 -0.10764333 0.17569377
0.01628639 -0.17021376 0.021937028 -0.058846433 0.16983443 -0.086213686 -0.10576376 -0.00766664
-0.10457742 -0.22919852 -0.010211618 0.023170793 -0.09573236 -0.06181318 0.100385115 0.107106626
-0.23164399 -0.14478774 0.2558611 0.16180079 0.23069535 -0.0052203606 -0.0465519 0.13200344
-0.040568136 -0.20084625 0.06664465 -0.021356294 0.19879994 0.002789094 0.1346686 -0.06684346
0.23196684 -0.18774074 0.14681922 0.114985906 0.35069957 -0.2134201 0.25039566 0.2448287
0.36079654 0.0793926 0.09382002 0.20479241 -0.24808306 0.023241976 0.14831361 -0.014058519
0.052058943 -0.06716057 0.2948196 -0.25430757 0.06286154 -0.024052188 -0.2615018 -0.17276567
0.13021472 0.005090833 -0.34054872 0.17900948 -0.012553074 0.10013699 0.054586977 -0.08983195
-0.17203972 -0.10578891 -0.090223655 -0.1658824 -0.096129596 -0.16320238 0.25079846 0.12177679
0.32524648 0.11754358 -0.12154916 -0.084676936 -0.30207 -0.008688054 -0.22333322 -0.032235336
0.096460484 -0.1002659 0.042715672 -0.24337456 0.21206143 -0.10273595 -0.089678034 -0.06796805
0.12867625 0.090339646 -0.14375281 -0.09070155 0.14548753 0.103361435 0.22655931 -0.024263568
0.0037098862 0.19326483 0.24785765 0.20051594 0.08452272 0.15755524 0.080531284 -0.18086419
-0.39639348 -0.016245123 -0.25940302 0.009537177 0.32237467 -0.24840291 0.11770443 0.07427583
-0.054222237 0.04446398 -0.26635304 -0.06546161 -0.18249044 0.06720009 0.113829315 0.041740652
-0.025873113 0.1861867 0.22907946 -0.16132958 -0.043363366 -0.08701901 -0.12146336 -0.17907196
00000000: e47d 2bbe 5bc4 813e 9084 a1bd d25c 2e3e
00000010: 16aa 6d3e 9e94 a9bc b964 3abe aa30 163e
00000020: 8574 d3bd a570 2d3e e77a 8b3d d939 263e
00000030: 787d ec3d 81cd b63d 4150 65be 438d 173e
00000040: e89f 743d 149a 0ebd 8bc6 06bb e304 233e
00000050: 645e 46be 866f 04be b0b3 383e 4279 9f3d
00000060: 1089 4a3c b3ee e9b9 ceff 87be 93cd 653e
00000070: cf23 2dbd c2aa 133d 8b44 273e a6c0 633b
00000080: c60c d4bd 7296 c5bb cbb8 e7bd 56a8 c7be
00000090: 7e86 4abd abc9 abbd d180 1cbe 3170 543d
000000a0: 8822 dabc 0bb2 57bc 8a8f b73b 2ba4 d8bc
000000b0: a8d9 723e 8639 143b 1aa9 a7bc 13ad 0fbe
000000c0: 5540 053e 959b 7e3e 1229 aa3a 9c84 fabd
000000d0: daed 573d b627 aabd cb25 b43b aa81 84bb
000000e0: 03f9 5bbe a510 8d3c b2fe 873d 8afe 01be
000000f0: 3fd0 a13d 9ceb 133e 6ca8 763e de04 26be
00000100: faab 8e3c aa53 313e 1342 4fbd 9bf2 a63e
00000110: c313 823d 4530 113e 15c0 88be b0d3 17be
00000120: b174 4d3d 936e 7bbd b4b8 5ebe 3c43 903d
00000130: cb10 9c3d 60a2 b23c 9553 6dbd 89ea cfbb
00000140: 25a7 a3bc 326e 2cb9 0c2b 133d 2445 a8bd
00000150: d3d6 113e ab41 493e 619f f43d 6023 b43d
00000160: c950 563d 86d1 33be 525b 5b3c e2f2 493e
00000170: 45f4 38be 3723 553e 232e 74bd 4b4e 5e3e
00000180: 3cdc 1dbe 434f e33d b2c7 713a 296a ff3e
00000190: ba38 033b 8dae 913d 48b0 d23c 5434 23be
000001a0: 9b51 3f3e 3bd5 a53d 86b7 be3d 6276 0c3e
000001b0: 2c1f aebd 9b18 fb3b d3c4 45bd 01c8 2f3e
000001c0: 2f1a 6b3e 4439 803e 2dbc 36bd b34b 5dbd
000001d0: 6d80 adbd 1aca 7b3e d1d7 0b3e a3ed 503e
000001e0: f41a 1d3e 09b8 193e 4594 bdbd fc53 5b3e
000001f0: 6110 c5bd 3ccf 9f3e 1b74 dcbd 11e9 333e
00000200: 096b 853c 844c 2ebe 48b5 b33c f508 71bd
00000210: 14e9 2d3e cd90 b0bd ac9a d8bd 7038 fbbb
00000220: b02c d6bd 04b3 6abe a14e 27bc add0 bd3c
00000230: 540f c4bd d12f 7dbd b696 cd3d b85a db3d
00000240: 1534 6dbe 3d43 14be 3a00 833e 1baf 253e
00000250: 673b 6c3e 8f0f abbb 35ad 3ebd e92b 073e
00000260: c62a 26bd a4aa 4dbe fe7c 883d 65f3 aebc
00000270: 3692 4b3e 3cc9 363b 91e6 093e 39e5 88bd
00000280: b788 6d3e 1c3f 40be c757 163e bb7d eb3d
00000290: e58e b33e cc8a 5abe dc33 803e 60b4 7a3e
000002a0: 53ba b83e 9698 a23d b624 c03d 1ab5 513e
000002b0: 7c09 7ebe f565 be3c 86df 173e b455 66bc
000002c0: c23b 553d 7b8b 89bd 98f2 963e 9a34 82be
000002d0: 8dbd 803d 1809 c5bc 90e3 85be 7ce9 30be
000002e0: 0257 053e 01d1 a63b 675c aebe 434e 373e
000002f0: 69ab 4dbc 9f14 cd3d 9896 5f3d d0f9 b7bd
00000300: 2e2b 30be dba7 d8bd 2ec7 b8bd 13dd 29be
00000310: 98df c4bd 861e 27be a868 803e 1c66 f93d
00000320: b586 a63e b0ba f03d c4ee f8bd 1a6b adbd
00000330: eba8 9abe 5758 0ebc 77b1 64be 3309 04bd
00000340: 138d c53d 3558 cdbd a1f6 2e3d 2e37 79be
00000350: a226 593e 3a67 d2bd 1ea9 b7bd d532 8bbd
00000360: b5c3 033e fe03 b93d f033 13be bcc1 b9bd
00000370: affa 143e 29af d33d 2aff 673e 64c4 c6bc
00000380: 9021 733b 37e7 453e 65ce 7d3e 0d54 4d3e
00000390: 3f1a ad3d 2956 213e 96ed a43d 7634 39be
000003a0: 16f4 cabe 7e14 85bc 79d0 84be d241 1c3c
000003b0: 4b0e a53e 555d 7ebe 050f f13d ed1d 983d
000003c0: 2318 5ebd dd1f 363d 6d5f 88be bd10 86bd
000003d0: c6de 3abe 33a0 893d 581f e93d 3ff8 2a3d
000003e0: daf3 d3bc baa7 3e3e ce93 6a3e 9533 25be
000003f0: c99d 31bd 0637 b2bd c8c1 f8bd a45e 37be

transformer.encoder.layers.0.self_attn.in_proj_bias f4 [96]
0.05367024 0.041507315 0.052677065 0.10027817 -0.059986833 -0.08223689 -0.021392835 0.06797495
-0.024645843 -0.011573791 -0.010031168 -0.058606427 -0.0089767855 -0.04525359 -0.019506667 0.08968493
-0.09133313 -0.06948624 0.00063829345 -0.04751475 -0.046413958 0.042803194 -0.09024383 -0.045730688
-0.0056032366 0.07208109 -0.08228514 0.09003957 -0.054906193 -0.047489356 -0.04640416 0.062981986
4.012652e-05 1.3513423e-05 1.0099648e-05 5.160653e-05 3.0397468e-06 -1.0171384e-06 -8.018943e-06 2.0118196e-05
4.6489604e-05 2.975491e-05 1.614953e-05 2.506868e-05 -7.173792e-06 1.04686e-05 7.258236e-07 9.98999e-06
-0.00012240987 -2.178773e-05 2.1311143e-06 3.0062054e-05 5.428414e-06 -5.1151354e-05 8.002863e-05 1.1873066e-05
4.7059664e-05 4.3369033e-05 6.5790795e-05 -1.8883717e-05 -4.424823e-07 -0.00011031413 4.6742247e-05 8.204274e-05
-0.0048164227 -0.004668495 -0.016570339 -0.00324883 -0.0037841487 -0.02200687 0.00920905 0.010347692
0.0019432221 0.04305649 -0.010563398 -0.023178054 -0.0019432998 -0.029777728 -0.0426988 0.026460718
0.036279537 -0.010910621 0.021040453 -0.006113546 -0.008630236 -0.0008531159 -0.0024208184 0.011291874
0.0064743687 -0.013178032 -0.0024660549 0.02937746 0.021579728 0.011614988 0.011102383 -0.00477613
00000000: 53d5 5b3d 9303 2a3d e8c3 573d a45e cd3d
00000010: c1b4 75bd d16b a8bd 0740 afbc 7336 8b3d
00000020: 14e6 c9bc ff9f 3dbc c559 24bc 4b0d 70bd
00000030: 5e13 13bc d45b 39bd 72cc 9fbc bcac b73d
00000040: dd0c bbbd cd4e 8ebd 2653 273a d49e 42bd
00000050: 901c 3ebd 6752 2f3d c2d1 b8bd 1a50 3bbd
00000060: 5b9b b7bb 409f 933d 1d85 a8bd ab66 b83d
00000070: 51e5 60bd 3384 42bd 4a12 3ebd b3fc 803d
00000080: 864d 2838 b6b7 6237 a871 2937 1774 5838
00000090: 74fe 4b36 9c84 88b5 1989 06b7 7fc3 a837
000000a0: d5fd 4238 2f9a f937 da78 8737 954a d237
000000b0: 67b6 f0b6 4ba2 2f37 38d6 4235 ae9a 2737
000000c0: 265b 00b9 cbc4 b6b7 4404 0f36 c52d fc37
000000d0: b925 b636 598b 56b8 0bd5 a738 6e32 4737
000000e0: ee61 4538 25e7 3538 2af9 8938 7968 9eb7
000000f0: 4e8e edb4 7358 e7b8 1b0d 4438 5c0e ac38
00000100: 15d3 9dbb 2dfa 98bb 85be 87bc 53ea 54bb
00000110: 7bff 77bb c047 b4bc 8ee1 163c 5e89 293c
00000120: b7b3 fe3a 015c 303d 1a12 2dbc e7df bdbc
00000130: 52b6 feba 6cf0 f3bc f0e4 2ebd 26c4 d83c
00000140: da99 143d 76c2 32bc 075d ac3c 2454 c8bb
00000150: d565 0dbc a4a3 5fba 98a6 1ebb 8d01 393c
00000160: f126 d43b ace8 57bc 899d 21bb 00a9 f03c
00000170: f8c7 b03c ca4c 3e3c c5e6 353c 1581 9cbb

transformer.encoder.layers.0.self_attn.out_proj.weight f4 [32, 32]
0.00027976118 0.058468886 0.19059701 0.07324078 -0.135398 -0.25138357 -0.030967573 0.081872515
0.21415702 -0.25503513 0.2222194 -0.15392205 0.046529073 -0.12827754 0.1656587 -0.14157392
-0.14158429 -0.068812564 0.15031569 0.30907375 -0.21791045 -0.20065397 0.124058954 0.2548915
-0.3106247 -0.11349559 0.21214679 0.2603264 0.1271026 -0.25219035 0.1291228 -0.14035144
-0.06267317 -0.28965852 -0.20747353 -0.113772884 0.11155216 -0.0055959313 0.191594 0.18226193
-0.26398978 -0.26303768 0.15054026 0.008888551 -0.073671386 -0.17395082 -0.26050743 0.22211458
-0.19515468 -0.25785792 -0.257905 -0.27654618 -0.07223223 -0.06395974 -0.25973916 0.22854158
-0.11122486 -0.07876186 -0.19999701 -0.06829236 -0.0729895 0.29385436 0.01122914 0.2869407
0.21957828 0.29039878 -0.06507061 0.10389896 -0.26163286 -0.034581464 0.3196881 -0.016519254
0.17751274 0.04802856 0.21810637 -0.18938978 0.26286823 0.05598401 -0.11985058 0.20093326
-0.1995805 -0.053855542 -0.116368964 -0.044114333 0.24100551 -0.08189022 0.20735165 -0.071708195
-0.02752514 0.27787012 0.074273795 0.16135646 0.1980607 -0.27453318 0.14538027 -0.0029890186
0.23220253 0.27481335 -0.09639623 -0.22939278 0.012927116 0.03195795 0.15391953 -0.09345478
-0.02253774 0.18976219 0.11207345 -0.27665988 0.19211262 0.038309295 -0.17452957 0.1675222
0.25164407 -0.11871276 0.13651216 0.01617324 0.15651967 0.31405208 -0.28896964 -0.23225765
-0.24408473 -0.048798926 -0.0027341049 0.041103367 0.12347143 -0.12755199 0.15540674 0.17002319
-0.045181833 -0.02698245 0.2551549 0.051138982 0.06374528 0.29307726 -0.13354273 0.24291064
-0.31739277 -0.07818858 0.24555722 -0.007644897 0.2640083 0.24617085 0.19929816 0.17471428
0.30866063 0.06997417 -0.071663685 0.2515488 0.0032105953 0.010460828 -0.2078406 0.106028244
-0.20098338 0.19838725 0.010617546 0.25632626 -0.21958473 0.003582087 -0.22696686 -0.2124955
0.19180985 -0.040314425 0.04481353 0.28272548 0.07712954 0.11841917 -0.055868875 -0.24220368
-0.06253985 -0.12288201 -0.09378491 -0.24269082 -0.26104084 -0.22073291 -0.29571354 0.1755898
-0.08109517 -0.19743587 -0.21548738 -0.23115271 0.07458542 -0.26966652 0.17920645 0.29901803
-0.07627773 0.101254866 -0.24738897 -0.175883 -0.14607298 0.15273772 -0.09264429 -0.15143915
0.20086561 0.22869898 -0.13276644 -0.19333136 0.15155016 -0.0072440524 0.03929036 -0.2703871
-0.1000602 -0.0946157 0.12447851 -0.0017627577 0.032991078 -0.04081713 -0.05251633 -0.26344424
0.25671005 -0.28162497 0.07836105 -0.1288316 -0.16521102 0.06190215 -0.04547794 -0.12536384
-0.3670902 -0.13031739 0.24821068 0.13718182 -0.032361925 -0.026093554 -0.14369538 -0.21700639
0.14969285 0.22982864 0.09657564 0.15066038 -0.11703077 -0.05535016 0.26359418 -0.1994444
0.091500565 -0.09568048 -0.07063208 -0.08292705 0.016098125 -0.21229121 0.13816091 0.16322751
0.03157779 0.3035755 0.014557767 0.054413896 -0.07162613 0.07464423 -0.09427046 0.012721921
0.17437129 -0.009975992 0.15176971 -0.0067403875 -0.12584947 0.08903793 0.2624467 -0.07531771
00000000: e9ac 9239 127d 6f3d dd2b 433e 43ff 953d
00000010: c6a5 0abe 59b5 80be b5af fdbc c7ac a73d
00000020: fa4b 5b3e f793 82be 7b8d 633e be9d 1dbe
00000030: 4595 3e3d 305b 03be 6fa2 293e c1f8 10be
00000040: 79fb 10be 9aed 8cbd 5bec 193e ea3e 9e3e
00000050: eb23 5fbe 3c78 4dbe 9f12 fe3d 2481 823e
00000060: 330a 9fbe 6070 e8bd 023d 593e 8049 853e
00000070: 2f27 023e 181f 81be c438 043e 4ab8 0fbe
00000080: ca5a 80bd 1f4e 94be f173 54be c201 e9bd
00000090: 7575 e43d 135e b7bb 3831 443e dfa2 3a3e
000000a0: ab29 87be e0ac 86be 3a27 1a3e 49a1 113c
000000b0: 06e1 96bd 2a20 32be 3b61 85be 0172 633e
000000c0: a1d6 47be f405 84be 200c 84be 7697 8dbe
000000d0: 7eee 93bd 53fd 82bd 88fc 84be ce06 6a3e
000000e0: dcc9 e3bd e64d a1bd 04cc 4cbe dddc 8bbd
000000f0: 857b 95bd 1474 963e 6dfa 373c e4e9 923e
00000100: 21d9 603e 26af 943e bd43 85bd fac8 d43d
00000110: bef4 85be 4ba5 0dbd 29ae a33e 6353 87bc
00000120: e6c5 353e 98b9 443d 4757 5f3e 65ef 41be
00000130: aa96 863e 7d4f 653d 3974 f5bd 73c1 4d3e
00000140: d55e 4cbe a197 5cbd da52 eebd 3bb1 34bd
00000150: 26ca 763e 0fb6 a7bd fe53 543e bfdb 92bd
00000160: 677c e1bc fe44 8e3e dc1c 983d a13a 253e
00000170: 6dd0 4a3e 9d8f 8cbe 91de 143e 69e3 43bb
00000180: 80c6 6d3e 56b4 8c3e 636b c5bd f1e5 6abe
00000190: 41cc 533c 57e6 023d 159d 1d3e 3865 bfbd
000001a0: 11a1 b8bc 0551 423e c486 e53d 5da6 8dbe
000001b0: 2cb9 443e 35ea 1c3d e1b7 32be f18a 2b3e
000001c0: 7ed7 803e ad1f f3bd d8c9 0b3e be7d 843c
000001d0: b146 203e 6fcb a03e d4f3 93be f3d4 6dbe
000001e0: 59f1 79be 62e1 47bd ab2e 33bb 015c 283d
000001f0: 97de fc3d fd9c 02be f222 1f3e 8f1a 2e3e
00000200: 9610 39bd 4d0a ddbc aaa3 823e 1c77 513d
00000210: e38c 823d 390e 963e 6dbf 08be 91bd 783e
00000220: 4e81 a2be 5621 a0bd 5a73 7b3e 0b82 fabb
00000230: 192c 873e 3614 7c3e d114 4c3e 4de8 323e
00000240: c408 9e3e 9e4e 8f3d 69c4 92bd 01cb 803e
00000250: da68 523b e563 2b3c 2bd4 54be 5625 d93d
00000260: 96ce 4dbe 0726 4b3e 37f5 2d3c 323d 833e
00000270: d2da 60be 73c1 6a3b 006a 68be 6c98 59be
00000280: cd69 443e bd20 25bd 648e 373d 65c1 903e
00000290: 18f6 9d3d c085 f23d c3d6 64bd 3e04 78be
000002a0: e514 80bd 90a9 fbbd 4e12 c0bd f183 78be
000002b0: 25a7 85be cf07 62be c467 97be d0cd 333e
000002c0: 3915 a6bd a12c 4abe b9a8 5cbe 4cb3 6cbe
000002d0: 3ec0 983d bb11 8abe e581 373e e418 993e
000002e0: 8037 9cbd b65e cf3d 8953 7dbe ac1a 34be
000002f0: 2894 15be 4767 1c3e 4abc bdbd dd12 1bbe
00000300: b7af 4d3e 1130 6a3e edf3 07be a8f8 45be
00000310: f72f 1b3e 845f edbb eeee 203d 2e70 8abe
00000320: 5dec ccbd e0c5 c1bd 97ee fe3d 550c e7ba
00000330: a721 073d dd2f 27bd 5d1b 57bd 2ae2 86be
00000340: 806f 833e 2631 90be c27b a03d 6eec 03be
00000350: 142d 29be 1c8d 7d3d 1447 3abd 615f 00be
00000360: 3ff3 bbbe ec71 05be f12a 7e3e 6479 0c3e
00000370: f08d 04bd 26c2 d5bc e224 13be ec36 5ebe
00000380: 1549 193e 3358 6b3e 73c9 c53d b746 1a3e
00000390: d4ad efbd d9b6 62bd d1f5 863e 273b 4cbe
000003a0: a664 bb3d 21f4 c3bd 8da7 90bd a8d5 a9bd
000003b0: 37e0 833c de62 59be 0e7a 0d3e 1d25 273e
000003c0: b657 013d 3f6e 9b3e b383 6e3c 1be1 5e3d
000003d0: b8b0 92bd 13df 983d df10 c1bd 9b6f 503c
000003e0: 638e 323e 5872 23bc 8569 1b3e 78de dcbb
000003f0: afde 00be 8559 b63d 6a5f 863e 2c40 9abd

transformer.encoder.layers.0.self_attn.out_proj.bias f4 [32]
-0.011016001 0.0057856725 0.008288028 0.019751202 -0.018758293 -0.019046178 0.017602032 -0.01696975
0.032436874 0.010660618 0.036672626 0.0057167546 0.0031501185 -0.008698592 0.014368332 -0.008849309
-0.0037949637 -0.031368684 -0.008500936 0.009636846 -0.04684883 0.0048549995 -0.020767242 -0.01569067
0.004010505 0.01290371 -0.027081272 -0.0062116305 -0.0049548275 0.013291187 0.013145921 0.002805722
00000000: 757c 34bc bd95 bd3b 82ca 073c 46cd a13c
00000010: feaa 99bc bb06 9cbc 2332 903c 2504 8bbc
00000020: 87dc 043d dfa9 2e3c 0936 163d 9d53 bb3b
00000030: 3872 4e3b 8a84 0ebc 2769 6b3c b1fc 10bc
00000040: edb4 78bb 737c 00bd 8347 0bbc dde3 1d3c
00000050: 8fe4 3fbd b016 9f3b 1020 aabc b889 80bc
00000060: 8e6a 833b 156a 533c 8bd9 ddbc ef8a cbbb
00000070: 1b5c a2bb 47c3 593c fd61 573c 34e0 373b

transformer.encoder.layers.0.linear1.weight f4 [128, 32]
0.29638582 -0.08843194 0.11630688 0.11396733 0.11010115 -0.08811454 0.073121965 -0.09555625
0.0719089 0.03918407 0.075105056 -0.07291495 -0.20957865 -0.04454953 -0.07234481 0.18393408
-0.19525565 -0.027172683 0.1689462 0.0536817 0.16443318 -0.12807788 0.087482534 0.018759709
0.10731168 -0.015015189 -0.109409496 -0.08967879 0.043151863 0.049830705 0.020552823 -0.08679412
0.25306937 0.16874805 0.060156964 0.11006897 -0.030272296 0.18194886 0.0908854 -0.055725973
-0.03327109 0.121031605 -0.09729525 0.16621856 -0.09321838 -0.063148595 0.11426879 -0.098624736
-0.2274855 0.14846312 0.23360321 0.06695178 0.20680831 -0.08219275 -0.04303546 0.042774167
0.12484118 0.12734483 -0.13306512 -0.18874024 -0.0635395 0.07441006 0.07366596 0.11251211
-0.10565803 0.015960675 0.018552717 0.048581176 -0.15658009 0.006342939 -0.057662785 -0.06988569
-0.115230724 -0.20299806 -0.096332155 -0.19289741 -0.09076943 0.21322942 -0.028890051 0.13439976
-0.1003204 0.063645855 -0.07487451 0.09402456 -0.06586934 0.086570315 0.08164466 -0.185611
-0.109221436 0.072481714 -0.20835322 -0.015138456 0.2074346 -0.03251774 -0.021282779 -0.10267316
-0.14494525 0.112860315 0.032041732 -0.09589337 0.0491278 -0.18256037 0.1588274 -0.017561495
-0.124482825 -0.11869618 -0.03969087 0.020983128 -0.08642741 0.18112803 0.043201424 0.045217767
0.12078886 -0.18282665 0.18216568 0.02135596 -0.10895101 -0.020313036 -0.015017213 0.1342482
-5.7828867e-05 0.113787554 -0.0748482 0.13763961 0.052192405 0.035111412 0.17960112 0.03826648
-0.15225418 -0.27822855 -0.11496141 -0.13432108 0.1641605 0.06193282 -0.11297885 0.07760805
-0.1007954 0.068128385 0.112339206 0.04373044 -0.103411905 0.08938098 0.2360525 -0.05856324
0.07226618 0.077580854 -0.11784155 -0.06469626 -0.07993302 -0.07813409 0.14402324 0.06898524
-0.18103543 -0.18703409 0.21300118 -0.0022452965 0.0022428522 0.059307292 -0.02650198 0.17432845
0.13526961 0.023116272 0.19110109 0.079947665 0.048783474 0.14045808 -0.17101434 -0.06694015
-0.18699573 -0.14035794 -0.04008834 0.0029452126 -0.027391482 -0.1574945 0.077786975 -0.22589193
0.021201303 -0.038525503 -0.09399123 0.062834255 -0.046773523 0.011531219 -0.0064351577 -0.014844107
0.05411494 0.0030092418 -0.122685805 0.11100646 -0.10025554 -0.03616611 -0.07693223 -0.06420629
-0.04730955 0.13301477 0.14442155 -0.2321212 0.07584163 -0.08192569 0.19792655 0.16784717
-0.09480221 -0.1312651 0.038271565 -0.15877044 -0.023140201 -0.040134456 0.30865347 0.17292854
-0.0720607 0.07811958 -0.05441634 0.084801406 -0.04001033 -0.10510545 -0.02182987 0.09770579
-0.1892179 -0.06556218 0.36802992 -0.19980042 0.061755877 -0.20487194 -0.0077130673 0.072367184
0.2963438 -0.014077323 -0.46803105 0.19741431 -0.0053271465 -0.17004898 0.16720045 0.02782878
0.10199681 -0.09721083 0.09237171 -0.2724847 -0.0063862144 0.081868775 -0.060272142 -0.034774695
0.18985343 0.15940358 0.083712526 0.05302763 0.07339988 -0.1353269 0.14253172 0.14277765
-0.062503055 0.075917795 0.2692102 0.034781996 -0.13783729 -0.16579612 0.03225627 -0.026470589
00000000: e2bf 973e ce1b b5bd 4d32 ee3d b467 e93d
00000010: b67c e13d 6575 b4bd f8c0 953d ffb2 c3bd
00000020: f944 933d 7a7f 203d aed0 993d 6f54 95bd
00000030: c99b 56be 9179 36bd 8429 94bd 3759 3c3e
00000040: 19f1 47be 3f99 debc 3c00 2d3e 58e1 5b3d
00000050: 2c61 283e d926 03be 0b2a b33d f6ad 993c
00000060: 3ac6 db3d 4402 76bc 1612 e0bd 83a9 b7bd
00000070: 02c0 303d 481b 4c3d 655e a83c 1ec1 b1bd
00000080: 4f92 813e 4acc 2c3e 2667 763d d76b e13d
00000090: 9bfd f7bc cd50 3a3e 2022 ba3d eb40 64bd
000000a0: 4447 08bd 6bdf f73d bb42 c7bd 3335 2a3e
000000b0: 47e9 bebd 0d54 81bd c105 ea3d c4fb c9bd
000000c0: f5f1 68be b706 183e ae35 6f3e 041e 893d
000000d0: 8fc5 533e ac54 a8bd f345 30bd f733 2f3d
000000e0: bcac ff3d af66 023e 3942 08be 1f45 41be
000000f0: ff20 82bd 4d64 983d 2ede 963d c06c e63d
00000100: 3d63 d8bd f6bf 823c defb 973c 0efd 463d
00000110: 8856 20be 6ed8 cf3b d02f 6cbd 3b20 8fbd
00000120: 16fe ebbd b9de 4fbe cb49 c5bd e686 45be
00000130: 53e5 b9bd d058 5a3e d4aa ecbc 17a0 093e
00000140: c874 cdbd c258 823d cf57 99bd f38f c03d
00000150: 81e6 86bd c74b b13d 5135 a73d cf10 3ebe
00000160: 7daf dfbd 4b71 943d 8c5a 55be 4907 78bc
00000170: bc69 543e 5231 05bd 3959 aebc 4e46 d2bd
00000180: 876c 14be 4f23 e73d 313e 033d be63 c4bd
00000190: 3b3a 493d 1bf1 3abe a6a3 223e 20dd 8fbc
000001a0: daf0 febd fc16 f3bd e592 22bd cfe4 ab3c
000001b0: db00 b1bd a079 393e faf3 303d 4436 393d
000001c0: 2660 f73d e936 3bbe a489 3a3e b2f2 ae3c
000001d0: b521 dfbd 8667 a6bc c20a 76bc 5c78 093e
000001e0: 468d 72b8 7309 e93d 034a 99bd 66f1 0c3e
000001f0: b4c7 553d fcd0 0f3d 5be9 373e 50bd 1c3d
00000200: 85e8 1bbe f973 8ebe e370 ebbd 778b 09be
00000210: b119 283e 45ad 7d3d 7561 e7bd f8f0 9e3d
00000220: d26d cebd e586 8b3d 1912 e63d b11e 333d
00000230: 9fc9 d3bd 600d b73d bfb7 713e 02e0 6fbd
00000240: 4a00 943d b6e2 9e3d e956 f1bd 797f 84bd
00000250: ecb3 a3bd c404 a0bd d47a 133e 2248 8d3d
00000260: 5a61 39be dd85 3fbe fb1c 5a3e d325 13bb
00000270: d1fc 123b 34ec 723d ae1a d9bc 2883 323e
00000280: 1e84 0a3e 565e bd3c 01b0 433e 9abb a33d
00000290: 2ed1 473d 3ed4 0f3e 621e 2fbe eb17 89bd
000002a0: cf7b 3fbe feb9 0fbe ac33 24bd 7804 413b
000002b0: 1a64 e0bc 3d46 21be c74e 9f3d 3750 67be
000002c0: 5bae ad3c ebcc 1dbd 797e c0bd 3faf 803d
000002d0: 9895 3fbd 70ed 3c3c 04de d2bb b334 73bc
000002e0: a1a7 5d3d b336 453b b242 fbbd 5b57 e33d
000002f0: c752 cdbd ea22 14bd a58e 9dbd 967e 83bd
00000300: a9c7 41bd 0635 083e 3ee3 133e 2eb1 6dbe
00000310: db52 9b3d a8c8 a7bd 42ad 4a3e 21e0 2b3e
00000320: a927 c2bd 5c6a 06be a5c2 1c3d b894 22be
00000330: 8590 bdbc 0764 24bd d407 9e3e 2e14 313e
00000340: 8f94 93bd 29fd 9f3d abe3 5ebd 5cac ad3d
00000350: dfe1 23bd 8741 d7bd 8ed4 b2bc f919 c83d
00000360: 56c2 41be 7745 86bd 6b6e bc3e 7b98 4cbe
00000370: bbf3 7c3d f3c9 51be e6bd fcbb 3f35 943d
00000380: 60ba 973e 92a4 66bc c4a1 efbe fa26 4a3e
00000390: 588f aebb 5221 2ebe 9836 2b3e 2ef9 e33c
000003a0: b4e3 d03d 7916 c7bd 612d bd3d 1d83 8bbe
000003b0: 7343 d1bb d1aa a73d ecdf 76bd e96f 0ebd
000003c0: f068 423e b13a 233e 7971 ab3d 8033 593d
000003d0: ad52 963d 2393 0abe d6f3 113e 4e34 123e
000003e0: 9a01 80bd ca7a 9b3d ebd5 893e 9177 0e3d
000003f0: 3825 0dbe 75c6 29be 271f 043d d9d8 d8bc

transformer.encoder.layers.0.linear1.bias f4 [128]
0.037562657 -0.03460886 0.10186298 0.011026975 -0.113323614 -0.03770849 0.07361683 -0.17119664
0.08903893 -0.027321568 -0.066007964 -0.06902316 0.14641069 0.0038061047 0.15089607 -0.0014105922
-0.12727195 0.073953465 0.13427706 -0.11401029 0.13614099 0.025321377 -0.02161781 0.15271774
0.039384678 0.12181076 -0.01276508 -0.014495595 0.04079064 0.05138376 0.14513507 0.14469668
0.1826202 -0.16553237 0.06558307 0.026944969 0.0816489 -0.09175898 0.072596 0.00014947461
-0.053840157 0.007094256 -0.12386668 -0.15132637 -0.08834098 -0.09351648 -0.13432524 -0.07261419
0.16622019 -0.013766988 0.0845588 -0.1014686 0.03642128 0.054751996 -0.08011001 0.0837473
0.03038742 0.18412074 -0.046894327 0.060751576 -0.16894686 -0.110641114 -0.085155725 -0.19995163
-0.062274765 0.0106794685 -0.13784844 -0.14026605 -0.14533788 -0.08000715 -0.031245595 0.014601638
0.13386631 -0.071792185 -0.07769832 -0.14356704 0.13308918 0.08925981 0.16453823 0.11869376
-0.06359448 0.07922206 0.06261083 0.048928298 0.18875432 0.0055944193 -0.19558892 0.0498554
0.016320413 0.1469561 -0.019056275 -0.14007537 -0.12487992 0.07905775 -0.16159293 -0.039311126
-0.013988362 -0.103144564 -0.03481827 0.010585068 0.044173148 0.15539409 0.12232962 -0.027383719
-0.011914805 -0.18213329 -0.052902937 0.12797068 -0.17013165 0.17755887 0.114627324 0.03419336
-0.080885895 -0.16427186 0.16624379 0.034151547 0.11778218 -0.16903336 -0.14287351 -0.047619343
0.054311946 0.013389562 0.009048875 0.11670086 0.026746329 0.066563725 -0.16418049 -0.071326666
00000000: 4ddb 193d 05c2 0dbd 8a9d d03d 7caa 343c
00000010: 3616 e8bd 3874 1abd 6cc4 963d 2c4e 2fbe
00000020: 0b5a b63d 7bd1 dfbc 2f2f 87bd 045c 8dbd
00000030: afec 153e d76f 793b 8084 1a3e 9fe3 b8ba
00000040: 9453 02be ea74 973d ed7f 093e 3a7e e9bd
00000050: 8b68 0b3e c76e cf3c d517 b1bc 0a62 1c3e
00000060: d451 213d eb77 f93d a024 51bc ef7e 6dbc
00000070: 1614 273d c777 523d 4a9e 143e 5e2b 143e
00000080: ca00 3b3e 5181 29be 6b50 863d b2bb dc3c
00000090: 8a37 a73d 22ec bbbd 36ad 943d 49bc 1c39
000000a0: 7f87 5cbd ef76 e83b d0ad fdbd 4df5 1abe
000000b0: 1eec b4bd 9185 bfbd 8e8c 09be c0b6 94bd
000000c0: a035 2a3e ef8e 61bc 2a2d ad3d c5ce cfbd
000000d0: 7b2e 153d a143 603d b810 a4bd b483 ab3d
000000e0: 0aef f83c 268a 3c3e 4414 40bd a5d6 783d
000000f0: 6800 2dbe cf97 e2bd 2066 aebd 1fc0 4cbe
00000100: d313 7fbd f0f8 2e3c 2428 0dbe e7a1 0fbe
00000110: 74d3 14be cada a3bd c3f6 ffbc b53b 6f3c
00000120: 4014 093e c807 93bd 4c20 9fbd 3d03 13be
00000130: 8848 083e d9cd b63d b67c 283e b715 f33d
00000140: d33d 82bd 2d3f a23d 1b3a 803d 0a69 483d
00000150: d048 413e 6451 b73b 7648 48be 2d35 4c3d
00000160: 63b2 853c a97b 163e e81b 9cbc eb6f 0fbe
00000170: 0bc1 ffbd 08e9 a13d 9e78 25be b404 21bd
00000180: 712f 65bc 753d d3bd 9a9d 0ebd fe6c 2d3c
00000190: e7ee 343d a11f 1f3e f487 fa3d d253 e0bc
000001a0: 5036 43bc 2681 3abe c0b0 58bd bf0a 033e
000001b0: fe36 2ebe fed1 353e bbc1 ea3d 560e 0c3d
000001c0: 81a7 a5bd e236 28be d03b 2a3e 7ee2 0b3d
000001d0: c937 f13d 1517 2dbe 6f4d 12be 800c 43bd
000001e0: 3476 5e3d e55f 5b3c bc41 143c dc00 ef3d
000001f0: 1e1b db3c 9052 883d ee1e 28be b713 92bd

transformer.encoder.layers.0.linear2.weight f4 [32, 128]
-0.21923488 0.019271636 0.11235812 0.10256586 0.1423103 0.01471561 -0.12250437 0.15882953
-0.22805794 0.12812029 -0.027931264 0.1339153 -0.0053972136 0.003156288 -0.10980661 0.13177668
0.16163781 0.05453755 -0.2056625 0.106692694 -0.034508377 0.16790858 -0.16475312 -0.15963107
-0.1734392 -0.14351013 0.07882384 0.15809637 -0.1768444 -0.10709393 -0.1940489 0.056187056
0.10543716 0.12402951 0.06762959 0.13007957 0.18286906 0.009600275 -0.030497735 0.08343581
0.13712831 -0.03280643 0.29205966 -0.032607093 -0.07865643 0.112515025 -0.13482714 -0.15677181
0.050825316 -0.116462335 0.14610584 0.14528245 0.13717288 -0.114567734 0.12741613 -0.056533005
0.044653542 -0.17026263 -0.17981672 0.12427116 0.058243893 -0.17891133 -0.17841494 0.22107553
0.15964665 -0.113507904 -0.1252658 0.046311125 -0.10782453 -0.21797962 -0.1330673 0.021306518
0.26811513 -0.07886413 0.12552425 -0.15948486 -0.032617114 0.16674711 -0.020862723 0.02978618
0.09523715 0.014108487 0.18024749 -0.030894699 -0.15655728 -0.01302233 0.17014576 0.14135721
-0.014799955 -0.12296812 -0.008976369 0.15327471 0.0040848367 -0.037955508 -0.15559869 -0.06716043
-0.1916248 0.03870909 -0.021825122 -0.1440213 0.075741366 -0.17093834 -0.11687401 0.10085169
0.18288521 -0.13889107 0.28686774 -0.10693833 -0.02755082 0.027703721 0.002620662 0.16824497
0.054810166 0.14915621 0.08054051 -0.054292355 -0.12253451 -0.13569519 0.121576846 0.18158172
0.08749489 0.1596845 -0.23437104 -0.05765553 -0.119911164 -0.19755745 -0.106133424 0.029291648
0.10494281 0.12890574 0.056416217 0.070804976 0.057573885 0.15614907 0.18259133 -0.43337315
0.19352067 -0.100532055 0.0010168497 -0.11704563 0.16351564 -0.22179681 -0.1592481 -0.06427842
0.015924023 0.040003166 0.06445204 -0.10852397 -0.1549449 -0.045934103 0.0036352128 -0.0155881755
-0.022757495 0.14521743 -0.00060673815 -0.19222315 -0.098816745 0.06498459 0.0801474 0.04679037
-0.14803286 0.15809344 -0.002131133 -0.016211255 -0.085313156 -0.1142763 -0.1349258 0.1701065
-0.0046457546 0.16584052 -0.22625363 0.029286256 0.111143135 -0.043842465 0.12363827 -0.13423508
0.0649774 -0.08703932 -0.089817636 -0.01830727 0.022156244 -0.07681688 -0.2524704 0.053251814
0.08182895 -0.12357285 -0.04513691 0.15906252 -0.27461818 -0.10435299 0.17336081 -0.109039634
0.20084108 -0.15370266 0.07434389 -0.021160342 -0.035988793 -0.121302895 -0.16063708 -0.19010147
-0.02271977 0.028762896 0.056277495 -0.019256994 0.14956357 -0.008227749 -0.15863192 -0.21687189
-0.29320306 -0.040541813 -0.04696667 0.04910354 0.054614805 -0.12116963 0.06012497 -0.017072776
-0.051223453 -0.111369416 -0.005555874 0.00064174796 0.20402612 0.18277451 -0.0015294444 0.058892965
0.05794977 -0.014358097 0.04911302 0.12670214 0.1733517 -0.12430038 -0.13321474 -0.05796316
-0.019464066 0.04879493 -0.24118459 0.059316687 0.11092177 -0.13807382 -0.044855602 -0.1985034
0.033734865 0.012287838 0.052236117 -0.06060576 0.09407738 -0.010992785 -0.0800851 -0.29006916
0.14047831 0.09319074 0.07200144 -0.034802683 0.086946875 -0.20187165 0.044001292 0.18433489
00000000: 1c7f 60be 8ddf 9d3c 041c e63d 0d0e d23d
00000010: cbb9 113e be19 713c 92e3 fabd 35a4 223e
00000020: 0588 69be f731 033e 1bd0 e4bc 1821 093e
00000030: 1cdb b0bb bad9 4e3b 4ae2 e0bd 77f0 063e
00000040: 6284 253e c462 5f3d 3199 52be b381 da3d
00000050: a858 0dbd 3af0 2b3e 0bb5 28be 5476 23be
00000060: 0c9a 31be 52f4 12be 656e a13d 04e4 213e
00000070: b316 35be 1054 dbbd c1b4 46be 6624 663d
00000080: 70ef d73d 2f03 fe3d 6281 8a3d 9433 053e
00000090: 0742 3b3e 794a 1d3c 63d6 f9bc 65e0 aa3d
000000a0: 5d6b 0c3e 0960 06bd d888 953e 048f 05bd
000000b0: 9f16 a1bd 476e e63d 2010 0abe ca88 20be
000000c0: 352e 503d ce83 eebd c59c 153e ecc4 143e
000000d0: 0c77 0c3e 7da2 eabd 6079 023e 278f 67bd
000000e0: a2e6 363d 5459 2ebe e021 38be e181 fe3d
000000f0: 2691 6e3d 8834 37be 68b2 36be a061 623e
00000100: 697a 233e d576 e8bd ae45 00be bcb0 3d3d
00000110: 1bd3 dcbd 0d36 5fbe cb42 08be 028b ae3c
00000120: 6346 893e 8483 a1bd 6e89 003e 0050 23be
00000130: 8699 05bd c1bf 2a3e 4de8 aabc 2602 f43c
00000140: b20b c33d 4927 673c cc92 383e e116 fdbc
00000150: 8d50 20be 9c5b 55bc b13a 2e3e f2bf 103e
00000160: 837b 72bc b6d6 fbbd 9f11 13bc 0cf4 1c3e
00000170: 18da 853b 3c77 1bbd 4355 1fbe 688b 89bd
00000180: 4b39 44be 6c8d 1e3d 99ca b2bc 527a 13be
00000190: 4a1e 9b3d 760a 2fbe a45b efbd 558b ce3d
000001a0: 4346 3b3e 7639 0ebe 54e0 923e 7c02 dbbd
000001b0: 42b2 e1bc eaf2 e23c 6abf 2b3b 6948 2c3e
000001c0: a080 603d 68bc 183e 6cf2 a43d a961 5ebd
000001d0: 60f3 fabd aef3 0abe 48fd f83d 8ff0 393e
000001e0: 8530 b33d 5584 233e f6fe 6fbe 3428 6cbd
000001f0: fc93 f5bd 804c 4abe 7b5c d9bd 0af5 ef3c
00000200: 42ec d63d deff 033e b114 673d 3302 913d
00000210: 98d2 6b3d 8be5 1f3e 39f9 3a3e 16e3 ddbe
00000220: 482a 463e c0e3 cdbd d047 853a 9fb5 efbd
00000230: a570 273e b41e 63be ef11 23be 67a4 83bd
00000240: 1973 823c 5cda 233d 6eff 833d d141 debd
00000250: e0a9 1ebe 6625 3cbd c03c 6e3b 8c65 7fbc
00000260: ed6d babc e1b3 143e 820d 1fba 25d6 44be
00000270: 6f60 cabd a416 853d 5224 a43d 42a7 3f3d
00000280: ed95 17be 3fe3 213e 7baa 0bbb 77cd 84bc
00000290: aab8 aebd b109 eabd fd29 0abe 6630 2e3e
000002a0: 6a3b 98bb 19d2 293e 08af 67be bbe9 ef3c
000002b0: 039f e33d 2894 33bd 1036 fd3d ec74 09be
000002c0: df12 853d ac41 b2bd 4ff2 b7bd 21f9 95bc
000002d0: 0381 b53c 2b52 9dbd cd43 81be 931e 5a3d
000002e0: f095 a73d c313 fdbd 7be1 38bd 49e1 223e
000002f0: c19a 8cbe 05b7 d5bd 7f85 313e 2c50 dfbd
00000300: 49a9 4d3e 3b64 1dbe 9c41 983d 7458 adbc
00000310: fc68 13bd a76d f8bd 0c7e 24be f6a9 42be
00000320: d01e babc 2aa0 eb3c 3b83 663d d8c0 9dbc
00000330: 3127 193e aecd 06bc 6870 22be aa13 5ebe
00000340: b61e 96be 2c0f 26bd 1f60 40bd cb20 493d
00000350: c6b3 5f3d c827 f8bd 9a45 763d 35dc 8bbc
00000360: afcf 51bd a615 e4bd 0d0e b6bb fa3a 283a
00000370: 39ec 503e 3e29 3b3e a377 c8ba c039 713d
00000380: bd5c 6d3d 393e 6bbc bc2a 493d 35be 013e
00000390: 1c83 313e 3391 febd 7269 08be c76a 6dbd
000003a0: 1b73 9fbc 31dd 473d 18f9 76be 0ef6 723d
000003b0: f42a e33d 3963 0dbe 82ba 37bd 7a44 4bbe
000003c0: 922d 0a3d ee52 493c 8af5 553d bf3d 78bd
000003d0: a4ab c03d 151b 34bc a803 a4bd f283 94be
000003e0: 8cd9 0f3e c9da be3d 7e75 933d 428d 0ebd
000003f0: 3411 b23d 71b7 4ebe b33a 343d 49c2 3c3e

transformer.encoder.layers.0.linear2.bias f4 [32]
0.027279928 7.506809e-05 -0.018857826 -0.06002987 0.0095445085 -0.071651734 0.08188731 0.009444271
-0.052590746 -0.055372894 -0.018136848 0.031547498 -0.05138867 -0.056610387 0.021576043 -0.060384262
0.05268174 0.07998991 0.030714773 -0.045196325 0.104061976 0.029034372 -0.058155123 -0.066781946
-0.011230636 -0.041195165 0.070847094 0.026134685 0.060178578 -0.021814184 0.006728623 0.027663803
00000000: 287a df3c e06d 9d38 ba7b 9abc e2e1 75bd
00000010: 9260 1c3c 25be 92bd 89b4 a73d 25bc 1a3c
00000020: 6569 57bd b0ce 62bd ba93 94bc f337 013d
00000030: ed7c 52bd 4be0 67bd 3ec0 b03c 7d55 77bd
00000040: cfc8 573d c0d1 a33d 8c9d fb3c c81f 39bd
00000050: 721e d53d 7ed9 ed3c 1134 6ebd f9c4 88bd
00000060: b400 38bc 43bc 28bd 4818 913d 6818 d63c
00000070: d07d 763d a9b3 b2bc c87b dc3b 339f e23c

transformer.encoder.layers.0.norm1.weight f4 [32]
1.0892959 1.1485442 1.1191468 1.066529 1.1158019 1.1222752 0.9917499 0.90777117
0.9878362 0.913563 0.9467131 0.97503626 1.0195988 0.9590932 1.0186226 0.8114108
0.93122363 0.82559395 0.9246405 0.9393053 0.9697441 0.87919503 0.9988751 0.8039083
1.0083482 1.0112932 1.1638331 0.9810446 0.9043219 0.9910022 0.98308825 0.98271465
00000000: 0c6e 8b3f 7f03 933f 3440 8f3f 0684 883f
00000010: 99d2 8e3f b7a6 8f3f 52e3 7d3f b163 683f
00000020: d5e2 7c3f 44df 693f ca5b 723f fa9b 793f
00000030: 3782 823f 2287 753f 3a62 823f 9eb8 4f3f
00000040: ac64 6e3f 205a 533f 3db5 6c3f 5076 703f
00000050: 2641 783f ed12 613f 47b6 7f3f efcc 4d3f
00000060: 8e11 813f 0e72 813f 7cf8 943f bd25 7b3f
00000070: a481 673f 52b2 7d3f acab 7b3f 3093 7b3f

transformer.encoder.layers.0.norm1.bias f4 [32]
0.020406153 -0.006052948 -0.030107247 -0.0037449433 0.005147448 -0.007929718 0.021141209 0.033213176
0.026600132 0.0048753466 0.01258842 -0.005278889 -0.009037839 0.00010290101 0.025087966 -0.030740865
-0.00010100273 -0.057567134 0.013439689 -0.0105505055 -0.0072474782 -0.018864369 -0.017021848 -0.033864085
0.045553785 -0.011577614 -0.012451752 0.021061402 0.011480556 0.007672483 0.00897624 0.010845955
00000000: ce2a a73c cf57 c6bb 79a3 f6bc b96d 75bb
00000010: ecab a83b a6eb 01bc 5430 ad3c 8a0a 083d
00000020: 85e8 d93c 5fc1 9f3b a93f 4e3c 88fa acbb
00000030: 7213 14bc 8fcc d738 4785 cd3c 44d4 fbbc
00000040: 6ed1 d3b8 84cb 6bbd 2432 5c3c 07dc 2cbc
00000050: 417c edbb 7389 9abc 6771 8bbc 11b5 0abd
00000060: 9b96 3a3d 08b0 3dbc 6f02 4cbc f688 ac3c
00000070: f118 3c3c 7469 fb3b 1411 133c 3cb3 313c

transformer.encoder.layers.0.norm2.weight f4 [32]
1.0100193 1.0492516 1.0838257 1.0285109 1.0174809 1.022423 1.0113136 1.0088559
0.99794465 0.94241333 1.0194285 0.97878456 1.0065714 1.0364166 0.999209 0.9946192
1.0090566 1.0046456 0.9633041 1.0039127 1.0365742 0.91932386 1.0049869 0.9790605
1.0276326 1.0060283 1.015452 0.9822634 0.96610755 1.0265925 1.0106983 0.99945307
00000000: 5048 813f e04d 863f cdba 8a3f 3fa6 833f
00000010: d03c 823f c2de 823f b972 813f 3122 813f
00000020: 4d79 7f3f 0042 713f a27c 823f a091 7a3f
00000030: 55d7 803f 4da9 843f 29cc 7f3f 5d9f 7e3f
00000040: c428 813f 3a98 803f 199b 763f 3680 803f
00000050: 77ae 843f cf58 6b3f 69a3 803f b5a3 7a3f
00000060: 7789 833f 89c5 803f 55fa 813f 9d75 7b3f
00000070: d352 773f 6267 833f 905e 813f 28dc 7f3f

transformer.encoder.layers.0.norm2.bias f4 [32]
-0.020184124 -0.014827357 -0.010196071 0.0025420024 0.013020777 0.01235549 -0.0014947971 0.016658388
-0.02758305 -0.0075112395 -0.028560923 -0.0038783376 -0.021901662 -0.026741033 0.012549364 0.014333245
-0.005209529 0.0030144593 -0.013925631 0.024205986 0.005227063 -0.0039702603 -0.016461952 -0.03473549
0.023131147 -0.0072772596 0.04690955 0.021329528 -0.013683361 -0.0015529612 -0.024065852 0.018852571
00000000: 2d59 a5bc 71ee 72bc 6c0d 27bc b997 263b
00000010: 1955 553c ae6e 4a3c 11ed c3ba 2c77 883c
00000020: d9f5 e1bc d820 f6bb 99f8 e9bc b52b 7ebb
00000030: 1d6b b3bc 0310 dbbc d99b 4d3c fdd5 6a3c
00000040: b2b4 aabb 3c8e 453b 5428 64bc a24b c63c
00000050: c847 ab3b f518 82bb 37db 86bc cd46 0ebd
00000060: 887d bd3c 1476 eebb 3a24 403d 43bb ae3c
00000070: 2d30 60bc bb8c cbba c025 c5bc b570 9a3c

transformer.encoder.layers.1.self_attn.in_proj_weight f4 [96, 32]
0.1656939 0.2976717 0.13846125 0.092897706 0.023781607 -0.119087055 0.12535612 -0.16858159
0.10935333 -0.13999216 0.030222619 -0.07185187 -0.14964859 0.16217238 -0.07123094 -0.19723578
0.11483647 -0.06356024 -0.051639076 -0.114374034 -0.18064865 -0.16520041 0.30894122 0.10593793
-0.124254666 0.15847446 -0.12898119 -0.04868477 0.29097638 -0.04265262 0.37412697 -0.10836003
-0.23073447 0.14150052 -0.06858909 -0.16981319 0.20926169 -0.23302738 -0.20664328 -0.10340614
-0.25154087 0.13431817 -0.22297443 0.17873952 -0.1630165 -0.2847014 0.031702258 0.24240807
-0.20331767 -0.03787813 0.0799308 0.090195335 -0.08350863 -0.018193102 0.053729344 -0.15284806
0.11475016 -0.086062245 0.13005981 0.06157675 -0.014886709 -0.014627039 -0.41670483 0.16587386
-0.006137562 0.15278688 0.13138917 -0.080085546 -0.15910582 0.11208165 -0.2009698 -0.21606052
-0.09030511 -0.23184966 -0.08772881 -0.25297397 0.017685099 0.07866573 -0.0038049463 -0.34220383
0.12074484 0.042241797 -0.07145036 -0.057634264 -0.26864132 -0.062199723 0.006466174 0.046853893
0.0638482 -0.17548236 0.13034149 -0.23653007 0.08997933 -0.00046434405 0.07464127 -0.35930604
0.16249205 -0.048051927 0.10564512 0.28138658 -0.11515769 -0.080580994 0.03294153 0.10717828
0.07901828 0.02564033 -0.043624874 0.010668012 0.07565432 0.16832171 0.0036250586 0.052768365
0.0755204 -0.033034056 -0.19832617 -0.16394965 -0.02385952 -0.10732565 -0.020790264 0.08230859
0.040206537 -0.15282427 -0.09545706 0.07988957 0.1616542 -0.13050547 0.027380029 -0.079328276
0.009961577 0.0320687 -0.03855598 -0.0169421 0.09463392 0.19359729 -0.045991942 -0.0975468
0.17531861 0.14017774 0.2269715 0.12681542 0.16867076 0.23015283 -0.006489913 -0.07077052
-0.03465916 0.16315907 -0.051502388 -0.16007574 -0.092206195 0.02097089 0.11093611 -0.000866978
-0.07611079 0.10744216 -0.1939457 -0.22442836 -0.10597521 0.06327164 0.012971692 0.18990119
-0.004513907 -0.02076041 -0.064186595 -0.06388861 0.089315906 0.17317747 0.036640145 -0.12659512
0.12428154 0.028494285 -0.11880907 0.16964324 0.014649438 0.09330476 0.15361065 -0.06948113
-0.16583744 0.09820616 0.013074431 -0.001270501 0.15761666 -0.27036464 0.1678911 -0.08581112
-0.13429375 0.046802495 -0.03819481 0.12165847 0.0952664 -0.04418333 -0.19137515 -0.25377363
0.052481916 0.20009574 -0.07069406 -0.016216328 -0.21074891 -0.16839382 0.12117415 0.00022422227
-0.035738382 -0.116470456 -0.2550856 0.15613225 0.1515994 -0.32740423 -0.08944467 0.096484594
0.20895089 0.2547212 -0.17808843 0.151699 0.06412697 -0.027520882 0.0076878923 0.09704861
0.072468966 -0.21607019 -0.18402468 0.19110055 0.041829243 -0.21356723 0.16597828 0.27214786
-0.14155792 0.1988095 -0.24582447 -0.0315301 -0.27310976 -0.09456011 -0.0040860777 0.0009591765
0.057617348 0.059364684 -0.15774849 0.16811226 0.15541577 -0.32465822 -0.19228931 -0.17813456
-0.118415 -0.14225988 -0.11901074 0.09465616 -0.012779411 -0.05768974 0.13277489 -0.255034
0.03463655 -0.13090885 -0.06721875 0.33062696 -0.12791324 0.016414711 -0.02099526 0.097568326
00000000: a9ab 293e 6d68 983e c9c8 0d3e 2741 be3d
00000010: a5d1 c23c eae3 f3bd 5b5d 003e a7a0 2cbe
00000020: a4f4 df3d 1b5a 0fbe 6d95 f73c 1327 93bd
00000030: 7b3d 19be 8410 263e 87e1 91bd 2df8 49be
00000040: 622f eb3d df2b 82bd 7f83 53bd ef3c eabd
00000050: f6fb 38be 4c2a 29be 8b2d 9e3e fcf5 d83d
00000060: 3b79 febd 2147 223e a513 04be ae69 47bd
00000070: dbfa 943e 83b4 2ebd 928d bf3e ddeb ddbd
00000080: a845 6cbe 83e5 103e 7078 8cbd 82e3 2dbe
00000090: b248 563e bb9e 6ebe 4c9a 53be 99c6 d3bd
000000a0: f7c9 80be b48a 093e 6953 64be 7e07 373e
000000b0: cced 26be 62c4 91be 3ada 013d d239 783e
000000c0: 8232 50be 1926 1bbd c2b2 a33d 55b8 b83d
000000d0: 9306 abbd b309 95bc 4d13 5c3d 3484 1cbe
000000e0: 2202 eb3d 6741 b0bd 662e 053e e737 7c3d
000000f0: 62e7 73bc 40a6 6fbc 565a d5be d6da 293e
00000100: 9a1d c9bb 2a74 1c3e e28a 063e e403 a4bd
00000110: a3ec 22be 108b e53d 07cb 4dbe f83e 5dbe
00000120: e3f1 b8bd ff69 6dbe 2aab b3bd ce85 81be
00000130: 57e0 903c 801b a13d 685c 79bb 5735 afbe
00000140: 1249 f73d bc05 2d3d 9154 92bd e811 6cbd
00000150: 5b8b 89be 23c5 7ebd 33e2 d33b dee9 3f3d
00000160: d8c2 823d a6b1 33be 3d78 053e f034 72be
00000170: 1547 b83d 3473 f3b9 86dd 983d f6f6 b7be
00000180: 5164 263e 19d2 44bd 785c d83d e711 903e
00000190: ccd7 ebbd a607 a5bd b3ed 063d 4980 db3d
000001a0: 56d4 a13d ab0b d23c ffaf 32bd e3c8 2e3c
000001b0: a7f0 9a3d 875c 2c3e 6492 6d3b a423 583d
000001c0: 71aa 9a3d b84e 07bd 0416 4bbe 6be2 27be
000001d0: 0a75 c3bc 8dcd dbbd 5850 aabc 6891 a83d
000001e0: 9caf 243d f77d 1cbe fe7e c3bd 259d a33d
000001f0: ae88 253e 3aa3 05be 154c e03c dd76 a2bd
00000200: e235 233c 785a 033d e0ec 1dbd 29ca 8abc
00000210: 6ecf c13d 5e3e 463e 0c62 3cbd 9ec6 c7bd
00000220: b986 333e c18a 0f3e 386b 683e e7db 013e
00000230: 07b8 2c3e 2fad 6b3e 56a9 d4bb 22f0 90bd
00000240: c3f6 0dbd 2c13 273e 2bf4 52bd e5ea 23be
00000250: 9ad6 bcbd 25cb ab3c 7932 e33d e945 63ba
00000260: f9df 9bbd a30a dc3d b499 46be 8cd0 65be
00000270: 8809 d9bd 9094 813d 3887 543c 7575 423e
00000280: 65e9 93bb bc11 aabc 4374 83bd 08d8 82bd
00000290: 42eb b63d 6f55 313e fa13 163d 27a2 01be
000002a0: 5287 fe3d d96c e93c 2b52 f3bd f5b6 2d3e
000002b0: 3204 703c 9116 bf3d 1c4c 1d3e 1f4c 8ebd
000002c0: 4ad1 29be 5020 c93d 2336 563c f086 a6ba
000002d0: 4366 213e 3c6d 8abe a5eb 2b3e bebd afbd
000002e0: 4d84 09be f9b3 3f3d 2972 1cbd 1328 f93d
000002f0: 081b c33d 94f9 34bd d9f7 43be 9eee 81be
00000300: 47f7 563d e6e5 4c3e 0cc8 90bd 1bd8 84bc
00000310: 90ce 57be 6e6f 2cbe 272a f83d 351d 6b39
00000320: 6962 12bd 1088 eebd 949a 82be 22e1 1f3e
00000330: e03c 1b3e 87a1 a7be c42e b7bd b799 c53d
00000340: 39f7 553e d16a 823e d05c 36be fc56 1b3e
00000350: 0055 833d 7973 e1bc b7ea fb3b 6cc1 c63d
00000360: 9c6a 943d 8141 5dbe f770 3cbe ddaf 433e
00000370: 2455 2b3d 5eb1 5abe 36f6 293e f756 8b3e
00000380: 8ff4 10be b894 4b3e 69b9 7bbe b525 01bd
00000390: 0bd5 8bbe bba8 c1bd 81e4 85bb 3f71 7b3a
000003a0: 2b00 6c3d 6228 733d d288 21be 9f25 2c3e
000003b0: 5025 1f3e 9a39 a6be 7de7 44be e868 36be
000003c0: 9083 f2bd 93ac 11be e7bb f3bd 17db c13d
000003d0: bc60 51bc 144c 6cbd 24f6 073e d193 82be
000003e0: 0edf 0d3d f80c 06be fca9 89bd f047 a93e
000003f0: b0fb 02be 2578 863c 40fe abbc e7d1 c73d

transformer.encoder.layers.1.self_attn.in_proj_bias f4 [96]
-0.069414705 0.23793043 -0.057899166 0.04513537 -0.01828428 -0.05292129 0.06492876 0.04576788
-0.07539552 -0.09393573 0.04846078 0.10663317 0.0008526039 -0.04259202 0.11363504 -0.0015109088
-0.029863967 -0.08271078 0.06658709 -0.0032102368 -0.1015254 0.072460204 -0.11921413 0.11206771
-0.08561414 0.108566605 -0.06959369 -0.07150886 -0.11197973 -0.12291801 -0.12455451 -0.038461864
-8.413841e-06 0.00011118829 -5.905282e-05 -5.2169493e-05 -1.5140459e-05 -3.1676186e-06 4.0504772e-05 4.8721373e-05
4.4316585e-05 1.8194836e-05 -1.0703362e-05 -3.261335e-05 1.8380105e-06 -3.0711103e-06 7.596195e-06 1.3740435e-05
3.333048e-05 -2.81889e-05 -2.3511691e-05 8.900434e-06 3.597574e-05 -1.0468434e-05 2.9617226e-05 5.9561127e-05
1.3442776e-05 -7.094704e-05 2.2742473e-05 5.2393083e-05 -3.837956e-05 2.7894303e-05 -7.281428e-06 -3.543167e-05
-0.0061696963 -0.009862391 0.0005042204 0.009585805 0.0052065165 0.0049867546 0.04199934 0.0014198151
0.0006052789 -0.015201934 0.015292767 0.0059094694 -0.02411763 -0.018622877 -0.003830234 -0.019505193
0.018890386 0.036497638 -0.008015486 -0.02402462 0.01595252 -0.0021057446 0.011480869 -0.0024917284
0.014252611 0.0054304674 0.0016386001 -0.0067443834 -0.005788933 -0.011617594 -0.00014964689 -0.0071416884
00000000: 4c29 8ebd 09a4 733e ad27 6dbd dedf 383d
00000010: eac8 95bc ffc3 58bd 5ff9 843d 1a77 3b3d
00000020: f768 9abd 6061 c0bd d07e 463d 7e62 da3d
00000030: 4781 5f3a f874 2ebd 7db9 e83d b009 c6ba
00000040: 47a5 f4bc 4564 a9bd d05e 883d d662 52bb
00000050: 8dec cfbd 0466 943d 8a26 f4bd c183 e53d
00000060: 7756 afbd 2b58 de3d 2387 8ebd 3d73 92bd
00000070: a155 e5bd 70bc fbbd 6f16 ffbd 308a 1dbd
00000080: 2c29 0db7 c22d e938 7caf 77b8 91d0 5ab8
00000090: c703 7eb7 4693 54b6 abe3 2938 2d5a 4c38
000000a0: 92e0 3938 1da1 9837 9792 33b7 51ca 08b8
000000b0: 8fb1 f635 4619 4eb6 d1e2 fe36 b886 6637
000000c0: 55cc 0b38 3477 ecb7 f93a c5b7 1353 1537
000000d0: a8e4 1638 95a1 2fb7 8272 f837 46d1 7938
000000e0: 4988 6137 67c9 94b8 17c7 be37 a5c0 5b38
000000f0: bdf9 20b8 8ffe e937 fe52 f4b6 779c 14b8
00000100: 2a2b cabb de95 21bc a92d 043a c80d 1d3c
00000110: 6d9b aa3b ee67 a33b 8007 2c3d 1719 ba3a
00000120: 94ab 1e3a 8811 79bc 848e 7a3c 39a4 c13b
00000130: 5692 c5bc 018f 98bc aa04 7bbb 5bc9 9fbc
00000140: 03c0 9a3c 8c7e 153d 6353 03bc 48cf c4bc
00000150: dcae 823c 8800 0abb 411a 3c3c 444c 23bb
00000160: c983 693c 10f2 b13b 4cc6 d63a fdff dcbb
00000170: 17b1 bdbb b957 3ebc 88ea 1cb9 d304 eabb
