models/transformer/transformer.pt.ckpt (torch, 356203 bytes, 204 tensors)

encoder.weight f4 [16, 3]
-0.040282868 -0.18605326 -0.2680364 -0.30668363 0.05324206 0.2010713 0.03475658 0.4551388
-0.23272271 0.39482954 0.41658425 -0.2651688 -0.28732887 -0.3686555 -0.14395308 0.115736805
0.1755705 -0.19666146 -0.54357076 0.20154835 -0.17022759 -0.6298048 -0.5470624 -0.0009496043
-0.060855016 -0.42739713 0.13623421 -0.44741416 -0.29321036 -0.16722964 -0.82425386 0.1370797
-0.26037937 -0.37495586 -0.33102632 0.046419863 -0.5693888 0.27958354 0.1869363 -0.1063751
-0.2622787 -0.40170553 0.015217046 0.33230492 -0.539728 -0.44224665 0.14402223 0.19181612
00000000: a6ff 24bd bf84 3ebe 113c 89be a305 9dbe
00000010: 5914 5a3d a3e5 4d3e ea5c 0e3d f407 e93e
00000020: dd4e 6ebe 1927 ca3e 884a d53e 34c4 87be
00000030: c51c 93be 6ac0 bcbe 7068 13be 6b07 ed3d
00000040: c1c8 333e 9f61 49be 7427 0bbf b162 4e3e
00000050: 2450 2ebe e33a 21bf 480c 0cbf deee 78ba
00000060: 1c43 79bd ccd3 dabe fb80 0b3e 7813 e5be
00000070: ab1f 96be 3f3e 2bbe 4d02 53bf 9f5e 0c3e
00000080: 7250 85be 37fa bfbe 487c a9be c122 3e3d
00000090: 77c3 11bf 9325 8f3e 3b6c 3f3e 30db d9bd
000000a0: 6549 86be 59ac cdbe eb50 793c df23 aa3e
000000b0: 9d2b 0abf 276e e2be 907a 133e 726b 443e

encoder.bias f4 [16]
0.14500827 0.022121776 0.000115663046 -0.04012271 0.36194277 -0.014918484 0.060086578 0.07968131
-0.32029158 -0.043655165 0.293006 -0.094602615 0.1875088 -0.43115595 0.1407478 0.27129018
00000000: 0c7d 143e ba38 b53c 2090 f238 b657 24bd
00000010: 9050 b93e a86c 74bc 581d 763d f42f a33d
00000020: 42fd a3be c2cf 32bd e204 963e 04bf c1bd
00000030: 4f02 403e 79c0 dcbe 3120 103e 8ce6 8a3e

transformer.encoder.layers.0.self_attn.in_proj_weight f4 [48, 16]
-0.20269224 0.21908528 -0.30209842 0.02919988 0.2709839 0.38400167 -0.1673072 0.14088522
-0.1398887 0.13385138 -0.1515261 0.11716937 -0.018074885 -0.057724737 0.24470842 0.1697794
-0.27046672 0.18016389 -0.03362147 0.21742947 0.40525466 0.07116139 -0.14256425 0.039192278
-0.27612185 -0.13575143 0.42769873 0.26760972 -0.07596077 -0.16386244 -0.02701599 0.2718852
-0.40863615 0.32336596 0.3059487 0.07525737 -0.19572385 0.19988146 -0.31224734 -0.16038871
0.20620497 -0.13916299 -0.25102615 0.2928006 0.053949613 -0.22167407 0.033952035 -0.19271523
0.45578825 -0.062085643 0.08796905 -0.43344748 0.15902339 -0.065105826 0.51895607 0.06967211
0.38651052 0.024978338 0.48578885 -0.061373774 0.089682594 0.2191086 -0.38275075 0.03293264
-0.17688343 -0.019740053 -0.05584795 0.3786516 -0.06779809 0.17864224 -0.22685583 -0.2615602
-0.014249295 0.16242526 -0.7713049 0.18807913 -0.30809808 -0.39239684 -0.35609278 -0.26584625
-0.24995199 -0.32237345 -0.16081314 0.20461181 -0.23176698 0.2274922 0.32139704 -0.16967408
0.11543281 0.36274168 -0.064664 0.05036908 0.10927317 0.31184492 -0.105649 0.013993963
-0.03187058 -0.027534407 -0.16438709 0.15468435 0.34197152 0.11434899 0.22443905 0.29070193
0.081687324 -0.13923095 0.18960406 0.23378973 0.1265581 0.053907797 -0.13531595 -0.17535919
0.43294895 -0.094706506 0.071659505 0.23000982 0.06316121 -0.11022384 0.010600111 -0.07567675
-0.124181524 0.2985838 0.03571531 0.17097485 -0.23647407 0.3324809 -0.09117797 -0.25289914
-0.052324068 -0.25397363 -0.22029072 0.30305335 -0.019298691 0.25027624 -0.2344691 -0.38543195
-0.111075275 -0.1765373 0.22922485 -0.21150911 -0.07762943 0.24068892 -0.059673384 -0.22511834
-0.0386097 -0.021975413 0.4596214 -0.1299007 -0.25806305 -0.16332988 0.2155968 -0.16425033
-0.06480385 0.18556511 -0.09518496 0.17029901 -0.20326681 -0.14549513 0.2255659 0.24898914
-0.121011615 0.5524285 -0.1228309 0.5487912 0.018119985 -0.05270897 -0.31391487 0.101461805
-0.41452488 -0.2121598 -0.52655643 0.05156332 0.11589001 -0.36909127 0.05889465 0.37713274
0.04876623 -0.22600605 -0.19206524 0.37244266 -0.33071414 0.09123202 0.057135884 -0.42037475
-0.25373793 -0.24834003 -0.4094242 -0.22268748 0.27124012 -0.4095655 0.15471452 0.0077955546
0.068042375 -0.037687145 0.110884644 0.03630718 0.058152683 -0.12567188 -0.2331881 -0.0483792
-0.089871496 0.2255938 -0.26078135 -0.21242358 -0.25623435 -0.42023605 0.24342787 0.24762854
0.20460807 -0.38736153 -0.4474653 -0.20841222 -0.42580622 -0.39717653 0.2987543 -0.37905234
0.6729128 -0.2636621 0.57246315 -0.5879083 -0.314481 0.30101833 -0.19224118 -0.71112376
0.07739978 0.10685289 -0.18832172 -0.35939786 -0.17867297 -0.15610905 -0.08460651 0.029580262
0.37162417 -0.16128121 0.05312581 -0.45206705 -0.3577163 0.03727369 0.07842204 -0.1536631
-0.033699792 0.030817814 0.14264123 0.48364103 0.23728105 0.38589767 0.0045054182 0.108805396
-0.11601453 0.19557197 0.028820353 0.34927583 0.07811888 -0.25147453 -0.25791827 0.3877533
00000000: 8e8e 4fbe e457 603e a5ac 9abe 9634 ef3c
00000010: 67be 8a3e de9b c43e 9452 2bbe 3744 103e
00000020: fc3e 0fbe 5610 093e a829 1bbe 7ff6 ef3d
00000030: c811 94bc c670 6cbd d894 7a3e a7da 2d3e
00000040: 9d7a 8abe e27c 383e abb6 09bd d5a5 5e3e
00000050: 8a7d cf3e 10bd 913d 5dfc 11be 1588 203d
00000060: d85f 8dbe 6c02 0bbe 54fb da3e 2404 893e
00000070: 5291 9bbd 8ecb 27be a350 ddbc 8934 8b3e
00000080: c238 d1be 3990 a53e 4fa5 9c3e 8920 9a3d
00000090: d56b 48be baad 4c3e e2de 9fbe f03c 24be
000000a0: 6527 533e be80 0ebe 8086 80be f6e9 953e
000000b0: 45fa 5c3d 87fe 62be 4a11 0b3d 2457 45be
000000c0: 145d e93e 844d 7ebd 1e29 b43d d4ec ddbe
000000d0: 07d7 223e 3456 85bd 4eda 043f 40b0 8e3d
000000e0: b5e4 c53e 5f9f cc3c 51b9 f83e 1163 7bbd
000000f0: 82ab b73d 015e 603e e8f7 c3be 60e4 063d
00000100: ee20 35be e4b5 a1bc d2c0 64bd 9fde c13e
00000110: bad9 8abd feed 363e e54c 68be 38eb 85be
00000120: e075 69bc cf52 263e 3d74 45bf d197 403e
00000130: 08bf 9dbe 3de8 c8be cb51 b6be 001d 88be
00000140: 6af3 7fbe 220e a5be 33ac 24be c285 513e
00000150: 5354 6dbe b7f3 683e 278e a43e 0bbf 2dbe
00000160: 0968 ec3d 47b9 b93e 8f6e 84bd cf4f 4e3d
00000170: 9dca df3d 23aa 9f3e 815e d8bd ef46 653c
00000180: ba8a 02bd d68f e1bc 1755 28be 9365 1e3e
00000190: e416 af3e ce2f ea3d 5ad3 653e e2d6 943e
000001a0: af4b a73d 8f92 0ebe 9127 423e 9366 6f3e
000001b0: 7298 013e 6cce 5c3d 4490 0abe 5c91 33be
000001c0: 7cab dd3e 7cf5 c1bd 38c2 923d b287 6b3e
000001d0: aa5a 813d 09bd e1bd 17ac 2d3c 69fc 9abd
000001e0: e252 febd fadf 983e 384a 123d 0814 2f3e
000001f0: 4226 72be f03a aa3e 84bb babd ff7b 81be
00000200: c351 56bd d508 82be e493 61be cf29 9b3e
00000210: 4a18 9ebc 3524 803e ab18 70be 5657 c5be
00000220: 6f7b e3bd 32c6 34be ebb9 6a3e d895 58be
00000230: 2efc 9ebd 2877 763e 146c 74bd 6c85 66be
00000240: 3425 1ebd c805 b4bc 7f53 eb3e b004 05be
00000250: d720 84be f33f 27be 68c5 5c3e 3d31 28be
00000260: e2b7 84bd c804 3e3e 55f0 c2bd dd62 2e3e
00000270: 2d25 50be adfc 14be bffa 663e 02f7 7e3e
00000280: f0d4 f7bd f46b 0d3f c48e fbbd 957d 0c3f
00000290: 5d70 943c 5ce5 57bd 73b9 a0be 35cb cf3d
000002a0: 9b3c d4be 6b40 59be 67cc 06bf 0f34 533d
000002b0: be57 ed3d 88f9 bcbe 843b 713d 8b17 c13e
000002c0: 19bf 473d 216e 67be c0ac 44be ceb0 be3e
000002d0: 5d53 a9be dad7 ba3d 5107 6a3d 5c3b d7be
000002e0: f0e9 81be d94c 7ebe 0ca0 d1be 3008 64be
000002f0: fcdf 8a3e 92b2 d1be 7c6d 1e3e da71 ff3b
00000300: cd59 8b3d d65d 1abd 7d17 e33d d6b6 143d
00000310: 8231 6e3d 21b0 00be dcc8 6ebe 4529 46bd
00000320: 8c0e b8bd 1002 673e 2285 85be 9185 59be
00000330: 2631 83be 2e29 d7be 2845 793e 5692 7d3e
00000340: c784 513e 4054 c6be 2c1a e5be 036a 55be
00000350: 4603 dabe b95a cbbe 53f6 983e 2613 c2be
00000360: 0344 2c3f b8fe 86be f28c 123f 2981 16bf
00000370: a703 a1be 131f 9a3e dfda 44be 350c 36bf
00000380: c783 9e3d b0d5 da3d 69d7 40be ff02 b8be
00000390: 0cf6 36be 0ddb 1fbe 2e46 adbd 4e52 f23c
000003a0: 8645 be3e e726 25be 739a 593d 5575 e7be
000003b0: 9726 b7be 4cac 183d bc9b a03d dc59 1dbe
000003c0: cb08 0abd a475 fc3c 8b10 123e cc9f f73e
000003d0: cef9 723e 6194 c53e 30a2 933b 5dd5 de3d
000003e0: 0799 edbd 0544 483e a918 ec3c 48d4 b23e
000003f0: cbfc 9f3d 45c1 80be dd0d 84be 9a87 c63e

transformer.encoder.layers.0.self_attn.in_proj_bias f4 [48]
0.14830537 0.06619991 0.014387402 -0.13848086 0.011144632 -0.033422776 -0.03775722 -0.012600359
0.051230177 0.019834893 0.31758237 0.05130634 0.049850963 -0.52015966 -0.15715073 0.21299903
0.0005254081 0.0005636953 0.0005919029 -0.0013705452 0.0004539244 0.00070169714 -0.00017877396 0.00039958328
-0.00027272047 1.559401e-05 0.00014798967 0.00031402372 0.00131049 0.003938778 3.9776158e-05 0.00011285153
0.01214098 0.03536104 -0.026582025 0.08071519 0.029369509 0.052363493 -0.031142918 0.06848872
0.0026744008 -0.043579128 0.02155049 0.016668346 0.0049440796 0.0010323428 -0.026204333 0.021247301
00000000: 5ddd 173e d293 873d 23b9 6b3c edcd 0dbe
00000010: f997 363c 52e6 08bd 51a7 1abd bc71 4ebc
00000020: bcd6 513d c97c a23c 289a a23e 9926 523d
00000030: 8630 4c3d 2f29 05bf 1fec 20be 6b1c 5a3e
00000040: 8abb 093a f4c4 133a ee29 1b3a dea3 b3ba
00000050: b4fc ed39 19f2 373a 4575 3bb9 297f d139
00000060: ecfb 8eb9 e2cf 8237 ad2d 1b39 8da3 a439
00000070: bfc4 ab3a dd10 813b 53d5 2638 b4aa ec38
00000080: f6ea 463c bdd6 103d 8cc2 d9bc 014e a53d
00000090: 5398 f03c 1a7b 563d 6f1f ffbc d043 8c3d
000000a0: 0045 2f3b 0780 32bd a78a b03c 0e8c 883c
000000b0: f201 a23b ad4f 873a 78aa d6bc d20e ae3c

transformer.encoder.layers.0.self_attn.out_proj.weight f4 [16, 16]
0.082890354 -0.33699253 -0.30784374 -0.037884537 0.06445186 -0.25956935 -0.31856984 -0.2581124
-0.026244536 0.35085493 -0.02662538 -0.013429818 0.32038787 0.14800659 0.17315008 -0.19646946
0.36320212 -0.20139924 0.19786575 0.04998997 -0.23478976 -0.23728995 0.16197242 0.06997678
0.24040855 -0.18349636 -0.15434065 0.025462931 0.023697209 0.19842719 -0.32607904 -0.21545593
-0.26602525 0.2324144 0.3167352 -0.28982133 -0.39198926 -0.092671685 -0.027590195 -0.26840088
0.079313815 0.37287232 -0.35219386 -0.34500477 0.046017956 -0.1980872 0.04238079 0.38973054
0.1650368 0.058598656 -0.18428946 -0.36231747 -0.2627845 0.32938513 -0.11321772 -0.2839706
0.14120442 -0.10583702 0.3429805 -0.09810776 0.20613675 0.31154177 0.12775192 -0.11043856
-0.18825428 0.25393587 -0.2291786 -0.3838642 -0.11979512 -0.08363939 0.20773654 -0.26678047
0.12997599 -0.014227261 0.0859206 -0.29088718 0.066096984 0.0061529507 -0.1585053 -0.18126336
0.42450407 0.34787762 0.31993353 0.11810711 0.3165419 -0.2728035 0.2901471 0.25949636
-0.23534746 0.13973813 0.21754828 -0.29544625 -0.014562026 0.1413804 -0.14234369 0.352434
0.27573964 -0.05537147 -0.060264017 -0.3584658 0.4164905 0.19659759 0.3487303 -0.23914942
0.04479167 0.16306894 -0.42153412 -0.009021369 -0.21345913 0.12622364 0.21605784 0.116188385
-0.02521304 0.19741768 -0.44810817 -0.28910765 0.38382673 0.12363323 -0.32403195 0.3170832
-0.2549596 -0.33684757 0.11023388 -0.1488193 -0.21023223 -0.23748878 0.39453667 0.22829904
-0.30146095 -0.0010224782 0.16511701 -0.25177288 0.057305478 -0.087452255 0.27686253 0.33096668
0.091433994 0.17487276 0.12579744 0.042400993 0.3378979 0.29187268 0.12538673 -0.13670449
0.2831199 0.05648893 -0.045462735 -0.28599504 -0.02676988 -0.27525407 0.41235167 0.004412458
-0.117509544 -0.28329816 -0.09955751 0.17884351 -0.36385882 -0.17786056 -0.04369223 -0.25495496
0.19430341 0.27455246 0.17221972 -0.26552084 0.352761 0.07800194 -0.25477636 -0.36963567
-0.0009347837 -0.28054056 0.19519234 0.23556224 0.35108617 -0.22399487 0.074321605 0.13609336
-0.082507 0.35696113 -0.11840979 0.25152412 -0.079321265 -0.36028495 -0.0211208 0.1783153
-0.27958357 -0.069887966 -0.3910015 0.23799449 -0.2596108 0.29330203 -0.04599249 0.42289937
0.14707473 0.24297209 -0.10647044 0.11287722 -0.3568936 -0.31068516 -0.2816264 0.20705439
-0.3093813 -0.0329302 0.17724873 -0.0023970057 0.12582663 0.2075379 0.062298805 0.37027478
-0.16941664 0.4141254 0.039201 -0.2807185 -0.31269565 0.22879367 -0.2645236 0.32379156
0.20685107 0.26800865 -0.30074087 0.30972522 0.3566071 0.45596725 0.17227447 -0.34794226
0.1079059 0.11195855 -0.3279033 -0.21679305 -0.3774805 0.24646486 -0.3688874 -0.2638865
0.08975821 0.0403242 0.13746096 0.014104273 0.15140086 -0.4982812 0.059366137 -0.04103823
0.10915951 -0.41421738 -0.3784362 -0.14744303 -0.49762097 0.2869245 -0.34324422 0.1454401
-0.079886 0.12367956 0.08819835 -0.22481747 -0.16434708 -0.32029578 0.1913644 0.25012973
00000000: 6bc2 a93d 498a acbe b29d 9dbe d12c 1bbd
00000010: 56ff 833d 46e6 84be 961b a3be 4f27 84be
00000020: c8fe d6bc 42a3 b33e 781d dabc bd08 5cbc
00000030: e109 a43e 0a8f 173e 414e 313e 4a2f 49be
00000040: a1f5 b93e 9a3b 4ebe 529d 4a3e 48c2 4c3d
00000050: ba6c 70be 23fc 72be 19dc 253e fc4f 8f3d
00000060: a92d 763e 78e6 3bbe 7a0b 1ebe a397 d03c
00000070: a620 c23c 7f30 4b3e d5f3 a6be 7ba0 5cbe
00000080: 7634 88be 0afe 6d3e 1e2b a23e 7663 94be
00000090: d1b2 c8be a7ca bdbd d504 e2bc d76b 89be
000000a0: 486f a23d 1fe9 be3e c152 b4be 77a4 b0be
000000b0: 537d 3c3d 5fd7 4abe 7b97 2d3d c38a c73e
000000c0: 68ff 283e 2505 703d 60b6 3cbe ad81 b9be
000000d0: b18b 86be 2ba5 a83e b1de e7bd 9864 91be
000000e0: e497 103e 14c1 d8bd 249b af3e b9ec c8bd
000000f0: 8315 533e 6782 9f3e 66d1 023e 9d2d e2bd
00000100: bbc5 40be e203 823e cbad 6abe d989 c4be
00000110: 2557 f5bd 214b abbd e3b8 543e 7397 88be
00000120: 6d18 053e 7519 69bc 24f7 af3d 2aef 94be
00000130: db5d 873d b19e c93b 374f 22be 1a9d 39be
00000140: 9958 d93e 041d b23e 54ce a33e 24e2 f13d
00000150: c811 a23e e6ac 8bbe 298e 943e b5dc 843e
00000160: edfe 70be 8317 0f3e fac4 5e3e bb44 97be
00000170: 9095 6ebc 06c6 103e 8bc2 11be 3b72 b43e
00000180: bf2d 8d3e 32cd 62bd 67d7 76bd d488 b7be
00000190: 3e3e d53e e150 493e c78c b23e 96e3 74be
000001a0: 7877 373d 8bfb 263e 52d3 d7be 5dce 13bc
000001b0: 0895 5abe c540 013e 443e 5d3e 2df4 ed3d
000001c0: 948b cebc dc27 4a3e 6f6e e5be eb05 94be
000001d0: f084 c43e 6b33 fd3d 84e7 a5be bb58 a23e
000001e0: 118a 82be 4977 acbe 4dc2 e13d 1664 18be
000001f0: 1e47 57be 4230 73be b600 ca3e 39c7 693e
00000200: 1759 9abe ad04 86ba 6f14 293e 60e8 80be
00000210: 26b9 6a3d 2b1a b3bd edc0 8d3e 7774 a93e
00000220: bf41 bb3d d811 333e 0bd1 003e aaac 2d3d
00000230: f400 ad3e 5670 953e 6165 003e 43fc 0bbe
00000240: 17f5 903e f060 673d 2237 3abd f16d 92be
00000250: 824c dbbc 1aee 8cbe c21f d33e 6196 903b
00000260: d8a8 f0bd 750c 91be cfe4 cbbd c122 373e
00000270: b44b babe 1421 36be a0f6 32bd 7589 82be
00000280: 79f7 463e 2492 8c3e 5e5a 303e 59f2 87be
00000290: 179d b43e 7bbf 9f3d 0c72 82be e340 bdbe
000002a0: 460c 75ba 03a3 8fbe 80e0 473e 3a37 713e
000002b0: 91c1 b33e e95e 65be ed35 983d 0f5c 0b3e
000002c0: 6ef9 a8bd 9cc3 b63e d580 f2bd c5c7 803e
000002d0: 3073 a2bd 4577 b8be 8705 adbc 4998 363e
000002e0: 9425 8fbe 6c21 8fbd 5931 c8be d4b4 733e
000002f0: b5eb 84be af2b 963e 9f62 3cbd 4486 d83e
00000300: c29a 163e adcd 783e 2d0d dabd 2c2c e73d
00000310: c2ba b6be 2012 9fbe 5631 90be 1106 543e
00000320: 3a67 9ebe d1e1 06bd b180 353e 1517 1dbb
00000330: b2d8 003e d184 543e 082d 7f3d a894 bd3e
00000340: 8e7b 2dbe 3f08 d43e 3a91 203d 56ba 8fbe
00000350: a519 a0be e348 6a3e a36f 87be 02c8 a53e
00000360: c4d0 533e 6e38 893e b5fa 99be 4e94 9e3e
00000370: 3595 b63e 8a74 e93e b868 303e 7d25 b2be
00000380: c5fd dc3d 864a e53d f1e2 a7be fffe 5dbe
00000390: 2045 c1be 4961 7c3e cfde bcbe 221c 87be
000003a0: 27d3 b73d fd2a 253d 91c2 0c3e 9c15 673c
000003b0: d408 1b3e b71e ffbe e829 733d b417 28bd
000003c0: 058f df3d 4d14 d4be 64c2 c1be 4efb 16be
000003d0: 2dc8 febe c5e7 923e b5bd afbe 40ee 143e
000003e0: 459b a3bd b64b fd3d 56a1 b43d 8d36 66be
000003f0: 9a4a 28be cffd a3be 07f5 433e 0111 803e

transformer.encoder.layers.0.self_attn.out_proj.bias f4 [16]
0.001967311 -0.0006768978 -0.07398149 -0.041899372 -0.024039246 -0.07153966 0.054418787 0.05442297
0.03530464 -0.05463392 0.050296012 0.027342407 0.018560562 0.0037387745 0.01645726 -0.046471637
00000000: 00ee 003b d871 31ba 9c83 97bd ad9e 2bbd
00000010: f4ed c4bc 6383 92bd 3ce6 5e3d 9fea 5e3d
00000020: 999b 103d d1c7 5fbd 3103 4e3d 2ffd df3c
00000030: 520c 983c 3a06 753b 60d1 863c 0b59 3ebd

transformer.encoder.layers.0.linear1.weight f4 [128, 16]
0.09476314 0.19512552 0.09076212 -0.024104849 0.15498674 -0.29596096 0.0674519 0.007849455
0.041234553 0.06770466 0.1532451 0.03226035 0.12919332 -0.076021835 0.06311549 0.013007056
0.2336304 0.15820442 0.06299003 0.10619938 -0.10137186 -0.15405163 0.037243567 -0.1291047
-0.092414044 -0.0656446 0.08569079 -0.2014854 -0.029099995 0.035352193 -0.046277832 0.1358287
-0.05442869 0.0965381 0.06455281 0.12096766 0.08029405 -0.22206306 -0.15126188 -0.09121578
0.22407836 0.21952763 -0.1479235 0.038866173 -0.10502067 0.0026456448 0.027871352 -0.17798309
0.050673813 -0.25948066 0.17415495 -0.091525786 -0.05549515 -0.02566635 -0.059398446 0.18116225
0.04445992 -0.07421298 -0.11926415 0.15376696 0.007105113 -0.122246906 -0.077235766 -0.05705302
-0.3191427 -0.020623852 -0.19390331 0.031597644 -0.15614793 -0.1344866 0.4379089 0.13455853
-0.08743143 -0.0026793974 0.015648555 -0.115456656 0.10522678 0.03981366 0.01218651 -0.24832018
0.20123196 0.15513611 0.046642568 0.10651276 -0.067424215 -0.22109345 -0.049847413 0.04373259
-0.11751359 0.082932726 -0.2555193 0.09316441 -0.012093924 0.018076578 -0.048771873 0.0054312767
0.14638965 -0.10221911 0.22820844 -0.04474755 -0.16896382 0.11567587 -0.10010027 0.14252861
0.1863205 0.25533888 -0.0071304077 0.07419718 -0.12011199 -0.013271437 -0.12358036 -0.039387614
0.1384982 -0.32074696 0.2183104 -0.015484997 -0.1530632 -0.030581001 0.10774058 -0.12714201
-0.2192991 0.16192204 0.03630482 0.10225247 -0.12143369 -0.18532802 -0.24884868 -0.068743356
0.18471584 -0.12599076 -0.14683254 0.13519849 -0.03455642 0.12743735 0.110783756 -0.08715951
-0.144372 0.108230315 0.1475241 0.11324391 -0.11469832 -0.1575911 0.07585258 -0.01969604
-0.30885777 0.06504313 0.066941574 -0.13193764 -0.11580657 -0.0903272 -0.09078315 -0.2083887
0.2145384 -0.2891063 0.039087232 -0.11149121 0.16781336 -0.03718348 -0.13252111 -0.23965959
-0.1912503 0.067023665 0.11178603 -0.08013836 0.045036383 -0.0024119678 -0.25866917 -0.21607599
0.21005413 0.0051407334 0.11452117 -0.18789396 0.14365771 0.03625288 0.108407535 0.15538317
0.16521348 -0.28862217 -0.08769552 -0.102153234 -0.07320404 -0.044481467 -0.13976598 0.08742611
0.06835793 -0.14735761 -0.15716763 0.029102162 0.039125025 -0.06324658 -0.029187378 -0.054197848
-0.09361824 -0.20589738 0.2195934 0.05128583 -0.09861786 0.107942544 -0.08669869 0.028466862
-0.16365927 -0.09889296 0.043838624 -0.16198796 0.055899307 -0.13858381 -0.049304083 -0.13804145
-0.14912722 -0.41931674 -0.24207622 -0.16059197 -0.048433576 -0.18689474 -0.010702165 0.15379743
0.106539555 -0.09072751 -0.07516459 0.21415204 0.043169804 0.116939865 0.060568124 -0.13118969
0.03561104 0.083639316 0.109374546 -0.06616213 -0.06587201 0.042047363 -0.124411814 0.07177135
-0.0986883 -0.08675346 0.20330545 -0.087978005 0.121243045 -0.15117459 0.024659526 0.11522914
-0.019857159 -0.12091293 0.05212811 0.15427491 -0.11287605 0.15680191 0.17111059 -0.17624366
0.2088901 0.04134926 -0.098289736 -0.11382729 -0.040919192 0.26276025 -0.0766537 -0.2307795
00000000: 2d13 c23d fcce 473e 7ee1 b93d 8877 c5bc
00000010: d8b4 1e3e 3288 97be 3924 8a3d 009b 003c
00000020: 90e5 283d bea8 8a3d 49ec 1c3e 6e23 043d
00000030: 414b 043e 56b1 9bbd b242 813d 8c1b 553c
00000040: cf3c 6f3e 5700 223e eb00 813d 0f7f d93d
00000050: 0d9c cfbd b6bf 1dbe b68c 183d 0634 04be
00000060: 9343 bdbd ad70 86bd a77e af3d 3052 4ebe
00000070: 1d63 eebc 76cd 103d d38d 3dbd ae16 0b3e
00000080: 9ef0 5ebd c4b5 c53d 4334 843d e4bd f73d
00000090: 3571 a43d 8064 63be 65e4 1abe 57cf babd
000000a0: cc74 653e dacb 603e 4279 17be 2332 1f3d
000000b0: 1415 d7bd 8e62 2d3b 7652 e43c 3341 36be
000000c0: 588f 4f3d a6da 84be ad55 323e df71 bbbd
000000d0: e24e 63bd 3d42 d2bc c94b 73bd 9982 393e
000000e0: 9b1b 363d fafc 97bd c340 f4bd 1675 1d3e
000000f0: 02d2 e83b 965c fabd c92d 9ebd 6db0 69bd
00000100: ac66 a3be 5af3 a8bc 978e 46be 886c 013d
00000110: 3ee5 1fbe dbb6 09be 9835 e03e b6c9 093e
00000120: 400f b3bd d498 2fbb 6631 803c 8a74 ecbd
00000130: 2381 d73d a613 233d eda9 473c a547 7ebe
00000140: c00f 4e3e 00dc 1e3e 470c 3f3d 5d23 da3d
00000150: b515 8abd 5266 62be cd2c 4cbd f220 333d
00000160: f7aa f0bd a2d8 a93d 6dd3 82be fbcc be3d
00000170: 9825 46bc 5515 943c 04c5 47bd daf8 b13b
00000180: 2be7 153e 4158 d1bd 79af 693e 3549 37bd
00000190: da04 2dbe 78e7 ec3d 5f01 cdbd 05f3 113e
000001a0: cdca 3e3e c7bb 823e 32a6 e9bb b1f4 973d
000001b0: 46fd f5bd 7170 59bc b317 fdbd e854 21bd
000001c0: 79d2 0d3e f238 a4be c38c 5f3e c9b4 7dbc
000001d0: 99bc 1cbe 0285 fabc 18a7 dc3d 8431 02be
000001e0: f18f 60be e4ce 253e 5db4 143d be69 d13d
000001f0: 3ab2 f8bd a1c6 3dbe 30d2 7ebe 51c9 8cbd
00000200: 2626 3d3e b903 01be 455b 16be 7971 0a3e
00000210: 088b 0dbd f07e 023e 98e2 e23d af80 b2bd
00000220: 41d6 13be dba7 dd3d 8f10 173e 6cec e73d
00000230: f4e6 eabd 905f 21be 9958 9b3d 9759 a1bc
00000240: 9b22 9ebe 5535 853d aa18 893d a91a 07be
00000250: ff2b edbd 78fd b8bd 84ec b9bd d963 55be
00000260: f4af 5b3e be05 94be ef19 203d 8155 e4bd
00000270: 44d7 2b3e b44d 18bd 9db3 07be 5369 75be
00000280: 1ed7 43be b443 893d 13f0 e43d 951f a4bd
00000290: 1278 383d 1b12 1ebb 4970 84be 0643 5dbe
000002a0: 6e18 573e 9973 a83b 138a ea3d 4667 40be
000002b0: 021b 133e e67d 143d c504 de3d c41c 1f3e
000002c0: b92d 293e 49c6 93be b599 b3bd b735 d1bd
000002d0: 00ec 95bd 3332 36bd d01e 0fbe 760c b33d
000002e0: 3eff 8b3d eae4 16be 8df0 20be a867 ee3c
000002f0: 9041 203d 6c87 81bd 5e1a efbc 90fe 5dbd
00000300: ebba bfbd c3d6 52be 18dd 603e 1711 523d
00000310: 29f8 c9bd fb10 dd3d 158f b1bd 5633 e93c
00000320: 4c96 27be 6488 cabd 2190 333d 2ce0 25be
00000330: acf6 643d eae8 0dbe 14f3 49bd bd5a 0dbe
00000340: ceb4 18be afb0 d6be d4e2 77be 3972 24be
00000350: 4962 46bd 5661 3fbe 2258 2fbc 137d 1d3e
00000360: 6931 da3d 58cf b9bd e4ef 99bd ac4a 5b3e
00000370: d2d2 303d 2b7e ef3d 4816 783d 9756 06be
00000380: e2dc 113d 174b ab3d c3ff df3d 0380 87bd
00000390: e8e7 86bd db39 2c3d 9fcb febd dcfc 923d
000003a0: 171d cabd ccab b1bd 4e2f 503e d02d b4bd
000003b0: 464e f83d 83cd 1abe c602 ca3c 41fd eb3d
000003c0: 7bab a2bc 33a1 f7bd 4984 553d 3efa 1d3e
000003d0: 8f2b e7bd ae90 203e 9d37 2f3e 3879 34be
000003e0: 49e7 553e d75d 293d 214c c9bd 481e e9bd
000003f0: e29a 27bd 8388 863e 9dfc 9cbd 7651 6cbe

transformer.encoder.layers.0.linear1.bias f4 [128]
-0.18055338 -0.10060181 0.02698125 0.12308482 -0.005715871 -0.013815601 0.12632702 -0.14165191
0.13747896 0.20689741 -0.25373077 0.24115215 0.09799049 0.044895295 0.007472303 0.09649513
0.09666841 -0.06601364 0.06541235 -0.01510468 -0.15742743 0.057375498 -0.19647872 0.031983864
-0.20406953 -0.0589944 0.15536524 -0.060474556 0.15839733 0.09847797 0.16810343 -0.35509428
-0.27343798 0.17450695 -0.109204434 0.124854185 -0.28012043 -0.060122102 -0.030840766 -0.06861207
0.077727094 -0.22496286 -0.0063282796 0.0983256 0.1310213 -0.00040409103 0.17522559 -0.026181145
-0.115452155 -0.19268371 -0.08650376 -0.21287853 -0.054057933 0.23790388 -0.20450678 0.21946804
-0.24629031 0.06947951 -0.15830833 -0.2525249 0.11704662 -0.18261854 -0.118191175 -0.12210374
-0.13136315 0.052456975 0.053681973 -0.19872823 0.17994398 0.11608913 0.037072696 0.06118188
0.17053628 -0.062455364 0.15168975 -0.012743035 -0.14343067 -0.22530706 -0.14728166 -0.06514442
-0.11751876 0.18357903 0.1888127 0.032103226 0.18007256 0.038738083 -0.1729633 -0.14276274
0.13578084 0.08152155 0.17902778 -0.09578361 -0.21328115 0.028444555 0.12256615 -0.08636092
0.02568488 0.12537567 -0.069712594 0.10560094 -0.1185052 -0.24686287 0.057168983 0.21761829
-0.25781184 -0.12672566 0.24800663 0.08873742 -0.15123515 0.1223299 0.1774679 -0.19517733
0.0265978 -0.1052428 -0.17515416 0.16463722 0.037348814 0.03321762 -0.024467397 0.1930511
0.17387925 0.06425433 -0.021453287 -0.09681208 0.013239934 0.16476849 0.08804204 -0.09199099
00000000: fce2 38be 5208 cebd c807 dd3c e513 fc3d
00000010: 344c bbbb d55a 62bc df5b 013e 330d 11be
00000020: 49c7 0c3e eadc 533e 00e9 81be 97f0 763e
00000030: 3daf c83d 21e4 373d 39da f43b 3d9f c53d
00000040: 16fa c53d 2932 87bd e9f6 853d 9f79 77bc
00000050: a834 21be 9202 6b3d b831 49be 8301 033d
00000060: 9af7 50be 1da4 71bd 1118 1f3e 2bb4 77bd
00000070: e932 223e d1ae c93d 4e23 2c3e ebce b5be
00000080: 1000 8cbe f3b1 323e 93a6 dfbd 8db3 ff3d
00000090: f26b 8fbe 9842 76bd c6a5 fcbc 7c84 8cbd
000000a0: 622f 9f3d aa5c 66be 755d cfbb ef5e c93d
000000b0: 732a 063e 2edc d3b9 566e 333e d779 d6bc
000000c0: 2e72 ecbd e14e 45be e228 b1bd d4fc 59be
000000d0: da6b 5dbd 139d 733e 3a6a 51be 3bbc 603e
000000e0: 8733 7cbe 464b 8e3d 941b 22be f24a 81be
000000f0: 23b6 ef3d 5b00 3bbe 370e f2bd 8711 fabd
00000100: 1084 06be 20dd 563d a1e1 5b3d 6a7f 4bbe
00000110: 3c43 383e 23c0 ed3d 8ad9 173d da99 7a3d
00000120: 10a1 2e3e 32d1 7fbd 8f54 1b3e 2ac8 50bc
00000130: 7ddf 12be e5b6 66be 01d1 16be 706a 85bd
00000140: adad f0bd 24fc 3b3e 1e58 413e ac7e 033d
00000150: f164 383e d3ab 1e3d 4b1d 31be 6530 12be
00000160: 220a 0b3e c5f4 a63d 0f53 373e 332a c4bd
00000170: 6066 5abe 8e04 e93c f603 fb3d fedd b0bd
00000180: 1969 d23c 7b62 003e 7ac5 8ebd 4e45 d83d
00000190: dbb2 f2bd 9fc9 7cbe 062a 6a3d 54d7 5e3e
000001a0: eaff 83be 5fc4 01be 73f5 7d3e f7bb b53d
000001b0: 63dd 1abe 1988 fa3d 25ba 353e 91dc 47be
000001c0: a1e3 d93c 8a89 d7bd 9d5b 33be a996 283e
000001d0: 12fb 183d 330f 083d da6f c8bc 30af 453e
000001e0: 670d 323e c697 833d cebe afbc 6945 c6bd
000001f0: 4fec 583c 12b9 283e 634f b43d c665 bcbd

transformer.encoder.layers.0.linear2.weight f4 [16, 128]
0.04862043 0.16006373 -0.13084397 0.059804365 0.102076024 0.111298226 -0.056595583 0.12607834
0.12877901 -0.09040688 0.041710403 -0.0055704084 -0.15569714 -0.15896049 -0.1601939 -0.110241435
0.047010336 -0.23220265 -0.14653997 0.1760053 -0.14191718 -0.08135753 -0.0500905 -0.101362474
-0.120777525 0.08773685 -0.16835438 -0.09730462 0.106151946 -0.0844177 0.090859085 -0.108725615
0.15633273 0.15714501 0.16128424 0.013465966 -0.114320315 0.08363208 0.11516463 -0.24922435
-0.08823537 -0.0985516 -0.2591748 0.16492338 -0.11760945 -0.090025336 0.1205346 -0.05300546
-0.23852873 0.09933575 -0.024404421 0.4718479 0.23929672 -0.19430281 0.10161111 0.23897682
0.026806641 -0.019557957 0.13092071 -0.09158481 0.039680135 -0.07186402 0.16975643 0.057601675
0.08240974 -0.09500565 0.18570817 0.2644652 0.20151314 0.16260955 -0.05504505 0.07978508
0.27444613 0.04770973 0.03765261 0.25830007 -0.035798926 0.114567734 -0.023453724 -0.051735435
0.013533329 -0.122340076 -0.18995401 0.08923419 0.12328349 0.06695658 0.05540178 0.102880135
0.15305194 0.20586334 0.09937777 -0.063779116 -0.12512426 0.02922156 0.08730915 0.26222613
0.017837515 -0.21999988 0.26588932 -0.18406251 -0.038050544 0.0071991375 -0.12033095 0.08938497
-0.0022909686 -0.10152711 0.013978433 0.007884489 0.33883616 0.0096537545 -0.17811726 0.24246296
-0.112274095 0.001623938 -0.3341288 0.047578167 0.120398484 0.06780776 0.13792379 0.0014342468
0.0746485 0.1223396 0.000538931 -0.006438767 0.101287134 0.058531426 0.111903764 0.33531737
-0.123697385 -0.11711764 0.16018973 0.01395463 -0.21317013 -0.008691157 0.13420425 -0.17085488
0.039175387 0.022807362 0.08772109 -0.017684923 -0.19543244 0.37728214 -0.08628931 -0.14431387
-0.0717461 0.1906611 -0.1648473 0.072615325 0.2347517 -0.11129452 -0.046195902 -0.23347118
0.037662275 0.2744779 -0.114049435 -0.018341595 -0.25494614 -0.108357176 0.13141556 0.033220038
-0.222538 0.088278405 -0.20660163 -0.09763489 -0.13348606 -0.18908185 -0.026826236 0.07740082
-0.043088738 -0.21951784 -0.093765564 0.402474 -0.020324029 0.06713909 -0.16673176 -0.046751354
-0.22808613 -0.18044673 -0.15477951 -0.038019415 0.19931056 0.11419566 0.2609124 0.1092837
0.40336898 -0.15504684 -0.26306686 -0.019899387 -0.22012451 0.04741973 -0.07398607 -0.20491788
-0.04854709 0.13354228 0.14366786 0.005219217 0.16362333 -0.01447223 -0.19525513 -0.070640065
0.38747832 -0.040641062 -0.043677792 0.16620961 0.06292736 0.025975386 -0.115970515 0.10302952
0.144836 0.17699863 -0.21475063 0.044070285 0.076270305 -0.024074305 0.1354028 -0.21706198
0.17846094 -0.28319928 -0.10759924 0.064187154 -0.21750414 -0.13900937 -0.010815852 -0.09722171
0.08572916 0.035370458 0.111563526 -0.03581397 -0.22024454 0.12280945 -0.004193028 0.102774
0.099868156 -0.3181087 0.0362631 0.0746741 -0.12952259 -0.11802902 0.22427355 0.034292456
-0.023074513 0.14198363 -0.27099344 -0.1336104 -0.043038994 -0.041167736 0.048651617 0.021954272
0.253017 0.070572 -0.14759299 -0.0735439 -0.055528205 -0.19417937 -0.06539988 -0.2197176
00000000: 3726 473d bfe7 233e f6fb 05be 6cf5 743d
00000010: 3c0d d13d 53f0 e33d c5d0 67bd ae1a 013e
00000020: a5de 033e 3e27 b9bd 87d8 2a3d f987 b6bb
00000030: 126f 1fbe 8ac6 22be df09 24be 43c6 e1bd
00000040: e98d 403d 88c6 6dbe 930e 16be bc3a 343e
00000050: bd52 11be c79e a6bd b22b 4dbd 2197 cfbd
00000060: 355a f7bd 61af b33d 1765 2cbe a547 c7bd
00000070: 3166 d93d 30e3 acbd 5414 ba3d 89ab debd
00000080: b015 203e 9fea 203e b227 253e 5ba0 5c3c
00000090: c520 eabd 4c47 ab3d 6fdb eb3d ab34 7fbe
000000a0: bfb4 b4bd 6cd5 c9bd 8fb2 84be ade1 283e
000000b0: 39dd f0bd 345f b8bd d8da f63d 411c 59bd
000000c0: e040 74be 8b70 cb3d c8eb c7bc 0c96 f13e
000000d0: 330a 753e 51f7 46be 7c19 d03d 57b6 743e
000000e0: 9a99 db3c 0238 a0bc 1410 063e d190 bbbd
000000f0: a387 223d 712d 93bd a1d4 2d3e bcef 6b3d
00000100: 70c6 a83d 5292 c2bd 482a 3e3e fc67 873e
00000110: 7659 4e3e 1e83 263e eb76 61bd 5c66 a33d
00000120: 3484 8c3e 476b 433d a039 1a3d e83f 843e
00000130: e5a1 12bd 7da2 ea3d 0622 c0bc 89e8 53bd
00000140: e5ba 5d3c 6f8d fabd 4e83 42be 6ac0 b63d
00000150: 0e7c fc3d 8820 893d faec 623d d2b2 d23d
00000160: a6b9 1c3e d7cd 523e 9386 cb3d a09e 82bd
00000170: 9320 00be 0e62 ef3c 24cf b23d 8142 863e
00000180: fb1f 923c a647 61be a522 883e e27a 3cbe
00000190: e3da 1bbd bee6 eb3b 1370 f6bd 780f b73d
000001a0: 1324 16bb 72ed cfbd cc05 653c f22d 013c
000001b0: ef7b ad3e c82a 1e3c 5f64 36be 3648 783e
000001c0: f6ef e5bd 51da d43a ee12 abbe 53e1 423d
000001d0: 7b93 f63d cbde 8a3d e53b 0d3e 56fd bb3a
000001e0: 50e1 983d 2f8d fa3d 0c47 0d3a 4bfc d2bb
000001f0: a16f cf3d a6be 6f3d cd2d e53d b8ae ab3e
00000200: 0e55 fdbd 60db efbd c708 243e f6a1 643c
00000210: 4549 5abe 5b65 0ebc d76c 093e 95f4 2ebe
00000220: 5f76 203d 81d6 ba3c 1da7 b33d f9df 90bc
00000230: 711f 48be 202b c13e 73b8 b0bd 04c7 13be
00000240: 9fef 92bd aa3c 433e bbcd 28be 58b7 943d
00000250: c062 703e 62ee e3bd ea37 3dbd 1213 6fbe
00000260: c243 1a3d 5e88 8c3e c092 e9bd 1d41 96bc
00000270: 4d88 82be 5eea ddbd cd91 063e bc11 083d
00000280: 00e1 63be 4fcb b43d 618f 53be cdf4 c7bd
00000290: 92b0 08be ac9e 41be b2c2 dbbc 5284 9e3d
000002a0: d17d 30bd 49c9 60be 2908 c0bd 1211 ce3e
000002b0: 947e a6bc 3880 893d bbbb 2abe 597e 3fbd
000002c0: 698f 69be 07c7 38be 857e 1ebe 3fba 1bbd
000002d0: 1118 4c3e 6adf e93d 4f96 853e 22d0 df3d
000002e0: 6186 ce3e 99c4 1ebe b3b0 86be 0a04 a3bc
000002f0: 5268 61be 313b 423d 0286 97bd fed5 51be
00000300: 50d9 46bd 4fbf 083e ab1d 133e f705 ab3b
00000310: e08c 273e ef1c 6dbc f6f0 47be bdab 90bd
00000320: 8f63 c63e 3e77 26bd 7ce7 32bd da32 2a3e
00000330: 0fe0 803d 55ca d43c f381 edbd 2401 d33d
00000340: e34f 143e 213f 353e 97e7 5bbe 0b83 343d
00000350: 9b33 9c3d 7a37 c5bc 08a7 0a3e 7f45 5ebe
00000360: 77be 363e 7fff 90be fe5c dcbd 8e74 833d
00000370: 68b9 5ebe 7958 0ebe f934 31bc 2d1c c7bd
00000380: c592 af3d 9de0 103d 6b7b e43d abb1 12bd
00000390: c987 61be 8583 fb3d ab65 89bb 2d7b d23d
000003a0: ad87 cc3d 25df a2be 9e88 143d bcee 983d
000003b0: 92a1 04be 33b9 f1bd f7a7 653e 3f76 0c3d
000003c0: c306 bdbc 2864 113e a7bf 8abe 2ad1 08be
000003d0: a849 30bd 809f 28bd eb46 473d 72d9 b33c
000003e0: 728b 813e 0e88 903d 9e22 17be 2f9e 96bd
000003f0: 8b71 63bd f5d6 46be 5ff0 85bd a7fd 60be

transformer.encoder.layers.0.linear2.bias f4 [16]
-0.041024417 0.07680647 0.057077415 -0.034875616 0.07829853 -0.049054533 -0.052004997 0.0065893014
0.06343291 -0.046205007 -0.05633063 -0.025491925 0.029781934 -0.083000936 -0.039968498 -0.09378661
00000000: 3809 28bd b64c 9d3d 02ca 693d bcd9 0ebd
00000010: fb5a a03d 68ed 48bd 3103 55bd 11eb d73b
00000020: 1de9 813d 7641 3dbd f2ba 66bd 71d4 d0bc
00000030: 3ef9 f33c 65fc a9bd 02b6 23bd 3213 c0bd

transformer.encoder.layers.0.norm1.weight f4 [16]
1.0950683 1.2059653 1.3316479 1.106088 1.1311723 0.93413293 1.0021393 0.90775555
0.7938424 0.94973445 0.9186594 0.9595162 0.8161513 0.89264745 1.0693603 0.9022958
00000000: 332b 8c3f 125d 9a3f 7073 aa3f 4b94 8d3f
00000010: 41ca 903f 5623 6f3f 1a46 803f ab62 683f
00000020: 4139 4b3f cc21 733f 432d 6b3f dba2 753f
00000030: 4bef 503f 8b84 643f cce0 883f dcfc 663f

transformer.encoder.layers.0.norm1.bias f4 [16]
0.097371235 -0.024174634 0.018897805 -0.05748904 0.036452956 -0.13814658 0.08236919 0.046171598
0.08862594 -0.021485059 0.07810469 0.017987566 0.0037413535 0.057939883 -0.0040665716 -0.06506691
00000000: 926a c73d e209 c6bc 92cf 9a3c a179 6bbd
00000010: b24f 153d 4c76 0dbe 2eb1 a83d 6e1e 3d3d
00000020: 8481 b53d 6f01 b0bc 5af5 9f3d a95a 933c
00000030: 7f31 753b 5f52 6d3d e040 85bb cd41 85bd

transformer.encoder.layers.0.norm2.weight f4 [16]
1.1449093 1.2201481 0.9942825 1.089211 1.1537074 1.0188532 1.1250681 0.91949487
0.98241234 1.013933 0.9638427 1.0063863 0.84534734 1.048008 1.0505266 1.0156596
00000000: 638c 923f d02d 9c3f 4c89 7e3f 446b 8b3f
00000010: afac 933f c869 823f 3b02 903f 0464 6b3f
00000020: 607f 7b3f 8ec8 813f 65be 763f 44d1 803f
00000030: af68 583f 2025 863f a877 863f 2201 823f

transformer.encoder.layers.0.norm2.bias f4 [16]
0.028582929 -0.011010286 0.03667282 -0.011905949 0.020740544 0.050446723 -0.0722245 0.020761957
-0.015731746 -0.058086075 0.010513686 -0.010104211 0.00076114305 -0.019203825 0.025043763 0.02207316
00000000: bf26 ea3c 7d64 34bc 3d36 163d 2b11 43bc
00000010: 13e8 a93c 39a1 4e3d 70ea 93bd fb14 aa3c
00000020: dddf 80bc aaeb 6dbd 9841 2c3c 228c 25bc
00000030: 7287 473a 5751 9dbc 9428 cd3c c6d2 b43c

transformer.encoder.layers.1.self_attn.in_proj_weight f4 [48, 16]
0.0015344912 0.34344664 0.060211156 0.15229096 0.41046664 0.16416298 -0.5169182 0.12772079
-0.36442322 -0.026697755 -0.20818754 -0.033987366 -0.17051871 -0.37526032 -0.017149135 0.118793935
0.32963428 -0.04009087 0.29764748 -0.2651049 0.37337676 -0.2769071 -0.1081835 0.013133268
-0.075462185 -0.1488356 0.08659173 -0.11146166 0.010507503 0.006682954 -0.004338257 -0.11881096
0.25528643 -0.15653841 -0.18421875 -0.06339413 -0.32793403 0.073711626 -0.024168395 -0.13064587
0.08226391 0.06382346 0.20718078 0.0054349573 0.102522686 0.200303 0.19785032 0.06711771
-0.1527167 -0.17047915 0.09030775 0.29921612 0.37188098 0.3227802 -0.22725627 -0.27319863
0.09994334 0.27821788 0.14673997 0.028204467 0.12382916 -0.40715867 0.39893183 0.39652988
0.22883698 0.28426567 -0.15213452 -0.14138603 -0.006588838 0.06654105 0.2320795 -0.107634775
-0.06800779 0.017122373 0.23152953 0.2932054 -0.19685723 -0.14348039 -0.14886037 -0.29566938
0.3879186 -0.19592993 0.48846066 -0.1008283 0.17071675 -0.2873537 -0.24608044 0.005771808
-0.15623048 -0.18783975 0.024907185 -0.34093627 0.20193388 -0.18646897 -0.05062387 0.20763372
0.0356912 -0.32888567 0.001637487 -0.029352626 -0.2739728 -0.23903225 -0.19881938 -0.06527058
0.33882034 0.48413914 -0.1100538 0.48404205 0.16314244 0.2698385 0.12136239 0.11963832
-0.43368885 -0.26743802 -0.014274101 -0.18960468 -0.32171708 -0.13311392 0.09276393 -0.0005005976
0.32134736 0.08556536 0.26912463 0.30256057 0.07219242 -0.015345017 0.07810208 0.030284
0.0006750007 0.27071488 -0.35736877 -0.4470014 -0.13123295 -0.11646321 0.1674952 -0.007262475
0.21517211 0.07779844 -0.10682584 -0.09599299 -0.26054272 -0.11929195 -0.06702808 0.27019477
0.119532 -0.27322567 -0.24444538 0.22313413 -0.3095491 0.36476147 -0.04149787 -0.064574495
0.0437844 0.11815972 0.15447533 0.047881708 -0.10594983 0.049858622 0.16376573 -0.29316843
-0.13157804 -0.11446674 0.26656818 0.3650478 -0.27828243 0.14569202 0.2590467 0.12934925
0.3678233 -0.42085552 -0.15164047 0.23399462 0.37487257 0.17675269 0.03188717 -0.16760921
0.19321407 0.26187375 0.18680501 -0.21660098 0.2806311 0.118753076 -0.069259174 -0.06626092
-0.5214147 -0.0050946358 0.0024334416 -0.061714534 -0.39364657 -0.13697657 -0.2508765 0.45173183
0.08419452 0.2647421 0.025233787 -0.11761274 0.052347858 0.23215954 -0.04045987 -0.16234398
0.022212865 -0.33034286 0.004876016 0.17179605 0.12822834 -0.37259158 0.32291415 0.39166656
-0.22149467 0.23776077 0.33912015 0.40071627 -0.07520696 0.0178556 0.05953089 -0.17289388
-0.24246389 -0.258938 -0.27529854 0.12799874 -0.012602672 -0.15485981 0.18989678 -0.2338206
0.22191185 0.26548234 0.14953905 0.04006418 0.20641863 -0.22225673 -0.059333906 0.09481762
0.0009193617 0.031747803 -0.30369157 0.004660385 -0.2526172 0.22971494 0.133139 -0.20067824
-0.2586382 0.3969616 0.3635216 0.08741856 0.2869832 -0.06434913 -0.20782131 0.2218466
-0.029384492 -0.1424404 0.20459661 -0.15828307 -0.083769545 0.00023485506 -0.25131735 0.11009296
00000000: fb20 c93a 3dd8 af3e f99f 763d 29f2 1b3e
00000010: af28 d23e 571a 283e c054 04bf 3dc9 023e
00000020: ae95 babe 40b5 dabc 1d2f 55be 5636 0bbd
00000030: 759c 2ebe 1f22 c0be 587c 8cbc 3c4a f33d
00000040: d3c5 a83e 5336 24bd 4065 983e d4bb 87be
00000050: 3d2b bf3e c4c6 8dbe 508f ddbd eb2c 573c
00000060: eb8b 9abd 5c68 18be 0157 b13d 0346 e4bd
00000070: a927 2c3c aefc da3b f027 8ebb 2953 f3bd
00000080: e7b4 823e 9b4b 20be d7a3 3cbe c8d4 81bd
00000090: f8e6 a7be 1ff6 963d ccfc c5bc 08c8 05be
000000a0: fb79 a83d e0b5 823d 3327 543e ba17 b23b
000000b0: 6af7 d13d 3b1c 4d3e 4699 4a3e 0375 893d
000000c0: c461 1cbe 1692 2ebe 45f3 b83d db32 993e
000000d0: 2f67 be3e 7243 a53e deb5 68be b1e0 8bbe
000000e0: 18af cc3d 9372 8e3e 0143 163e 0e0d e73c
000000f0: 259a fd3d 1a77 d0be cb40 cc3e f705 cb3e
00000100: 3e54 6a3e 458b 913e 27c9 1bbe 80c7 10be
00000110: 2ee7 d7bb ad46 883d 40a6 6d3e 9f6f dcbd
00000120: ab47 8bbd 3844 8c3c 1416 6d3e 051f 963e
00000130: f194 49be 86ec 12be da6e 18be fa61 97be
00000140: 449d c63e dba1 48be 8417 fa3e 117f cebd
00000150: 5fd0 2e3e 0620 93be 83fc 7bbe 6f21 bd3b
00000160: e2fa 1fbe 1059 40be 270a cc3c 338f aebe
00000170: c1c7 4e3e b9f1 3ebe fa5a 4fbd ef9d 543e
00000180: f030 123d b463 a8be f2a0 d63a eb74 f0bc
00000190: 2a46 8cbe dfc4 74be 4f97 4bbe 95ac 85bd
000001a0: dc79 ad3e 16e1 f73e e363 e1bd 5cd4 f73e
000001b0: d00e 273e 4628 8a3e d88c f83d ef04 f53d
000001c0: 770c debe a3ed 88be ebdd 69bc bb27 42be
000001d0: 1ab8 a4be 044f 08be 04fb bd3d 893a 03ba
000001e0: a487 a43e e43c af3d b4ca 893e 38e9 9a3e
000001f0: 9fd9 933d ab69 7bbc fcf3 9f3d 2716 f83c
00000200: 88f2 303a 249b 8a3e 0af9 b6be 5edd e4be
00000210: ee61 06be 4384 eebd dd83 2b3e 0efa edbb
00000220: 1456 5c3e ca54 9f3d 82c7 dabd f997 c4bd
00000230: db65 85be 564f f4bd 0546 89bd f856 8a3e
00000240: 31cd f43d 3ce4 8bbe e44f 7abe 467d 643e
00000250: 387d 9ebe 04c2 ba3e acf9 29bd a23f 84bd
00000260: 4557 333d b9fd f13d c82e 1e3e 9c1f 443d
00000270: 39fc d8bd 8e38 4c3d 34b2 273e 2c1a 96be
00000280: 65bc 06be 8a6d eabd a07b 883e 8ce7 ba3e
00000290: 097b 8ebe 4a30 153e c5a1 843e 2174 043e
000002a0: 5653 bc3e 607a d7be a447 1bbe 499c 6f3e
000002b0: 4cef bf3e a8fe 343e 1f9c 023d c0a1 2bbe
000002c0: e9d9 453e 5114 863e d049 3f3e a6cc 5dbe
000002d0: e1ae 8f3e d034 f33d c1d7 8dbd ceb3 87bd
000002e0: 6f7b 05bf e7f0 a6bb 607a 1f3b 61c8 7cbd
000002f0: 0b8c c9be 9643 0cbe e272 80be 6549 e73e
00000300: 2d6e ac3d 478c 873e 16b7 ce3c f3de f0bd
00000310: b56a 563d 3bbb 6d3e 40b9 25bd 803d 26be
00000320: c1f7 b53c b322 a9be fdc6 9f3b 4eeb 2f3e
00000330: 4a4e 033e 53c4 bebe 0155 a53e 8588 c83e
00000340: 80cf 62be 8f77 733e 28a1 ad3e af2a cd3e
00000350: 1b06 9abd e845 923c aad6 733d 180b 31be
00000360: 7448 78be 8693 84be eef3 8cbe 1a12 033e
00000370: 707b 4ebc 9293 1ebe 4d74 423e ab6e 6fbe
00000380: dc3c 633e 4ded 873e c420 193e 561a 243d
00000390: 685f 533e 4597 63be 1c08 73bd be2f c23d
000003a0: 5201 713a fc09 023d 767d 9bbe 25b6 983b
000003b0: 0b57 81be 653a 6b3e 9755 083e 997e 4dbe
000003c0: 3a6c 84be 8d3e cb3e 811f ba3e 8108 b33d
000003d0: 76ef 923e 7ac9 83bd 1ccf 54be c12b 633e
000003e0: bfb7 f0bc e5db 11be c681 513e f514 22be
000003f0: 5e8f abbd 6d43 7639 abac 80be 6b78 e13d

transformer.encoder.layers.1.self_attn.in_proj_bias f4 [48]
0.22265486 0.08938055 -0.16784742 0.121139556 -0.036332026 0.16235934 -0.09714923 -0.13403952
-0.008918072 -0.08111119 -0.26693475 0.27055496 0.039512295 -0.04359118 0.045517385 0.09093793
-0.0017144032 0.000578519 0.000762955 0.0026160555 -2.517393e-05 0.00019000562 -0.00031341854 -0.00059560203
0.00019432355 -0.0007272054 0.001164576 -0.0015108187 -0.00020472296 3.4675752e-06 0.00016784077 -0.00048015366
-0.029480333 -0.013904655 -0.018105885 -1.2394326e-05 -0.014997851 0.025440836 -0.011537238 0.033508256
0.018205963 0.034888588 -0.0039005822 -0.016622085 0.019789806 0.00023030632 -0.007553857 0.0014270255
00000000: a3ff 633e 260d b73d 32e0 2bbe 0418 f83d
00000010: e4d0 14bd 8741 263e 2df6 c6bd a841 09be
00000020: 1b1d 12bc a01d a6bd acab 88be 2e86 8a3e
00000030: a5d7 213d aa8c 32bd 7070 3a3d aa3d ba3d
00000040: d3b5 e0ba c1a7 173a 0b01 483a 2172 2b3b
00000050: 9a2c d3b7 3f3c 4739 5352 a4b9 2d22 1cba
00000060: 55c3 4b39 eea1 3eba b0a4 983a aa06 c6ba
00000070: e7aa 56b9 7db4 6836 6afe 2f39 22bd fbb9
00000080: bd80 f1bc 5ad0 63bc cb52 94bc 3af1 4fb7
00000090: 8cb9 75bc 4d69 d03c af06 3dbc f43f 093d
000000a0: ac24 953c 56e7 0e3d e9a0 7fbb 0a2b 88bc
000000b0: 3b1e a23c 627e 7139 5886 f7bb 080b bb3a

transformer.encoder.layers.1.self_attn.out_proj.weight f4 [16, 16]
-0.41673565 0.3919771 0.15215036 0.20579723 0.18808202 0.0772193 -0.19350983 -0.18788919
0.20497365 -0.06533846 -0.5269161 0.1874666 0.33892986 -0.054245677 -0.050213616 -0.34386346
0.09568332 -0.23956767 -0.13492635 0.32066208 0.273429 -0.018014466 -0.42569584 0.12333677
0.21442437 0.34285262 0.24620886 0.40607995 -0.30747145 -0.17317347 -0.037685554 0.36501822
-0.0127290925 0.46529022 0.50378776 -0.13608205 0.3735701 -0.16518891 0.23011369 -0.22572069
-0.38795114 0.16128638 0.19533741 0.06621259 -0.3518627 0.48171827 0.2359574 -0.0070093106
-0.40283388 -0.25044373 -0.15789828 0.19011556 0.36840296 -0.44403386 -0.25429317 -0.18814285
0.38674542 -0.1721129 -0.1125073 0.24428181 -0.2841801 0.26000398 -0.21470259 -0.109816484
-0.19128233 -0.03427875 -0.37956452 -0.14871773 0.28640217 -0.16858253 -0.19124784 0.24573074
0.40853453 -0.27729595 -0.12784208 0.25595373 0.20953995 0.09274138 -0.25569454 -0.072418675
-0.1117012 -0.27037436 0.61668414 -0.23326787 0.3319392 0.062423203 0.05745211 0.03489086
-0.02761265 -0.32566893 0.14527823 -0.28619257 -0.2664739 0.30906206 -0.07176748 -0.25499445
0.40052113 -0.05705198 -0.01182175 -0.57179636 0.38797107 -0.45210096 -0.37490827 0.02222311
0.120610915 0.09271956 -0.3512617 -0.46104464 -0.14794706 -0.07597729 -0.3772662 -0.1794425
-0.16885398 0.047601476 0.22463593 0.4027234 0.22803605 0.10820386 -0.27715376 -0.3275602
0.1578934 -0.13717882 -0.21990737 -0.37370232 -0.39886343 -0.24943107 -0.031077513 0.34706908
-0.1642875 0.11916013 -0.3023247 -0.3394689 -0.3471641 0.34271196 -0.15078855 -0.18052138
-0.05299113 0.08271121 0.010347723 -0.4260509 -0.055768795 -0.015272649 0.32337663 0.05978038
-0.27488762 0.2568375 0.30833068 0.14631957 0.20891346 -0.16142416 -0.21627992 -0.37492278
0.12949795 0.36467052 0.60143095 0.46638712 0.03669508 -0.01120505 -0.11034007 0.19613053
0.36376798 0.12717356 0.369671 -0.12766145 -0.27024165 0.3168869 0.29113123 0.11551608
-0.09732103 0.14417727 -0.3959389 0.07022999 0.4026227 0.27484533 0.21742909 0.014523919
-0.08597508 0.2288462 0.23882183 -0.14477535 0.24397175 -0.24251094 0.31008226 0.23153754
0.30399686 -0.11353364 0.37067598 0.15096247 -0.13970572 -0.44243443 -0.10573742 0.03725695
-0.2036805 -0.3851547 -0.35378316 0.22470808 0.20852023 -0.12835546 0.05646874 -0.24154752
0.18572251 -0.2120654 0.36069456 0.44352162 -0.020733356 -0.42802867 0.089898944 -0.30400133
0.26345894 -0.12310611 -0.20977521 0.008151765 0.33595985 -0.354192 0.105669186 0.19267493
-0.1901104 -0.09806979 0.3208381 -0.11263662 0.19664183 -0.24313462 0.18231067 0.30624926
-0.30799645 0.16855833 -0.10953057 0.1987364 -0.2837236 0.25513026 -0.21634784 0.29236394
0.10122677 -0.13951617 0.29713425 -0.42254856 3.177348e-07 -0.20297135 -0.22316913 -0.0780588
0.034173902 -0.30358684 -0.16510415 0.24138172 0.15546231 -0.13975702 0.21414165 0.26287097
0.3670349 0.17405316 -0.44267112 0.16138986 -0.2680238 -0.026456198 -0.28101683 0.053442482
00000000: 605e d5be 39b1 c83e 4ecd 1b3e 82bc 523e
00000010: 9398 403e 2725 9e3d 7127 46be 0666 40be
00000020: 9de4 513e 2cd0 85bd f9e3 06bf 3ff7 3f3e
00000030: 3788 ad3e b730 5ebd cbac 4dbd df0e b0be
00000040: 9ef5 c33d 3a51 75be 222a 0abe d22d a43e
00000050: e3fe 8b3e 1393 93bc cef4 d9be fd97 fc3d
00000060: 1092 5b3e 618a af3e 2d1e 7c3e b6e9 cf3e
00000070: e66c 9dbe 6354 31be 2b5c 1abd abe3 ba3e
00000080: af8d 50bc 853a ee3e 3cf8 003f 1859 0bbe
00000090: 9544 bf3e 4827 29be eca2 6b3e 5323 67be
000000a0: 88a1 c6be 4228 253e 8806 483e 779a 873d
000000b0: 5927 b4be c7a3 f63e d19e 713e 5cae e5bb
000000c0: 3e40 cebe 293a 80be 16b0 21be a7ad 423e
000000d0: 509f bc3e 6858 e3be b732 82be 85a8 40be
000000e0: 7f03 c63e 5d3e 30be 3a6a e6bd 0325 7a3e
000000f0: 0e80 91be 3e1f 853e ffda 5bbe 77e7 e0bd
00000100: 84df 43be e067 0cbd 4856 c2be 7649 18be
00000110: 4ea3 923e e6a0 2cbe 79d6 43be d7a0 7b3e
00000120: 702b d13e bcf9 8dbe 09e9 02be 5e0c 833e
00000130: a491 563e 31ef bd3d 65ea 82be 3e50 94bd
00000140: 99c3 e4bd 826e 8abe 03df 1d3f c6dd 6ebe
00000150: eff3 a93e 79af 7f3d e752 6b3d b8e9 0e3d
00000160: ed33 e2bc 14be a6be d1c3 143e d587 92be
00000170: 446f 88be 623d 9e3e d4fa 92bd a28e 82be
00000180: 1b11 cd3e 56af 69bd 03b0 41bc 3f61 12bf
00000190: 25a4 c63e c779 e7be faf3 bfbe 3d0d b63c
000001a0: db02 f73d c1e3 bd3d 93d8 b3be 0b0e ecbe
000001b0: 6f7f 17be fb99 9bbd 0929 c1be c6bf 37be
000001c0: 0fe8 2cbe c4f9 423d f606 663e c331 ce3e
000001d0: 4882 693e fc99 dd3d 19e7 8dbe f8b5 a7be
000001e0: cfae 213e 9b78 0cbe 662f 61be e955 bfbe
000001f0: d437 ccbe dc6a 7fbe 4596 febc 0ab3 b13e
00000200: fb3a 28be 3a0a f43d 4eca 9abe dece adbe
00000210: 7ebf b1be f177 af3e 5068 1abe 99da 38be
00000220: 3a0d 59bd 7f64 a93d 7f89 293c 5823 dabe
00000230: d26d 64bd 223a 7abc 9f91 a53e 46dc 743d
00000240: 12be 8cbe 3480 833e 85dd 9d3e ccd4 153e
00000250: 69ed 553e 604c 25be 7c78 5dbe e1f5 bfbe
00000260: 1c9b 043e 18b6 ba3e 61f7 193f 4bca ee3e
00000270: 954d 163d 6395 37bc faf9 e1bd 71d6 483e
00000280: cc3f ba3e c939 023e 8445 bd3e afb9 02be
00000290: 1d5d 8abe 003f a23e 270f 953e b293 ec3d
000002a0: 4050 c7bd 35a3 133e 81b8 cabe bed4 8f3d
000002b0: 9024 ce3e 87b8 8c3e bba5 5e3e bbf5 6d3c
000002c0: b413 b0bd a956 6a3e b68d 743e fd3f 14be
000002d0: bbd3 793e ca54 78be 1ac3 9e3e 2d18 6d3e
000002e0: 7aa5 9b3e 5384 e8bd 3ec9 bd3e e895 1a3e
000002f0: 040f 0fbe c486 e2be dc8c d8bd be9a 183d
00000300: 9f91 50be ff32 c5be 1123 b5be e019 663e
00000310: 5486 553e 9d6f 03be c44b 673d 3c58 77be
00000320: 0b2e 3e3e ac27 59be f5ac b83e 4415 e33e
00000330: 00d9 a9bc 9326 dbbe f01c b83d 10a6 9bbe
00000340: 17e4 863e 0e1f fcbd 50cf 56be fb8e 053c
00000350: ee02 ac3e a758 b5be 1669 d83d 944c 453e
00000360: 4dac 42be d0d8 c8bd e444 a43e 07ae e6bd
00000370: 7a5c 493e 48f8 78be a6af 3a3e b4cc 9c3e
00000380: b6b1 9dbe 8e9a 2c3e 9051 e0bd 8e81 4b3e
00000390: 3844 91be 6fa0 823e 4a8a 5dbe bab0 953e
000003a0: fb4f cf3d 54dd 0ebe fb21 983e 4958 d8be
000003b0: 2395 aa34 b9d7 4fbe 7386 64be 4bdd 9fbd
000003c0: eff9 0b3d bc6f 9bbe 1011 29be c52c 773e
000003d0: 8331 1f3e 771c 0fbe f347 5b3e 0697 863e
000003e0: 00ec bb3e fe3a 323e caa5 e2be 6243 253e
000003f0: 6a3a 89be abba d8bc 70e1 8fbe 81e6 5a3d

transformer.encoder.layers.1.self_attn.out_proj.bias f4 [16]
0.0042155883 -0.00051928975 -0.029709212 -0.007973083 0.0111553 0.020353643 -0.03811654 -0.000994667
0.054662038 -0.028897865 -0.0044220407 0.005978612 -0.006599642 -0.04577557 0.04371138 0.03209176
00000000: eb22 8a3b f220 08ba bc60 f3bc 89a1 02bc
00000010: b8c4 363c afbc a63c 1720 1cbd 7c5f 82ba
00000020: 4de5 5f3d 37bb ecbc c4e6 90bb 3ce8 c33b
00000030: cf41 d8bb 2a7f 3bbd b40a 333d a672 033d
