public/models/forecasting/transformer_fine_tuned.pt.ckpt (torch, 178855 bytes, 204 tensors)

encoder.weight f4 [16, 2]
0.09272191 -0.13035947 -0.031040777 0.044682067 0.17839271 0.457306 -0.22040996 0.3781
-0.4120419 0.5151306 0.44347647 -0.4072278 -0.27237225 -0.49121347 -0.1302493 0.17988831
0.35248837 0.093787566 -0.5504281 0.24482387 -0.16928521 -0.5067164 -0.8310802 -0.39017093
-0.053798273 -0.3666889 -0.078359574 -0.38475087 -0.122458346 -0.31639236 -0.8152317 -0.22169027
00000000: fce4 bd3d f47c 05be 3a49 febc 8b04 373d
00000010: 94ac 363e 0324 ea3e 26b3 61be 5396 c13e
00000020: 28f7 d2be 99df 033f 590f e33e 2a80 d0be
00000030: 6074 8bbe 5580 fbbe 1360 05be a434 383e
00000040: 5b79 b43e b213 c03d dbe8 0cbf 1cb3 7a3e
00000050: 1a59 2dbe 2ab8 01bf acc1 54bf 7cc4 c7be
00000060: 945b 5cbd a6be bbbe fc7a a0bd 11fe c4be
00000070: 71cb fabd 2efe a1be 06b3 50bf c602 63be

encoder.bias f4 [16]
-0.10996474 -0.2645369 -0.44634572 -0.33843842 -0.3702088 0.19586627 0.4190642 -0.3266149
-0.40557346 -0.6229403 0.2418502 0.2586745 -0.33765757 -0.27118376 0.34246853 0.35436824
00000000: 3235 e1bd 6171 87be 6d87 e4be cd47 adbe
00000010: 028c bdbe 2b91 483e 958f d63e 113a a7be
00000020: 53a7 cfbe 0479 1fbf 94a7 773e fc70 843e
00000030: 74e1 acbe 99d8 8abe 0958 af3e c16f b53e

transformer.encoder.layers.0.self_attn.in_proj_weight f4 [48, 16]
-0.250291 -0.13324255 -0.030248167 0.49857545 -0.25771156 0.4117542 0.12949541 0.08823277
0.05966201 -0.2561615 -0.016227202 0.054776683 -0.23279141 0.38077348 0.30446127 0.4404955
-0.517299 -0.64080626 0.3607652 0.08074958 0.09492598 0.23366694 0.76057905 0.2683181
-0.3983317 -0.63741004 -0.22897658 0.7637689 -0.675564 0.22595505 0.6342748 0.7509918
-0.12499876 0.0113874 0.3932156 -0.1122032 -0.30528325 0.5542698 0.39207083 0.23058026
-0.32549942 -0.10236649 -0.3158181 0.35988227 -0.33581173 0.16824923 0.15706532 0.51563126
0.4702482 0.25724506 -0.26353306 -0.023197578 0.13807371 -0.36709756 -0.5957273 -0.37309593
0.3422606 0.71093905 0.040476844 -0.09418786 0.539696 -0.15070125 -0.017759485 -0.53639334
0.37248424 -0.091776766 0.205784 0.0135121 0.09184928 -0.4328503 -0.17304477 0.092695445
0.19417438 0.026343709 -0.41539264 -0.24768783 0.39436704 0.120457925 -0.175159 -0.15657699
-0.18238361 0.05195226 0.45812744 0.032557797 -0.008861674 -0.15023613 0.16855568 0.06650592
0.06627527 0.23526697 -0.16190478 -0.23558283 -0.20814762 -0.33237833 -0.024993481 -0.15853444
-0.30744055 -0.18720824 -0.66072464 0.18138632 0.4209033 0.22936602 0.3971969 0.26762626
-0.36944428 -0.21765134 -0.14366367 0.4211645 -0.25428706 0.100980975 -0.077007815 0.12153534
-0.16774154 -0.22475329 0.23873122 0.40963373 -0.4879282 -0.13370012 -0.62947774 -0.2104228
-0.21918215 0.31112498 -0.10415791 -0.0864317 0.20087294 0.12922235 -0.4164385 -0.49655166
0.22786832 0.3376889 0.13354373 0.44498944 0.0036797884 -0.2614553 -0.39645413 -0.42036834
0.118470006 0.31206748 -0.037787467 -0.31052637 0.3512026 -0.18241084 -0.38467765 -0.042155642
-0.2271102 -0.09514275 0.101540074 0.41174 -0.16136225 -0.3897372 -0.315617 -0.12345122
0.28772566 0.48170474 0.42143407 -0.5685214 0.44739428 -0.09957633 -0.43203542 -0.018614009
-0.25336823 -0.48167753 0.071072616 -0.5889715 -0.2725815 0.43233448 0.23494995 0.25040027
-0.6556052 -0.35443217 0.13479361 0.5157546 -0.115827605 0.5667963 0.5067471 0.4254204
0.46580008 0.53172946 -0.5462869 0.5597703 -0.33104447 -0.5042685 -0.19590387 -0.5004214
0.05625907 0.18728416 0.550121 -0.32842317 0.55881554 -0.13946725 -0.056427 -0.1961141
-0.45822045 -0.35009253 0.82597905 0.42688534 -0.5726394 0.24102989 0.58586407 0.4939347
-0.2639914 -0.3915125 -0.15358518 0.24456367 -0.0053479103 -0.014251741 0.5828489 0.41933218
0.4353312 0.19151697 -0.3042313 -0.18999176 0.9026474 -0.07559615 -0.21312526 -0.39745092
0.16086362 0.22672178 -0.077733494 -0.21751876 -0.04019047 0.033918943 -0.41215482 -0.36479324
-0.049778208 0.16321316 -0.28264987 -0.13873634 0.7140391 -0.08233571 -0.13433021 -0.32687327
0.007247357 -0.2546415 0.15148908 -0.091327354 0.14732364 -0.10256835 -0.17642063 0.11191575
0.36643276 -0.38573903 -0.46707365 -0.17843413 0.985107 -0.4572037 0.024980295 -0.37322748
0.3733203 0.13945183 -0.18650857 -0.23982558 0.09488621 -0.41781995 -0.46287552 -0.33859077
00000000: 2426 80be bc70 08be 01cb f7bc 4845 ff3e
00000010: c5f2 83be 72d1 d23e 729a 043e 62b3 b43d
00000020: 2760 743d 9a27 83be e9ee 84bc 845d 603d
00000030: df60 6ebe bef4 c23e 59e2 9b3e a088 e13e
00000040: b56d 04bf e10b 24bf 37b6 b83e 0960 a53d
00000050: 8d68 c23d 6346 6f3e 4fb5 423f fd60 893e
00000060: 22f2 cbbe 4e2d 23bf d678 6abe 5c86 433f
00000070: c3f1 2cbf c360 673e d55f 223f 0041 403f
00000080: 5aff ffbd 3892 3a3c 8e53 c93e cbca e5bd
00000090: 164e 9cbe a0e4 0d3f 82bd c83e 3b1d 6c3e
000000a0: dca7 a6be 86a5 d1bd e9b2 a1be 7d42 b83e
000000b0: 84ef abbe 8749 2c3e bbd5 203e 6900 043f
000000c0: 5fc4 f03e a0b5 833e ceed 86be d908 bebc
000000d0: 3263 0d3e 36f4 bbbe 9681 18bf 6e06 bfbe
000000e0: c83c af3e 1a00 363f 0ccb 253d 91e5 c0bd
000000f0: 8429 0a3f 6e51 1abe 577c 91bc 1351 09bf
00000100: 41b6 be3e 75f5 bbbd 0ab9 523e db61 5d3c
00000110: 7a1b bc3d 8e9e ddbe a632 31be 1cd7 bd3d
00000120: a6d5 463e c3ce d73c 58ae d4be e1a1 7dbe
00000130: 7aea c93e a5b2 f63d e25c 33be b855 20be
00000140: c5c2 3abe e5cb 543d ae8f ea3e 535b 053d
00000150: 8e30 11bc 80d7 19be dc99 2c3e 4134 883d
00000160: 54bb 873d d3e9 703e 5eca 25be a03c 71be
00000170: a624 55be 7e2d aabe 21bf ccbc da56 22be
00000180: d968 9dbe 84b3 3fbe 4025 29bf 56bd 393e
00000190: a380 d73e edde 6a3e 645d cb3e 4f06 893e
000001a0: cd27 bdbe fedf 5ebe 921c 13be e0a2 d73e
000001b0: ea31 82be 1dcf ce3d 46b6 9dbd 85e7 f83d
000001c0: 70c4 2bbe ba25 66be f575 743e 83bb d13e
000001d0: bad1 f9be afe8 08be 7425 21bf 1379 57be
000001e0: 4971 60be c64b 9f3e be50 d5bd 1a03 b1bd
000001f0: a3b1 4d3e dd52 043e 6d37 d5be 053c febe
00000200: 5056 693e 8fe5 ac3e b0bf 083e a8d5 e33e
00000210: 9b28 713b 78dd 85be 09fc cabe 853a d7be
00000220: 67a0 f23d 4fc7 9f3e 08c7 1abd 50fd 9ebe
00000230: d4d0 b33e e8c9 3abe 78f4 c4be 65ab 2cbd
00000240: 948f 68be 34da c2bd 3ef4 cf3d 96cf d23e
00000250: 253c 25be a28b c7be 8d98 a1be fed3 fcbd
00000260: c750 933e 01a2 f63e 35c6 d73e 9e8a 11bf
00000270: dd10 e53e adee cbbd bf33 ddbe 687c 98bc
00000280: 7bb9 81be 709e f6be 858e 913d d6c6 16bf
00000290: cd8f 8bbe f25a dd3e b896 703e 7734 803e
000002a0: bed5 27bf 2278 b5be 5607 0a3e 7e08 043f
000002b0: 0637 edbd 9019 113f 2eba 013f b4d0 d93e
000002c0: 597d ee3e 6c1f 083f 75d9 0bbf 1b4d 0f3f
000002d0: a97e a9be be17 01bf 069b 48be 9e1b 00bf
000002e0: e96f 663d 6bc7 3f3e bbd4 0c3f 1527 a8be
000002f0: 890e 0f3f 81d0 0ebe ff1f 67bd 22d2 48be
00000300: df9b eabe 543f b3be 5d73 533f b790 da3e
00000310: 7f98 12bf 8ad0 763e 30fb 153f 02e5 fc3e
00000320: e129 87be 5474 c8be 6f45 1dbe e66e 7a3e
00000330: 863d afbb 2280 69bc 9635 153f b5b2 d63e
00000340: bbe3 de3e 061d 443e 34c4 9bbe 338d 42be
00000350: e613 673f 27d2 9abd 823d 5abe b07e cbbe
00000360: 6fb9 243e c129 683e bd32 9fbd 3dbd 5ebe
00000370: c39e 24bd 97ee 0a3d f505 d3be 2ec6 babe
00000380: 3ce4 4bbd 5a21 273e 7cb7 90be e610 0ebe
00000390: 44cb 363f a09f a8bd dc8d 09be ef5b a7be
000003a0: 3d7b ed3b 5f60 82be f41f 1b3e d609 bbbd
000003b0: 02dc 163e 5b0f d2bd 9ca7 34be 1634 e53d
000003c0: 139d bb3e 967f c5be 4724 efbe 70b7 36be
000003d0: f92f 7c3f 9a16 eabe 7aa3 cc3c ac17 bfbe
000003e0: d723 bf3e 76cc 0e3e 1afc 3ebe d694 75be
000003f0: b453 c23d 7fec d5be 05fe ecbe c55b adbe

transformer.encoder.layers.0.self_attn.in_proj_bias f4 [48]
0.2505196 0.6293694 0.37409383 -0.38607866 -0.1931365 -0.019509727 0.21468969 -0.2674641
-0.21248405 -0.351645 0.34447354 -0.4676708 0.28246522 -0.22072628 -0.053204115 -0.11314485
0.032118477 0.009404561 -0.025781032 0.0020691878 -0.030073952 -0.025772111 -0.00416682 0.0064397864
0.057200637 0.016750624 -0.065040514 0.058712665 -0.04351774 0.056018807 0.00027895704 0.032562174
-0.08140586 -0.10590787 0.0032273133 0.08267783 -0.043684784 0.045738097 -0.016292585 -0.04119015
-0.06948192 0.043493092 0.004651836 -0.0023542093 -0.010649646 -0.050935574 0.042031784 0.03364246
00000000: 1b44 803e 5a1e 213f 3a89 bf3e 1aac c5be
00000010: 93c5 45be ddd2 9fbc 9dd7 5b3e 0ef1 88be
00000020: 6b95 59be d00a b4be d65e b03e 8c72 efbe
00000030: 489f 903e 1206 62be 8fec 59bd 7db8 e7bd
00000040: aa8e 033d 9615 1a3c be32 d3bc 369b 073b
00000050: a65d f6bc 0920 d3bc d289 88bb d804 d33b
00000060: 374b 6a3d 9b38 893c f633 85bd b17c 703d
00000070: a83f 32bd fa73 653d fb40 9239 ea5f 053d
00000080: 1eb8 a6bd 3ae6 d8bd 5581 533b fe52 a93d
00000090: d1ee 32bd df57 3b3d 0778 85bc 01b7 28bd
000000a0: 894c 8ebd d025 323d 6e6e 983b 1449 1abb
000000b0: da7b 2ebc d2a1 50bd 8529 2c3d adcc 093d

transformer.encoder.layers.0.self_attn.out_proj.weight f4 [16, 16]
0.32530525 -0.07936983 0.13436358 -0.40304315 0.48850074 0.46223354 -0.43204117 -0.16640781
-0.32707253 0.51384956 -0.0063004573 -0.40853342 -0.1646866 0.1077586 0.47682878 -0.13007808
0.1982553 0.3860626 -0.34775528 -0.38971245 0.09119601 -0.5766481 0.1154688 0.46745023
0.43597585 0.085469194 -0.0673497 0.04055832 0.492137 0.1595198 -0.3764894 0.2562093
0.506039 0.0022939905 0.037366293 0.05480813 0.20112047 -0.25065234 0.52739 -0.32827565
-0.37614882 -0.49010944 0.1402595 -0.2809217 -0.22404192 0.15079202 -0.083199255 -0.17573495
-0.37742344 -0.12942912 -0.04749903 0.14777838 0.0042360947 0.16392092 0.26940325 0.22349662
-0.07980269 0.3987431 -0.3048016 -0.027048303 -0.2659592 0.41171873 -0.36750817 0.18293397
-0.41808024 -0.40343997 0.04864623 0.3816189 0.3841947 -0.04378796 -0.12575024 0.013131411
-0.3202979 -0.26009682 0.32610577 0.042616814 -0.30635193 -0.070565924 0.07346791 0.0012295947
-0.32730046 0.1993808 0.20361899 0.07649205 0.23946615 0.22401316 -0.25024742 -0.44366026
-0.38329542 -0.3362483 -0.010508984 0.0436489 -0.37120277 0.03101124 -0.1996415 0.26203033
0.13900949 -0.28294307 0.06701903 0.1646331 0.24298146 0.044688318 -0.24636544 -0.13984962
-0.58773714 0.09270617 -0.28498232 -0.43408674 0.28819898 -0.013996107 0.0398436 0.06087916
-0.16394302 0.17912433 0.037853103 -0.33240697 0.029274955 0.03632062 0.24131726 0.20070288
-0.007198332 0.5303225 -0.002617242 -0.22837402 -0.14869693 -0.12444823 0.19301902 0.62568647
-0.07918094 -0.040886983 -0.40887916 0.08955256 -0.40932718 -0.01323101 -0.1345669 -0.35921103
0.45182347 -0.197263 -0.21984759 0.11579867 0.22219054 0.1855279 -0.117616095 -0.09901556
0.54249257 0.37925282 0.27855873 -0.63005704 -0.032202866 0.14177008 0.007232998 0.010205695
0.07351879 -0.51732856 -0.106656484 0.2557525 -0.09280926 -0.111768745 -0.0047313753 -0.24197872
-0.3715561 0.31231254 0.10372242 0.13182537 -0.17736933 -0.41869354 -0.01322684 0.03249688
0.028791597 0.12799433 -0.03202642 0.10886607 0.22142583 0.033282124 0.2895939 0.006497984
-0.015738226 -0.3987142 -0.10667476 0.5457167 0.21327522 -0.07875301 -0.008582742 -0.3225448
0.11979637 -0.1789057 -0.31986466 -0.21847162 0.2579803 -0.13260466 0.24055599 0.34000266
0.16525297 -0.07511054 0.33785167 -0.08976257 0.3097148 -0.015126215 0.47908157 0.2687895
0.36315754 -0.5066303 0.20950976 0.22252266 -0.26895404 -0.0030408618 -0.05596422 -0.21956101
-0.44256225 -0.09413244 0.35965475 -0.02734436 0.0006504436 0.09355458 -0.23223956 0.39191404
-0.09945011 0.33925465 -0.5135432 0.12888412 -0.42827713 -0.02820737 0.028135221 -0.09377746
-0.50996107 0.135861 -0.15969583 0.44103178 -0.36094886 0.348147 -0.2371995 -0.4480951
-0.1455204 -0.12885639 -0.45516363 0.43926823 0.14061129 0.28324223 0.43183267 0.5614864
-0.29783213 0.37130672 0.23948152 0.095878616 -0.017515019 0.22354697 0.002329961 -0.72774214
-0.16479178 0.31333578 -0.27162054 -0.039543428 0.032559726 -0.29003978 0.28230795 -0.033461764
00000000: 698e a63e a68c a2bd 9b96 093e ac5b cebe
00000010: c51c fa3e e0a9 ec3e 8034 ddbe cf66 2abe
00000020: 0d76 a7be a58b 033f 1174 cebb 4b2b d1be
00000030: 9ba3 28be 8ab0 dc3d e722 f43e 3033 05be
00000040: 7003 4b3e ffa9 c53e fb0c b2be 6488 c7be
00000050: f9c4 ba3d 369f 13bf e87a ec3d a355 ef3e
00000060: 3a38 df3e 790a af3d a4ee 89bd 7b20 263d
00000070: 62f9 fb3e 2959 233e 38c3 c0be de2d 833e
00000080: c68b 013f c656 163b 660d 193d 7d7e 603d
00000090: 86f2 4d3e 8155 80be 0803 073f bf13 a8be
000000a0: 9496 c0be a0ef fabe 30a0 0f3e f8d4 8fbe
000000b0: 3f6b 65be 3969 1a3e 5f64 aabd ddf3 33be
000000c0: a53d c1be 1189 04be 588e 42bd 3753 173e
000000d0: f0ce 8a3b e3da 273e 39ef 893e 4cdc 643e
000000e0: 986f a3bd 0e28 cc3e f50e 9cbe 6794 ddbc
000000f0: ce2b 88be cccc d23e 082a bcbe 0b53 3b3e
00000100: 9d0e d6be af8f cebe 4541 473d 8d63 c33e
00000110: 2bb5 c43e 015b 33bd acc4 00be 2125 573c
00000120: 16fe a3be 692b 85be 56f7 a63e f88e 2e3d
00000130: 29da 9cbe de84 90bd 5876 963d 5a2a a13a
00000140: ed93 a7be 7b2a 4c3e 7f81 503e dda7 9c3d
00000150: 9d36 753e b563 653e 6e20 80be 7027 e3be
00000160: 4c3f c4be bd28 acbe e02d 2cbc 30c9 323d
00000170: 4a0e bebe 490b fe3c d26e 4cbe d728 863e
00000180: 8158 0e3e eadd 90be 4641 893d 9495 283e
00000190: 22d0 783e 190b 373d 3947 7cbe bd34 0fbe
000001a0: f175 16bf bcdc bd3d 34e9 91be 9e40 debe
000001b0: d18e 933e ed4f 65bc 0b33 233d 6d5c 793d
000001c0: aee0 27be 5e6c 373e db0b 1b3d 3f31 aabe
000001d0: 08d2 ef3c eec4 143d df1b 773e 0e85 4d3e
000001e0: fcdf ebbb 37c3 073f 0986 2bbb e1da 69be
000001f0: 0244 18be b7de febd c7a6 453e fd2c 203f
00000200: 9e29 a2bd 1c79 27bd 9c58 d1be 5567 b73d
00000210: 5593 d1be e1c6 58bc e8cb 09be 82ea b7be
00000220: 6855 e73e 50ff 49be ba1f 61be da27 ed3d
00000230: eb85 633e 07fb 3d3e b5e0 f0bd abc8 cabd
00000240: cbe0 0a3f 6d2d c23e 409f 8e3e 6b4b 21bf
00000250: 27e7 03bd 2d2c 113e c902 ed3b ca35 273c
00000260: 0591 963d a56f 04bf b76e dabd fef1 823e
00000270: c812 bebd 03e7 e4bd a709 9bbb 45c9 77be
00000280: 9a3c bebe 6ee7 9f3e 6c6c d43d 3bfd 063e
00000290: 4ea0 35be 005f d6be 63b5 58bc 731b 053d
000002a0: 5bdc eb3c f210 033e 232e 03bd 2df5 de3d
000002b0: 74bd 623e d652 083d a745 943e 0aed d43b
000002c0: 74ed 80bc 4524 ccbe 4c78 dabd 17b4 0b3f
000002d0: d264 5a3e 4249 a1bd a19e 0cbc 9824 a5be
000002e0: cd57 f53d 0e33 37be 4dc5 a3be 06b7 5fbe
000002f0: fe15 843e 84c9 07be 4f54 763e d414 ae3e
00000300: 1338 293e 8ed3 99bd e5fa ac3e 70d5 b7bd
00000310: f092 9e3e f2d3 77bc 2e4a f53e c79e 893e
00000320: c9ef b93e 86b2 01bf ba89 563e fbdc 633e
00000330: 58b4 89be 3249 47bb bd3a 65bd 9ad4 60be
00000340: 8597 e2be 82c8 c0bd ab24 b83e 4701 e0bc
00000350: 8882 2a3a 8b99 bf3d 35d0 6dbe f5a8 c83e
00000360: 80ac cbbd c9b2 ad3e 9177 03bf 33fa 033e
00000370: 2447 dbbe 2413 e7bc d67b e63c 660e c0bd
00000380: cf8c 02bf 251f 0b3e 4e87 23be ebce e13e
00000390: 4ace b8be 5340 b23e 6de4 72be b96c e5be
000003a0: 4d03 15be eef2 03be 350b e9be c4e7 e03e
000003b0: 68fc 0f3e 2005 913e 2c19 dd3e 93bd 0f3f
000003c0: 747d 98be ea1b be3e a53a 753e 025c c43d
000003d0: a87b 8fbc 7fe9 643e 42b2 183b 4f4d 3abf
000003e0: 2dbf 28be 8c6d a03e d911 8bbe 4af8 21bd
000003f0: 595d 053d 1880 94be ab8a 903e 340f 09bd

transformer.encoder.layers.0.self_attn.out_proj.bias f4 [16]
0.04124044 -0.084205166 -0.0617464 0.115556344 0.07425191 0.00827419 0.024859412 -0.06443521
0.019326905 -0.03924395 0.010886589 0.03822558 0.029837754 0.026947657 -0.018701611 0.07863129
00000000: bceb 283d c273 acbd cbe9 7cbd cea8 ec3d
00000010: 6311 983d 7890 073c f7a5 cb3c 9bf6 83bd
00000020: 7553 9e3c 44be 20bd aa5d 323c 6d92 1c3d
00000030: 4e6e f43c 55c1 dc3c 1f34 99bc 7109 a13d

transformer.encoder.layers.0.linear1.weight f4 [16, 16]
-0.06390202 0.16109811 -0.16403644 0.2528265 0.28846967 -0.14317684 0.3284877 0.14558291
-0.1764097 -0.13999249 0.38657242 -0.04198984 0.42716813 0.23598917 0.29282764 -0.34074494
-0.071908675 0.076187104 0.16455613 -0.41168028 -0.32820663 -0.18906166 -0.027111173 -0.08084364
-0.10666992 0.4678463 0.49187794 0.034657348 -0.032993544 -0.3396707 0.34044984 -0.17858465
-0.4764122 0.10574157 0.4725606 -0.24916844 0.30829272 0.17471452 0.21201743 -0.15214418
-0.13037644 0.15412307 0.13989983 -0.121445544 0.033113986 -0.5809317 0.2463647 -0.31600982
-0.584128 0.53881574 0.2727746 -0.3268534 0.31491032 -0.2749449 -0.2181825 -0.07978888
0.42595237 -0.20474118 -0.22030878 -0.021048121 0.10291739 -0.16927001 -0.121442 -0.3170978
0.19444922 0.07029162 -0.20152308 -0.34466258 0.13199598 0.154915 -0.47821206 0.21517563
-0.06567939 -0.10976735 0.22635862 -0.05401513 -0.09488596 -0.056813892 -0.14552784 -0.26193562
-0.060777277 0.016421406 0.38441405 -0.12704061 0.16623956 0.031639185 -0.4201847 -0.15544996
0.54692405 0.069765694 -0.16117898 0.33851415 0.18799269 0.012365583 0.022328801 -0.32131177
-0.35608262 0.40134758 -0.14446351 0.07655297 -0.43969986 -0.1550633 -0.24288966 -0.30047122
-0.14401737 0.071546726 -0.1299671 -0.35378474 -0.28146893 0.062328357 -0.30820498 -0.24930033
0.31688875 0.35158792 -0.48073128 0.26834524 -0.18663679 -0.5113227 -0.086447425 -0.20430265
0.19814453 0.19366537 0.09894603 -0.014678126 0.11484097 -0.32822067 0.032616515 0.27504224
-0.1234155 0.059864525 -0.2777491 0.20448446 0.56729805 0.24965772 -0.17141235 -0.37534708
0.157902 -0.34180203 0.26636598 0.112019256 0.14887336 0.38744462 0.22466296 0.105442
-0.2736295 0.05276714 -0.36810884 0.2528765 0.22864364 -0.13820459 0.23398428 0.064125404
0.40808052 -0.0758192 -0.30611745 0.40236235 0.16386856 0.3811085 0.4506122 -0.44475827
0.040645212 -0.0009602866 -0.0069102095 -0.041545752 0.66011494 -0.14901282 -0.17389132 -0.27080357
-0.5177469 0.22836697 0.005441173 -0.0782964 0.44171908 0.3959135 -0.021645058 -0.28035584
-0.10956294 0.04548743 0.37355894 0.18089117 -0.33322674 -0.1487646 -0.13008718 0.18914258
0.071833536 0.30483678 0.12302947 0.17952204 0.05972122 0.078444965 -0.1313198 -0.14358638
0.2164366 0.2681821 -0.30988285 0.085233174 -0.39575842 -0.036753356 -0.11128667 -0.21992505
-0.14347439 -0.25742677 0.24141663 -0.14796825 0.0016111278 0.51029354 -0.25647885 -0.276138
0.07569517 0.096552856 0.13644272 -0.07657178 0.38596764 -0.25411496 -0.15916072 0.33248672
-0.38049003 0.15122937 -0.037152704 -0.07376985 0.6777995 0.03766459 -0.6056692 -0.48454824
0.32757017 -0.069813535 0.09246165 0.3591297 -0.4052206 -0.21726196 0.3334817 0.23882
0.2622243 -0.2693684 0.007199243 0.08736203 -0.18504807 -0.42514694 0.30903104 -0.07614494
0.09532538 0.37015578 -0.41578293 -0.475059 0.026076658 -0.13560005 0.13178548 -0.54870313
-0.11988241 -0.37646642 0.23122366 0.2118959 0.1714976 -0.21804173 0.15450928 -0.18856478
00000000: 10df 82bd e7f6 243e 2bf9 27be 7a72 813e
00000010: 4cb2 933e f39c 12be 8a2f a83e b013 153e
00000020: bfa4 34be 315a 0fbe d2ec c53e 8afd 2bbd
00000030: c8b5 da3e 25a7 713e 81ed 953e 1f76 aebe
00000040: db44 93bd fc07 9c3d 6781 283e c2c7 d2be
00000050: b30a a8be 6199 41be 4018 debc 5a91 a5bd
00000060: c275 dabd 8d89 ef3e 6dd7 fb3e ddf4 0d3d
00000070: 3d24 07bd 51e9 adbe 714f ae3e e5de 36be
00000080: 4dec f3be 098f d83d 77f3 f13e 0326 7fbe
00000090: 8bd8 9d3e 5de8 323e 191b 593e afcb 1bbe
000000a0: 6781 05be 70d2 1d3e e741 0f3e 71b8 f8bd
000000b0: 88a2 073d f1b7 14bf 0747 7c3e 0acc a1be
000000c0: 6a89 15bf d4ef 093f 1da9 8b3e 5459 a7be
000000d0: ed3b a13e 94c5 8cbe 3c6b 5fbe 5a68 a3bd
000000e0: 6e16 da3e aca7 51be a098 61be 1c6d acbc
000000f0: 5ac6 d23d 1e55 2dbe 95b6 f8bd a55a a2be
00000100: b21d 473e 0ef5 8f3d 115c 4ebe 9d77 b0be
00000110: f429 073e 0aa2 1e3e 36d8 f4be 0057 5c3e
00000120: eb82 86bd b4cd e0bd 8eca 673e f83e 5dbd
00000130: 9253 c2bd afb5 68bd 4005 15be 6d1c 86be
00000140: 98f1 78bd 2f86 863c ebd1 c43e ef16 02be
00000150: b43a 2a3e 1798 013d 7322 d7be 462e 1fbe
00000160: 3703 0c3f 51e1 8e3d 1a0c 25be ba51 ad3e
00000170: 2881 403e 0499 4a3c e4ea b63c fa82 a4be
00000180: 7650 b6be 6e7d cd3e 3eee 13be cec7 9c3d
00000190: 5720 e1be eac8 1ebe 11b8 78be 5dd7 99be
000001a0: 4a79 13be 1787 923d 1816 05be 4623 b5be
000001b0: b21c 90be 054c 7f3d 0bcd 9dbe 9648 7fbe
000001c0: 3e3f a23e 5503 b43e 6922 f6be 8c64 893e
000001d0: b71d 3fbe 0be6 02bf 590b b1bd b734 51be
000001e0: 66e6 4a3e 3750 463e 37a4 ca3d 867c 70bc
000001f0: be31 eb3d 8a0c a8be e598 053d 56d2 8c3e
00000200: 44c1 fcbd 8134 753d 2135 8ebe 6064 513e
00000210: 723a 113f 46a6 7f3e b886 2fbe 7e2d c0be
00000220: 10b1 213e ad00 afbe 1f61 883e 5a6a e53d
00000230: 4272 183e 245f c63e 0c0e 663e faf1 d73d
00000240: 2a19 8cbe 5b22 583d c378 bcbe 0779 813e
00000250: 8f21 6a3e 8185 0dbe 9399 6f3e 2e54 833d
00000260: eeef d03e 1947 9bbd 6dbb 9cbe 7002 ce3e
00000270: 29cd 273e a720 c33e a4b6 e63e 5bb7 e3be
00000280: 987b 263d bebb 7bba 0a6f e2bb e12b 2abd
00000290: 4bfd 283f d196 18be 9110 32be c4a6 8abe
000002a0: 108b 04bf 08d9 693e de4b b23b dd59 a0bd
000002b0: 0129 e23e 2db5 ca3e fa50 b1bc cd8a 8fbe
000002c0: 8962 e0bd 0751 3a3d 1e43 bf3e 893b 393e
000002d0: b29c aabe bf55 18be 9335 05be 98ae 413e
000002e0: 761d 933d 9113 9c3e e0f6 fb3d a0d4 373e
000002f0: 3d9e 743d c1a7 a03d b378 06be 4f08 13be
00000300: 8ea1 5d3e 2a4f 893e f7a8 9ebe bb8e ae3d
00000310: d9a0 cabe b08a 16bd 44ea e3bd 0834 61be
00000320: f3ea 12be 71cd 83be ec35 773e fd84 17be
00000330: 7a2c d33a 99a2 023f 3251 83be f661 8dbe
00000340: 1206 9b3d 81bd c53d a4b7 0b3e aad1 9cbd
00000350: 8d9d c53e 5b1b 82be 07fb 22be b33b aa3e
00000360: 97cf c2be dfdb 1a3e 6f2d 18bd a614 97bd
00000370: 4584 2d3f 2f46 1a3d 230d 1bbf b516 f8be
00000380: 47b7 a73e 66fa 8ebd 895c bd3d d9df b73e
00000390: 1379 cfbe eb79 5ebe 1dbe aa3e 3b8d 743e
000003a0: 4342 863e a8ea 89be a1e7 eb3b ddea b23d
000003b0: 3e7d 3dbe dcac d9be 5139 9e3e e1f1 9bbd
000003c0: f439 c33d 0f85 bd3e 80e1 d4be ef3a f3be
000003d0: b79e d53c bdda 0abe c6f2 063e cf77 0cbf
000003e0: e984 f5bd 35c0 c0be e5c5 6c3e 3dfb 583e
000003f0: 119d 2f3e 5546 5fbe ae37 1e3e 2017 41be

transformer.encoder.layers.0.linear1.bias f4 [16]
0.146261 -0.18506894 0.070038974 -0.07154683 -0.28447622 -0.01759242 -0.18230934 -0.2696959
0.051803045 0.1316228 0.01332649 0.049338102 -0.16478296 -0.044148922 -0.060900174 0.035005424
00000000: 72c5 153e b682 3dbe 9870 8f3d 2587 92bd
00000010: dea6 91be fb1d 90bc 4daf 3abe 9515 8abe
00000020: 6e2f 543d 21c8 063e 5a57 5a3c c016 4a3d
00000030: ddbc 28be 80d5 34bd 7672 79bd d961 0f3d

transformer.encoder.layers.0.linear2.weight f4 [16, 16]
-0.15728761 -0.015101476 0.43852812 -0.042538095 -0.35757327 0.2104391 -0.108452566 0.42055497
0.24173033 0.11829802 -0.3361549 -0.3657012 -0.38905004 0.024567673 -0.063902766 0.23913872
0.22009209 0.20639057 -0.075185806 -0.6845157 0.21770997 -0.53338236 0.15207389 0.1846651
0.22210659 -0.24413267 0.2606326 0.33079687 -0.5524721 0.31615007 -0.12186943 -0.06767991
-0.2774658 0.24535666 0.17633127 0.4507362 -0.14567754 0.29768097 0.14905626 -0.06032853
0.3434008 -0.05422408 0.2563026 0.102494486 0.13223764 -0.1380022 0.24974203 -0.34690616
-0.044011217 0.47469792 -0.57130337 -0.23221372 -0.0066744974 0.16429372 -0.055041634 -0.097184844
-0.45935372 -0.20128952 -0.2526104 0.010487 -0.47385108 0.34067443 -0.09375755 -0.05733996
-0.25634077 -0.07805315 -0.024958119 -0.32795715 -0.2390649 0.018429479 -0.15103376 -0.35324946
-0.10438669 -0.32323566 0.18382834 0.21787749 0.16292368 -0.11436247 0.094334304 0.25595456
-0.36673665 0.2375253 -0.26471257 -0.27730602 -0.09785936 0.115841046 0.11740348 -0.012563013
-0.3647082 0.19247706 -0.33816525 0.34594816 0.09976233 -0.16311455 -0.0581058 -0.12602757
-0.17779748 0.050081614 0.44059905 0.36332443 0.114189826 0.13518474 0.2026288 0.051106617
0.1631638 0.26072678 -0.4780926 0.2346749 -0.43217197 -0.28377277 -0.34212068 0.2521768
0.35117716 -0.015461705 0.048118796 0.26392508 -0.26777202 0.0030410518 -0.34242582 -0.1335775
0.37707 0.012487397 0.20072688 0.09102498 0.028726403 -0.4037152 -0.3537057 0.45583
-0.44245386 0.065497205 -0.201648 -0.5764747 0.2447851 -0.61732286 0.25400802 -0.30947384
-0.254946 0.36838502 0.19945773 0.040156383 -0.32965782 0.16060646 0.03955721 0.53597045
0.07389384 0.34398532 -0.14682844 0.29408306 0.33544132 -0.10001815 0.48790264 0.15673855
-0.07396288 0.15412863 0.15645425 0.14454415 0.15777346 0.33668196 0.026816715 -0.050942216
-0.3315293 -0.3159266 -0.4381032 -0.023069233 -0.5620402 -0.35964936 -0.021923518 0.22070403
0.4234106 0.22588946 0.37335983 -0.12055283 0.36006644 0.08983545 0.42139995 0.006936349
0.04594813 -0.25418738 0.07742207 0.028335072 -0.107956804 0.6227302 -0.36605844 0.34874177
-0.23433043 0.22431163 -0.08495121 0.07356219 -0.014070038 -0.43300778 -0.3905963 0.5722138
-0.10109972 0.0038720893 0.4151945 0.0042052483 0.29526493 -0.48697332 -0.33354622 0.39042574
0.008433577 0.16331635 -0.00040841755 0.2941567 0.3918969 -0.21616009 0.20639676 0.024445564
-0.16336192 0.05053851 -0.14986958 0.059239853 0.112089776 -0.22716655 -0.33813077 0.16560175
-0.07834733 -0.011226194 -0.20101634 -0.11308749 -0.20935127 -0.13062155 -0.3189366 0.4299191
0.36638778 0.13081998 -0.29810974 -0.581645 0.40275764 0.16869262 -0.21091416 -0.12059039
0.119554795 0.24007055 -0.24490173 -0.14876546 0.027747681 0.18720947 -0.10132799 -0.3011633
-0.38547212 0.044534013 0.18373291 -0.18232091 -0.38556492 0.31560057 0.06516173 -0.038226414
0.15761197 0.37310284 0.10435522 0.24962156 0.230042 0.30799374 -0.3309695 -0.16828339
00000000: 0110 21be 2e6c 77bc c286 e03e 6d3c 2ebd
00000010: d813 b7be 597d 573e 611c debd fb52 d73e
00000020: 2888 773e 3b46 f23d 7f1c acbe 303d bbbe
00000030: 9131 c7be 2542 c93c 74df 82bd c8e0 743e
00000040: d25f 613e 0d58 533e 04fb 99bd 6c3c 2fbf
00000050: 5def 5e3e bf8b 08bf 42b9 1b3e d918 3d3e
00000060: e96f 633e eafd 79be a371 853e 355e a93e
00000070: d06e 0dbf 6cde a13e ae96 f9bd c49b 8abd
00000080: ff0f 8ebe c73e 7b3e 2f90 343e e5c6 e63e
00000090: 7e2c 15be a469 983e 34a2 183e 0c1b 77bd
000000a0: 3bd2 af3e 121a 5ebd 183a 833e a1e8 d13d
000000b0: 4e69 073e 7350 0dbe 60bc 7f3e af9d b1be
000000c0: 1b45 34bd 9b0b f33e f040 12bf 6fc9 6dbe
000000d0: beb5 dabb 9d3c 283e 5673 61bd d908 c7bd
000000e0: 6930 ebbe d71e 4ebe 2656 81be abd1 2b3c
000000f0: 9c9c f2be e16c ae3e f503 c0bd 4edd 6abd
00000100: 193f 83be 54da 9fbd f874 ccbc 00ea a7be
00000110: 6ecd 74be 6bf9 963c 98a8 1abe 1ddd b4be
00000120: b0c8 d5bd 257f a5be 7f3d 3c3e 471b 5f3e
00000130: 77d5 263e df36 eabd 5832 c13d 7a0c 833e
00000140: e8c4 bbbe d539 733e 6888 87be 0efb 8dbe
00000150: 7d6a c8bd 123e ed3d 3c71 f03d 18d5 4dbc
00000160: 08bb babe b518 453e ff23 adbe 1e20 b13e
00000170: 3150 cc3d 8007 27be 5900 6ebd 5f0d 01be
00000180: 8b10 36be 6122 4d3d 3396 e13e a905 ba3e
00000190: 5bdc e93d de6d 0a3e ed7d 4f3e 2c55 513d
000001a0: 6914 273e fb7d 853e 8ec8 f4be 9e4e 703e
000001b0: a545 ddbe aa4a 91be 712a afbe 511d 813e
000001c0: 7ecd b33e 1753 7dbc 3718 453d 3021 873e
000001d0: 6a19 89be 624c 473b 7052 afbe 8ac8 08be
000001e0: 520f c13e f097 4c3c 598b 4d3e 4e6b ba3d
000001f0: a253 eb3c c2b3 cebe ea18 b5be 8d62 e93e
00000200: 5089 e2be 6623 863d d07c 4ebe d993 13bf
00000210: f2a8 7a3e df08 1ebf 570d 823e 5b73 9ebe
00000220: 4888 82be f69c bc3e a63e 4c3e 057b 243d
00000230: e9c8 a8be 0576 243e be06 223d 5c35 093f
00000240: a755 973d d81e b03e 325a 16be 0e92 963e
00000250: f7be ab3e 51d6 ccbd 60ce f93e 1280 203e
00000260: da79 97bd e5d3 1d3e 8b35 203e 6203 143e
00000270: 5e8f 213e 9461 ac3e baae db3c c9a8 50bd
00000280: 35be a9be 22c1 a1be 104f e0be b0fb bcbc
00000290: dee1 0fbf f623 b8be f398 b3bc 3d00 623e
000002a0: 46c9 d83e 914f 673e 0529 bf3e 67e4 f6bd
000002b0: a15a b83e a6fb b73d bcc1 d73e 504a e33b
000002c0: 1b34 3c3d d924 82be 768f 9e3d f41e e83c
000002d0: 7518 ddbd 3f6b 1f3f 036c bbbe 488e b23e
000002e0: 51f4 6fbe f3b1 653e e6fa adbd c6a7 963d
000002f0: 0486 66bc 32b3 ddbe 3dfc c7be 9b7c 123f
00000300: 5f0d cfbd e1c2 7d3b 6094 d43e 2ecc 893b
00000310: f72c 973e 9154 f9be 92c6 aabe e2e5 c73e
00000320: fc2c 0a3c 673c 273e e020 d6b9 b59b 963e
00000330: b6a6 c83e 1259 5dbe ac59 533e 1042 c83c
00000340: 5948 27be 7801 4f3d 6977 19be 7da5 723d
00000350: 538f e53d 599e 68be 7a1f adbe 8193 293e
00000360: 9174 a0bd 12ee 37bc 3ad7 4dbe 6a9a e7bd
00000370: 2e60 56be a8c1 05be a84b a3be 5b1e dc3e
00000380: 2e97 bb3e acf5 053e d7a1 98be b0e6 14bf
00000390: 4036 ce3e c2bd 2c3e e2f9 57be 18f8 f6bd
000003a0: 25d9 f43d 0ed5 753e 85c7 7abe f955 18be
000003b0: 1b4f e33c d7b3 3f3e 0d85 cfbd 1332 9abe
000003c0: 9a5c c5be 4c69 363d 7b24 3c3e 55b2 3abe
000003d0: c468 c5be 6696 a13e 8373 853d 4d93 1cbd
000003e0: 0865 213e 5607 bf3e 31b8 d53d cb9c 7f3e
000003f0: 2190 6b3e 5bb1 9d3e d674 a9be 7b52 2cbe

transformer.encoder.layers.0.linear2.bias f4 [16]
-0.16390122 0.15006213 -0.111034244 0.13684686 -0.012007647 -0.21459348 0.15390347 0.02753187
0.15693806 -0.24064729 -0.10473349 0.0928568 -0.108607925 -0.06572715 0.12844083 0.04511424
00000000: b9d5 27be e3a9 193e ec65 e3bd 9521 0c3e
00000010: b9bb 44bc 65be 5bbe df98 1d3e 848a e13c
00000020: 5fb4 203e 3e6c 76be 837e d6bd b52b be3d
00000030: d56d debd f59b 86bd fe85 033e b6c9 383d

transformer.encoder.layers.0.norm1.weight f4 [16]
1.1593024 1.0819904 1.1736246 1.0323071 1.0537527 0.7705537 0.9455334 0.9164974
1.0106949 1.1604581 0.8519009 0.9770895 0.8263667 1.0195876 0.9900588 0.9196
00000000: 0564 943f a97e 8a3f 5539 963f a422 843f
00000010: 5ee1 863f 0243 453f 7a0e 723f 939f 6a3f
00000020: 735e 813f e489 943f 2d16 5a3f 8a22 7a3f
00000030: c58c 533f d981 823f 7e74 7d3f e86a 6b3f

transformer.encoder.layers.0.norm1.bias f4 [16]
0.057452008 -0.03627293 0.040672027 -0.031041486 0.01321138 0.022789732 -0.010646555 -0.052249465
0.019928807 0.0022057253 0.010647898 0.0067829587 0.086724214 0.0065697697 -0.043401748 0.08513952
00000000: cc52 6b3d ed92 14bd b697 263d b74a febc
00000010: 8b74 583c 88b1 ba3c e36e 2ebc 8903 56bd
00000020: bd41 a33c ee8d 103b 8574 2e3c 9543 de3b
00000030: 779c b13d 3947 d73b 08c6 31bd a15d ae3d

transformer.encoder.layers.0.norm2.weight f4 [16]
1.1034582 1.0948098 1.1367652 1.1175436 1.001916 0.8643206 1.0039331 0.9519616
1.055288 1.1488689 0.965661 0.99748343 0.9271136 0.96182597 1.0812213 0.97775155
00000000: 1e3e 8d3f ba22 8c3f 8681 913f ab0b 8f3f
00000010: c93e 803f 1d44 5d3f e180 803f c1b3 733f
00000020: ad13 873f 230e 933f 8f35 773f 135b 7f3f
00000030: 5157 6d3f 3a3a 763f 7665 8a3f ed4d 7a3f

transformer.encoder.layers.0.norm2.bias f4 [16]
-0.0066017234 0.042245813 -0.0009148175 0.0074935015 0.025428643 -0.02204954 -0.010852498 -0.073193066
0.009631362 -0.0010482094 0.042473953 -0.025314815 0.037824117 -0.021150324 -0.036101803 0.046839323
00000000: 4553 d8bb f209 2d3d 5dd0 6fba 0c8c f53b
00000010: bb4f d03c 3da1 b4bc adce 31bc 3fe6 95bd
00000020: dccc 1d3c 1264 89ba 2bf9 2d3d 0461 cfbc
00000030: 76ed 1a3d 7243 adbc 7cdf 13bd 97da 3f3d

transformer.encoder.layers.1.self_attn.in_proj_weight f4 [48, 16]
-0.22146203 -0.17204882 -0.37057403 -0.1551142 0.18259753 0.15934666 -0.046622746 -0.1281595
0.22876017 -0.051207382 -0.14110707 -0.16223116 -0.028216058 0.0712833 -0.072215974 0.0064791823
0.09706176 -0.19611035 -0.10192092 -0.17284079 -0.013439067 0.117762074 -0.25224498 0.07400524
0.11837554 0.2112885 0.116100445 -0.12482183 0.049251527 -0.06689365 0.17268059 -0.14423396
-0.033526 0.19922481 0.51765144 0.21299063 0.30569232 0.20076242 -0.101873465 -0.28092003
-0.1697191 0.5508372 -0.45570844 0.030159298 0.45123294 -0.015531765 -0.6279936 0.15676948
-0.1756418 -0.14294031 0.10007635 -0.20629816 -0.42473176 0.13532159 0.07481352 -0.06949801
0.21018022 -0.054407008 -0.25943494 0.11371835 -0.16485392 -0.2591069 -0.19532812 0.19583634
-0.06499287 0.38246834 0.05370261 0.0048113335 -0.19199343 -0.067554764 0.15479009 -0.29354122
0.13342553 0.49408212 0.029158928 0.034341015 -0.025908872 -0.18411194 -0.4421472 -0.33774704
-0.08787049 0.075643286 -0.3159407 0.18382232 -0.20565511 0.04368664 0.3026367 -0.1828507
0.17737031 -0.3328881 0.02932899 0.29295647 -0.042438105 -0.10385486 0.25885794 0.23824005
-0.19831075 -0.10940408 0.1788223 -0.31584692 0.018659474 -0.19998738 -0.25308037 0.1392074
-0.06316643 -0.17912808 0.097354606 -0.028986903 0.089231186 -0.004521648 0.06297898 0.31025833
-0.12607339 0.23748161 0.22673492 -0.022664031 0.31949145 0.3246116 0.17223597 -0.0412132
0.16034555 -0.11070826 -0.08446599 0.21509372 -0.07251194 -0.120106414 0.055877347 -0.3108789
-0.18521501 -0.18372525 -0.005263182 -0.36913583 0.05312637 0.13141227 0.20162337 -0.094585426
-0.20264372 -0.017508395 0.0077737067 0.32129225 -0.28451815 0.268507 0.1654783 0.45815492
0.07393876 0.3357251 0.33012122 -0.01289379 0.20858414 -0.18994036 0.13885838 -0.31308892
-0.105369836 0.6943318 -0.17758793 0.061482754 0.25212154 0.09227174 -0.358445 -0.36759245
-0.21150874 0.22545694 -0.12567016 -0.0696648 0.19381721 -0.10814026 -0.30935857 0.14892247
-0.27603984 0.48406515 -0.10907842 -0.15609828 0.22930093 0.24153982 0.2507362 -0.40070522
-0.101676896 -0.20009534 -0.5764486 0.06281964 -0.33658183 0.25273874 0.2465107 -0.097349495
-0.3663894 -0.4048383 0.11704086 0.14262724 -0.18612164 -0.061349995 0.37564385 0.21003279
0.090018526 -0.12886019 -0.44433466 -0.0039157905 -0.114627235 -0.23083535 -0.08472362 -0.28003997
0.15382767 0.18251498 0.10673913 -0.02733256 0.14050098 0.13053998 -0.095199816 -0.3607188
0.08022115 -0.05143652 0.052386306 -0.25588417 -0.19854368 0.055573262 0.20792249 -0.25070733
-0.03341295 0.21983407 0.14580941 -0.13544641 0.4014544 0.31083173 0.06963218 -0.34163266
0.2486005 0.41054848 -0.26831713 0.14468268 0.30432954 0.17208491 -0.21459001 0.18771785
0.095227554 0.32544908 -0.06527002 0.044904064 0.061974503 0.08822421 -0.34557366 -0.27582544
0.182968 -0.2860182 0.030478071 -0.31711143 -0.28536475 0.12243828 -0.023079382 0.095320016
-0.1720159 0.3275585 0.051957935 -0.21829896 0.10762751 0.15116327 0.08862331 0.10047328
00000000: f1c6 62be 912d 30be e1bb bdbe 42d6 1ebe
00000010: d9fa 3a3e c52b 233e 7ef7 3ebd 3e3c 03be
00000020: 1b40 6a3e d5be 51bd 5f7e 10be ed1f 26be
00000030: 5d25 e7bc fbfc 913d f8e5 93bd 524f d43b
00000040: 51c8 c63d 27d1 48be eabb d0bd 2dfd 30be
00000050: 882f 5cbc 3e2d f13d 4126 81be 0f90 973d
00000060: e06e f23d 035c 583e 12c6 ed3d 96a2 ffbd
00000070: f8bb 493d 8aff 88bd 2ed3 303e 11b2 13be
00000080: 8f52 09bd 9701 4c3e ce84 043f 371a 5a3e
00000090: b483 9c3e aa94 4d3e 09a3 d0bd c0d4 8fbe
000000a0: d8ca 2dbe ab03 0d3f 9e52 e9be a210 f73c
000000b0: 0108 e73e f278 7ebc 30c4 20bf 2e88 203e
000000c0: 72db 33be f25e 12be d4f4 cc3d d33f 53be
000000d0: 7176 d9be be91 0a3e d537 993d f954 8ebd
000000e0: 7c39 573e e2d9 5ebd a8d4 84be 2be5 e83d
000000f0: 77cf 28be a9a9 84be 1804 48be 5289 483e
00000100: fb1a 85bd e4d2 c33e 45f7 5b3d 64a8 9d3b
00000110: ed99 44be 275a 8abd 4b81 1e3e 094b 96be
00000120: b4a0 083e 55f8 fc3e b4de ee3c 2aa9 0c3d
00000130: d83e d4bc d787 3cbe 1e61 e2be 2eed acbe
00000140: 72f5 b3bd deea 9a3d fbc2 a1be eb3b 3c3e
00000150: 4197 52be c3f0 323d 33f3 9a3e 373d 3bbe
00000160: 90a0 353e 4f70 aabe 5a43 f03c 64fe 953e
00000170: 94d3 2dbd dbb1 d4bd 0789 843e 33f5 733e
00000180: f911 4bbe 3f0f e0bd 311d 373e b0b6 a1be
00000190: c1db 983c 7ec9 4cbe c093 81be 628c 0e3e
000001a0: 675d 81bd 5a6d 37be da61 c73d f175 edbc
000001b0: d7be b63d 552a 94bb 20fb 803d 2eda 9e3e
000001c0: 6219 01be 612e 733e 332d 683e eba9 b9bc
000001d0: 6294 a33e 7e33 a63e a05e 303e 2ccf 28bd
000001e0: a031 243e 03bb e2bd 81fc acbd 8741 5c3e
000001f0: 2481 94bd 5afa f5bd a5df 643d 852b 9fbe
00000200: 01a9 3dbe 7922 3cbe c576 acbb 5fff bcbe
00000210: 099b 593d f090 063e 5b76 4e3e 01b6 c1bd
00000220: d681 4fbe c46d 8fbc 94ba fe3b 6b80 a43e
00000230: 5dac 91be c079 893e 2573 293e 4893 ea3e
00000240: 346d 973d 29e4 ab3e a605 a93e 7a40 53bc
00000250: 1597 553e ba7f 42be e430 0e3e 314d a0be
00000260: 24cc d7bd bbbf 313f 9cd9 35be 57d5 7b3d
00000270: 1316 813e f7f8 bc3d 1a86 b7be 1435 bcbe
00000280: bf95 58be 2fde 663e aeaf 00be 6bac 8ebd
00000290: 0578 463e a478 ddbd 3f64 9ebe 227f 183e
000002a0: 1855 8dbe 63d7 f73e 8264 dfbd 3ad8 1fbe
000002b0: ddcd 6a3e 3756 773e 7f60 803e 3c29 cdbe
000002c0: fa3b d0bd cbe5 4cbe 2392 13bf 95a7 803d
000002d0: 7454 acbe f966 813e 4d6d 7c3e 2c5f c7bd
000002e0: 6497 bbbe f746 cfbe 1eb3 ef3d e00c 123e
000002f0: ac96 3ebe 224a 7bbd 6454 c03e d612 573e
00000300: a25b b83d edf3 03be d57f e3be 0850 80bb
00000310: afc1 eabd 1a60 6cbe 9483 adbd 6661 8fbe
00000320: 0085 1d3e 35e5 3a3e 0c9a da3d 88e8 dfbc
00000330: 7ddf 0f3e 46ac 053e 1ff8 c2bd 22b0 b8be
00000340: fc4a a43d 1aaf 52bd 0693 563d 4003 83be
00000350: 094f 4bbe caa0 633d a2e9 543e b65c 80be
00000360: 04dc 08bd 2f1c 613e 104f 153e 77b2 0abe
00000370: 6e8b cd3e 5625 9f3e 519b 8e3d 7aea aebe
00000380: 2191 7e3e 6933 d23e dd60 89be b227 143e
00000390: 15d1 9b3e 0737 303e 7cbd 5bbe 1c39 403e
000003a0: aa06 c33d 43a1 a63e 4aac 85bd 53ed 373d
000003b0: fad8 7d3d e5ae b43d 08ef b0be fe38 8dbe
000003c0: f75b 3b3e fa70 92be 26ad f93c 6e5c a2be
000003d0: 541b 92be ecc0 fa3d f910 bdbc 2437 c33d
000003e0: f024 30be bfb5 a73e d8d1 543d c389 5fbe
000003f0: d06b dc3d 8bca 1a3e 2380 b53d efc4 cd3d

transformer.encoder.layers.1.self_attn.in_proj_bias f4 [48]
-0.023186848 -0.034503207 -0.012974879 0.119953044 0.00973569 0.07293636 0.10844232 -0.0774413
0.14941715 -0.10472527 -0.23679417 0.1754252 -0.12833892 -0.0912813 -0.109700404 -0.056601826
0.023158275 0.025331423 -0.04084604 0.014893253 0.0059078312 0.022826022 -0.0072033596 -0.013596382
-0.013023084 0.03355072 -0.0036903124 -0.027211534 -0.01610712 -0.02823357 -0.02229354 0.0071048415
-0.011691862 0.03924966 0.012873009 0.0023971607 -0.003779072 0.0063466476 0.048549093 -0.0069848835
-0.00890089 -0.025995925 -0.020758528 -0.016297081 -0.019305557 -0.035583485 0.009533605 0.01835039
00000000: 58f2 bdbc 3c53 0dbd 9694 54bc f1a9 f53d
00000010: 7282 1f3c a95f 953d 0217 de3d 8b99 9ebd
00000020: cf00 193e 347a d6bd 2c7a 72be aaa2 333e
00000030: 476b 03be b1f1 babd 9baa e0bd 51d7 67bd
00000040: 6cb6 bd3c d883 cf3c 2d4e 27bd d502 743c
00000050: 7b96 c13b a3fd ba3c 290a ecbb 5cc3 5ebc
00000060: c65e 55bc 7b6c 093d 2bd9 71bb b9ea debc
00000070: 14f3 83bc 164a e7bc f1a0 b6bc bbcf e83b
00000080: 398f 3fbc 40c4 203d 50e9 523c af19 1d3b
00000090: 4faa 77bb 8af7 cf3b 6adb 463d 73e1 e4bb
000000a0: 0ad5 11bc 68f5 d4bc ca0d aabc 7581 85bc
000000b0: b026 9ebc fdbf 11bd d632 1c3c 8f53 963c

transformer.encoder.layers.1.self_attn.out_proj.weight f4 [16, 16]
-0.055265356 -0.30498153 0.24680065 -0.50290227 0.13883267 0.3729093 -0.26255155 0.2899437
-0.074860185 0.3268817 0.24092682 -0.43528342 -0.06893372 0.2394035 0.3262641 0.15570265
-0.12062701 0.2685557 -0.3467864 -0.6222047 -0.017618656 0.5523792 -0.26259995 -0.4061984
0.42760873 0.110914215 0.12249485 0.30551755 -0.06716131 0.34429756 0.29348692 -0.24614279
-0.30768746 -0.09879523 -0.10952907 -0.09018778 0.3527288 0.36432797 0.07107037 -0.45951638
0.42386922 0.25258374 -0.20298144 0.057012077 -0.23439585 0.2031056 -0.12583399 -0.31886983
0.010482388 0.028373403 -0.0701701 -0.40396047 0.18792346 0.4759277 -0.35019204 -0.15901217
-0.019724295 -0.44368464 0.22147828 0.4565789 -0.25809762 0.5070695 -0.015548949 0.25632313
0.605349 -0.10795809 -0.4187099 0.022570908 -0.2407426 -0.12758455 -0.35703123 0.078393914
-0.21865256 0.040638443 -0.325256 -0.42740932 0.6972027 -0.12280505 -0.2878111 -0.2625009
0.00916426 -0.23880465 0.3386972 -0.005292056 -0.14180735 0.118913546 -0.22519855 0.06662998
-0.036333036 0.2688262 -0.10973904 0.16566488 0.090878256 0.19580878 -0.3176954 0.008999748
0.40864372 -0.33125573 0.22956143 0.34812382 0.18372834 -0.43073896 0.3131317 0.21717617
0.41912568 -0.20309938 0.3307845 0.044966612 -0.3849925 0.23032387 0.4736218 -0.24780168
-0.2763347 0.33462423 0.10158863 -0.2798201 0.12178866 0.2285137 -0.39766958 -0.0077497866
-0.18031915 0.1878115 0.104876086 0.3686572 0.39905483 0.36714497 -0.13510232 -0.39378405
0.6077525 -0.17193031 0.05360187 0.77014995 0.09767452 -0.50137854 -0.24594708 -0.15631089
0.14716876 0.03493045 0.3337867 0.08427043 0.32134593 -0.35987455 -0.2542789 0.3073454
-0.022640547 -0.077256784 0.37190068 0.3825135 -0.44773185 -0.12662202 0.37748602 -0.14588284
0.18180256 -0.1844257 -0.142053 0.18911919 -0.16471641 0.2772295 -0.1272172 0.1503648
-0.48333898 -0.01753748 0.083870165 -0.056295022 0.45011154 0.6124107 -0.01674583 -0.31580988
-0.18482739 0.035145678 -0.42566493 -0.1963099 -0.23601332 0.087406516 -0.5106715 0.041089
0.058150474 -0.036998115 -0.395722 -0.13334796 -0.41738364 0.07795873 -0.08085185 0.3015074
0.41079488 0.05779607 0.15398611 0.3310566 -0.0072751865 -0.35177624 0.1794072 -0.07422338
0.370127 0.278979 0.23912896 -0.51575357 0.05762494 0.49990267 -0.22154102 -0.15774415
-0.10995829 -0.26859573 -0.21582498 -0.15622862 -0.25752544 0.47603747 0.16025415 0.19012737
-0.36389893 -0.010413843 0.30472812 0.4381962 0.20992343 -0.00013153808 0.072240256 0.47669426
-0.17742603 0.32491288 0.2349294 -0.36686787 0.25929907 0.046808813 0.051689476 0.0691805
0.47389102 0.08250117 -0.2804617 0.5209634 0.05582235 -0.38009685 0.37612978 -0.48434877
-0.42853016 0.13117465 0.07807211 0.45458946 0.3418619 0.39038277 -0.38258624 0.5457683
0.23456268 0.57306784 -0.5314386 -0.75722563 0.35134685 -0.35025004 0.44935378 0.042941432
0.4516276 -0.20848587 0.3189904 -0.037750103 -0.5873877 -0.20301972 0.33885267 -0.017681627
00000000: ed5d 62bd 8a26 9cbe 4fb9 7c3e 34be 00bf
00000010: 272a 0e3e f8ed be3e 286d 86be 8073 943e
00000020: 4c50 99bd 0a5d a73e 85b5 763e 78dd debe
00000030: 1f2d 8dbd 3126 753e 170c a73e 8470 1f3e
00000040: 4b0b f7bd 2280 893e fd8d b1be cf48 1fbf
00000050: 0055 90bc b968 0d3f 8073 86be 3df9 cfbe
00000060: 88ef da3e fe26 e33d 94de fa3d cc6c 9c3e
00000070: de8b 89bd c547 b03e eb43 963e db0c 7cbe
00000080: 3689 9dbe 2755 cabd c750 e0bd 5fb4 b8bd
00000090: df98 b43e 3289 ba3e 588d 913d bb45 ebbe
000000a0: 6305 d93e a852 813e 5eda 4fbe 7f85 693d
000000b0: 7705 70be eafa 4f3e a0da 00be e842 a3be
000000c0: 52be 2b3c 576f e83c 57b5 8fbd e8d3 cebe
000000d0: 026f 403e ccac f33e 5f4c b3be 16d4 22be
000000e0: d894 a1bc a22a e3be 34cb 623e b6c4 e93e
000000f0: 5f25 84be 4fcf 013f 05c1 7ebc c93c 833e
00000100: 27f8 1a3f 2219 ddbd 2561 d6be a0e6 b83c
00000110: 3a85 76be 86a5 02be cccc b6be fd8c a03d
00000120: 75e6 5fbe 7f74 263d f487 a6be 65d5 dabe
00000130: e07b 323f 3781 fbbd fa5b 93be 8566 86be
00000140: b125 163c 3589 74be b869 ad3e fc68 adbb
00000150: f235 11be f288 f33d 739a 66be 4d75 883d
00000160: f3d1 14bd 96a3 893e ddbe e0bd 0ea4 293e
00000170: 611e ba3d 1982 483e f9a8 a2be ae73 133c
00000180: c039 d13e 5a9a a9be 2712 6b3e 493d b23e
00000190: 4823 3c3e d189 dcbe cc52 a03e 6e63 5e3e
000001a0: a497 d63e 49f9 4fbe 965c a93e e92e 383d
000001b0: bd1d c5be 05da 6b3e 8e7e f23e b9bf 7dbe
000001c0: be7b 8dbe de53 ab3e b30d d03d 9544 8fbe
000001d0: 556c f93d 7fff 693e 599b cbbe ecf1 fdbb
000001e0: 95a5 38be a851 403e 46c9 d63d a3c0 bc3e
000001f0: ea50 cc3e 6dfa bb3e 4358 0abe 109e c9be
00000200: ab95 1b3f 800e 30be a28d 5b3d 8c28 453f
00000210: 9409 c83d 585a 00bf 8dd9 7bbe f60f 20be
00000220: 68b3 163e 3b13 0f3d 17e6 aa3e fa95 ac3d
00000230: 7487 a43e 7a41 b8be d830 82be 605c 9d3e
00000240: ab78 b9bc ce38 9ebd c469 be3e cfd8 c33e
00000250: 1c3d e5be 34a9 01be d945 c13e 5062 15be
00000260: 732a 3a3e 17da 3cbe 5776 11be 76a8 413e
00000270: 6bab 28be 06f1 8d3e 3a45 02be 3bf9 193e
00000280: 3578 f7be c3aa 8fbc 1fc4 ab3d 9c95 66bd
00000290: 0575 e63e f3c6 1c3f 8d2e 89bc d5b1 a1be
000002a0: 6443 3dbe eaf4 0f3d c1f0 d9be 7605 49be
000002b0: 7aad 71be 3002 b33d 5ebb 02bf f04c 283d
000002c0: 312f 6e3d 568b 17bd 139c cabe 5e8c 08be
000002d0: 4fb3 d5be d4a8 9f3d a895 a5bd 2e5f 9a3e
000002e0: b553 d23e 92bb 6c3d 89ae 1d3e 4080 a93e
000002f0: b064 eebb 041c b4be 85b6 373e 6d02 98bd
00000300: 4981 bd3e 56d6 8e3e 39de 743e 6d08 04bf
00000310: 2108 6c3d 3ef3 ff3e a6db 62be af87 21be
00000320: d031 e1bd 6185 89be 3901 5dbe 65fa 1fbe
00000330: 60da 83be 2fbb f33e aa19 243e c0b0 423e
00000340: f650 babe d39e 2abc 5305 9c3e 415b e03e
00000350: 2bf6 563e 7ced 09b9 b3f2 933d 4511 f43e
00000360: 2baf 35be fb5a a63e 5591 703e 1bd6 bbbe
00000370: d9c2 843e 99ba 3f3d 58b8 533d 82ae 8d3d
00000380: d8a1 f23e 60f6 a83d ad98 8fbe db5d 053f
00000390: faa5 643d 0e9c c2be 1594 c03e 90fc f7be
000003a0: 4e68 dbbe a652 063e 45e4 9f3d f3bf e83e
000003b0: 8608 af3e 40e0 c73e 58e2 c3be 79b7 0b3f
000003c0: 3331 703e 93b4 123f 5c0c 08bf 8ad9 41bf
000003d0: bce3 b33e f953 b3be b311 e63e 5be3 2f3d
000003e0: bc3b e73e 527d 55be b652 a33e da9f 1abd
000003f0: 0a5f 16bf 67e4 4fbe 197e ad3e 0fd9 90bc

transformer.encoder.layers.1.self_attn.out_proj.bias f4 [16]
-0.036835305 -0.007367833 -0.006751918 -0.015415888 0.009659514 -0.070222616 -0.026793655 -0.017436378
0.016487688 0.024264514 0.03177693 -0.0045653433 0.032816496 0.0034685065 -0.016359583 -0.0281674
00000000: 9ee0 16bd dd6d f1bb 313f ddbb ec92 7cbc
00000010: f042 1e3c e0d0 8fbd 5e7e dbbc bcd6 8ebc
00000020: 3011 873c 60c6 c63c 8728 023d e098 95bb
00000030: 976a 063d e24f 633b 8804 86bc 52bf e6bc

transformer.encoder.layers.1.linear1.weight f4 [16, 16]
0.0093190195 0.15508384 -0.24292247 -0.4406713 -0.24040386 0.099962845 0.04249739 -0.11374615
-0.22505902 -0.188359 0.048326157 -0.0003680412 0.2888952 0.39120123 0.41553023 0.15299828
-0.34831372 0.1208309 -0.10891946 0.30011868 -0.71629393 -0.0034456071 -0.71411645 0.09438085
-0.1615094 0.19495237 0.05629201 -0.6729442 0.6280681 -0.24574526 0.09265219 0.19735259
0.22222324 0.1513646 0.5162943 0.02442467 -0.030687673 -0.23050867 -0.1727056 0.280773
0.19312257 -0.09095874 0.12447293 0.1878403 0.15536693 0.14526308 -0.22211203 -0.23832521
0.0057999985 0.23106748 -0.12547636 0.29206532 -0.3019053 -0.40262902 0.010362799 0.07535762
-0.29776648 -0.33657432 -0.3727421 0.2419406 -0.16397472 0.10065985 -0.0071647977 0.16395672
-0.30854696 -0.032573637 -0.010125635 -0.10897844 0.105162114 -0.13104199 -0.17406161 0.33779854
0.4224259 -0.08170205 -0.23507124 -0.018696867 -0.24782446 0.09176824 0.66418386 -0.09488547
-0.01642633 -0.24387462 0.20254281 0.46949366 0.34445986 0.3868011 0.1934301 0.087425716
0.59732455 0.21325405 0.07763907 -0.072638266 -0.38433418 -0.44639492 0.2878253 -0.10768482
0.062782355 0.07291371 -0.20677353 0.18995711 -0.15976511 0.2947723 0.41583642 -0.24819857
0.124167524 -0.28920805 -0.24522875 0.47283626 -0.065835014 0.1424722 0.052239608 0.09263094
0.20301095 -0.06821471 0.3943918 0.15844712 0.2551393 -0.31251234 -0.06443581 -0.5107748
-0.29126263 -0.40234244 0.061078977 0.10967396 0.09006022 0.05307117 -0.21273544 0.093760654
-0.45709842 0.024394026 0.1602697 -0.19025996 0.23346245 -0.10163353 0.0455301 0.3304952
0.5375945 -0.36820033 -0.27086273 0.19118802 0.22253995 -0.08805381 0.0033981877 -0.19855347
0.20061427 -0.07823102 -0.32143855 0.1458421 -0.11003429 0.157312 -0.37817857 0.27120066
0.17509359 -0.04218057 -0.11312344 -0.1743921 0.30576444 0.51537514 0.42095345 0.07321208
-0.116544224 0.06080746 0.008629439 -0.08497603 -0.4091799 -0.06603217 0.28187343 -0.3775203
-0.25420222 0.022444282 0.47179437 -0.38831583 -0.30116567 0.019539284 0.21050656 -0.3292614
-0.050794534 -0.118945375 -0.1733484 -0.24894112 0.21669386 0.30353794 0.12533902 0.15424336
0.2719613 -0.50896645 0.33462578 -0.09233148 -0.3094696 0.4115214 0.71917635 -0.32833162
-0.57470465 0.21681914 -0.02653219 0.08422807 -0.31989518 -0.027138034 0.09141592 0.4090846
-0.25369066 -0.085085854 -0.081457846 -0.19141851 0.23517224 0.26191062 -0.19082564 0.0015303856
-0.34428447 -0.3435224 -0.09075486 -0.42528534 0.03621386 -0.28720692 0.10386339 0.06482464
-0.07615442 -0.33936453 -0.31372485 -0.11986161 -0.34584436 0.21053366 0.17119204 0.31628966
-0.26554608 0.53628874 0.2134094 0.25489724 -0.5910495 -0.12268107 -0.53654563 0.4252661
-0.25408837 -0.08686799 0.6468722 -0.2899867 -0.24687085 -0.1938482 -0.0707603 -0.28666058
-0.23643683 -0.0501217 0.1637889 0.58447295 0.6468758 0.19512308 -0.18115519 -0.29994705
0.30980858 0.15732537 -0.4804498 -0.17204714 -0.35134584 -0.16420744 0.14402287 -0.43136314
00000000: cdae 183c 4cce 1e3e abc0 78be ab9f e1be
00000010: 6e2c 76be 52b9 cc3d be11 2e3d bef3 e8bd
00000020: df75 66be 2fe1 40be a6f1 453d a7f5 c0b9
00000030: 12ea 933e 874b c83e 61c0 d43e 95ab 1c3e
00000040: 2d56 b2be 3176 f73d 2a11 dfbd 28a9 993e
00000050: 0a5f 37bf b2cf 61bb 56d0 36bf bf4a c13d
00000060: b862 25be 98a1 473e 7392 663d 1246 2cbf
00000070: 12c9 203f a5a4 7bbe 6ec0 bd3d cc16 4a3e
00000080: 7d8e 633e 52ff 1a3e dd2b 043f 3f16 c83c
00000090: b764 fbbc 770a 6cbe bdd9 30be 7bc1 8f3e
000000a0: ecc1 453e 9348 babd aaeb fe3d 3559 403e
000000b0: 8218 1f3e d8bf 143e 5671 63be 860b 74be
000000c0: ea0d be3b f49c 6c3e e07c 00be 9689 953e
000000d0: 5593 9abe 6425 cebe bbc8 293c 1955 9a3d
000000e0: d974 98be 7853 acbe 0dd8 bebe 47bf 773e
000000f0: fde8 27be c026 ce3d aec6 eabb 45e4 273e
00000100: def9 9dbe ef6b 05bd fee5 25bc 1730 dfbd
00000110: 3c5f d73d df2f 06be 353d 32be eef3 ac3e
00000120: 3548 d83e 6853 a7bd 84b6 70be 2c2a 99bc
00000130: b2c5 7dbe fdf0 bb3d f407 2a3f 5053 c2bd
00000140: 8390 86bc 45ba 79be 6267 4f3e 7961 f03e
00000150: 0b5d b03e cb0a c63e 8a12 463e 410c b33d
00000160: 43ea 183f 455f 5a3e 3c01 9f3d 5fc3 94bd
00000170: 73c7 c4be e08d e4be d65d 933e dc89 dcbd
00000180: 0994 803d c853 953d 71bc 53be 1e84 423e
00000190: 7799 23be 65ec 963e 83e8 d43e c427 7ebe
000001a0: 8b4b fe3d 1413 94be 3f1d 7bbe 9817 f23e
000001b0: 82d4 86bd 3be4 113e 33f9 553d 4ab5 bd3d
000001c0: 1ae2 4f3e 27b4 8bbd b9ed c93e f63f 223e
000001d0: 9ea1 823e 9e01 a0be ecf6 83bd 23c2 02bf
000001e0: 6020 95be d4ff cdbe f32d 7a3d be9c e03d
000001f0: 7e71 b83d 2861 593d 52d7 59be 9605 c03d
00000200: ce08 eabe fbd5 c73c be1d 243e 82d3 42be
00000210: c810 6f3e 3d25 d0bd c57d 3a3d ab36 a93e
00000220: cb9f 093f c184 bcbe 85ae 8abe cbc6 433e
00000230: 83e1 633e 8e55 b4bd 21b4 5e3b 9a51 4bbe
00000240: d46d 4d3e 9637 a0bd 9893 a4be a257 153e
00000250: a859 e1bd 6616 213e 9fa0 c1be d0da 8a3e
00000260: bc4b 333e 89c5 2cbd 43ad e7bd d893 32be
00000270: 288d 9c3e a0ef 033f 3687 d73e 37f0 953d
00000280: bdae eebd 3e11 793d 7e62 0d3c ea07 aebd
00000290: 0780 d1be e03b 87bd b751 903e 574a c1be
000002a0: cb26 82be 12dd b73c 088f f13e 55d1 c6be
000002b0: 6332 9abe d910 a03c 088f 573e f394 a8be
000002c0: ee0d 50bd a299 f3bd 3e82 31be 6cea 7ebe
000002d0: ffe4 5d3e 5369 9b3e df58 003e f9f1 1d3e
000002e0: 833e 8b3e a04b 02bf 1254 ab3e 4918 bdbd
000002f0: cd72 9ebe efb2 d23e f11b 383f 151b a8be
00000300: d81f 13bf d605 5e3e 095a d9bc c47f ac3d
00000310: 4dc9 a3be 9550 debc 4538 bb3d 8973 d13e
00000320: bee3 81be 7e41 aebd 5fd3 a6bd 3703 44be
00000330: fed0 703e 2619 863e cc67 43be 3897 c83a
00000340: 0e46 b0be 2be2 afbe afdd b9bd 00bf d9be
00000350: fc54 143d c90c 93be 54b6 d43d c8c2 843d
00000360: d9f6 9bbd 30c1 adbe 8ba0 a0be 017a f5bd
00000370: 8312 b1be 2396 573e f74c 2f3e b8f0 a13e
00000380: a8f5 87be 384a 093f fe87 5a3e e481 823e
00000390: 054f 17bf 3640 fbbd 0e5b 09bf 7abc d93e
000003a0: df17 82be d8e7 b1bd 6b99 253f 2379 94be
000003b0: b6cb 7cbe 2480 46be c7ea 90bd 2dc5 92be
000003c0: 7f1c 72be 694c 4dbd 47b8 273e 05a0 153f
000003d0: a799 253f 58ce 473e bf80 39be a992 99be
000003e0: 3b9f 9e3e e719 213e 84fd f5be 202d 30be
000003f0: 9ae3 b3be ff25 28be bb7a 133e a1db dcbe

transformer.encoder.layers.1.linear1.bias f4 [16]
0.22135937 -0.3019108 0.15659037 -0.091952816 -0.212391 -0.07054776 -0.22159235 -0.1928837
0.03262536 0.117838 0.08389962 0.04651914 -0.13496837 0.13825285 0.021559427 -0.25207937
00000000: 08ac 623e 0d94 9abe 3a59 203e c251 bcbd
00000010: 077d 59be 587b 90bd 1be9 62be 4e83 45be
00000020: 2ba2 053d 0d55 f13d 90d3 ab3d db8a 3e3d
00000030: 2635 0abe 2892 0d3e 659d b03c 8c10 81be
