public/models/forecasting/transformer.pt.ckpt (torch, 178985 bytes, 204 tensors)

encoder.weight f4 [16, 2]
000000 4a 1b 04 3c 58 dd 3b be f7 fe 38 bd 31 0c d0 3c
       0.008063147 -0.18346155 -0.04516503 0.025396438
000010 6a 69 3f 3e 99 f5 e8 3e a8 f2 47 be c6 01 ca 3e
       0.18692556 0.45499876 -0.1952616 0.39454478
000020 6f 3a cf be 3a 0c 05 3f e0 88 f4 3e dd 63 be be
       -0.4047427 0.5197178 0.47760677 -0.37185565
000030 b3 e9 6c be 05 ea e0 be 4d cc cd bd 5f df 52 3e
       -0.23136024 -0.43928543 -0.10048733 0.20593022
000040 92 a3 be 3e 39 4b bb 3d 78 0a 0b bf 7b a8 7c 3e
       0.3723417 0.09145207 -0.5431285 0.24673645
000050 1c 3a 55 be 49 3c 10 bf 52 df 58 bf cd fc c4 be
       -0.20822948 -0.5634199 -0.8471576 -0.38474122
000060 bd 0a 22 be d3 40 ea be f4 63 f3 bd 1f 2c cd be
       -0.15824409 -0.45752582 -0.11884299 -0.40072724
000070 a1 4d ef bd a1 2f 95 be 68 96 44 bf 6c 10 22 be
       -0.116847284 -0.291379 -0.76792 -0.15826577

encoder.bias f4 [16]
000000 4d 9d 52 be c6 36 83 be f3 62 e7 be 20 4d 93 be
       -0.20567818 -0.25627726 -0.4519268 -0.2876978
000010 82 37 be be 48 27 75 3e 29 4a dd 3e 22 15 89 be
       -0.37151724 0.23940766 0.43220642 -0.26773936
000020 8c 00 c9 be 2a 38 20 bf 08 06 6c 3e 84 b2 7f 3e
       -0.3925823 -0.625857 0.23049176 0.24970442
000030 b2 aa f1 be 99 e5 9f be 2c 22 ad 3e 87 0f c2 3e
       -0.47200543 -0.31229857 0.33815134 0.3790247

transformer.encoder.layers.0.self_attn.in_proj_weight f4 [48, 16]
000000 db db 7b be d6 d4 17 be e4 ac 7a bc c9 87 ea 3e
       -0.24595587 -0.14827284 -0.015300009 0.4580672
000010 6b 75 75 be 51 b8 d8 3e 58 be 05 3e 9b b7 b9 3d
       -0.23970573 0.42328122 0.13060892 0.09068223
000020 b8 84 4f 3d 82 4d 81 be b1 73 f5 bb fc fc 84 3d
       0.05066368 -0.25254446 -0.007490598 0.064935654
000030 eb 63 73 be d5 5d c6 3e fb 44 9d 3e 03 1f e4 3e
       -0.23768584 0.38743463 0.3071669 0.4455491
000040 b4 ef e4 be 69 61 21 bf 12 d4 83 3e 53 f8 62 3e
       -0.4471413 -0.6303926 0.25747734 0.2216504
000050 5d 0a d4 3d 06 00 4e 3e c9 f8 30 3f f0 8b 5b 3e
       0.10353539 0.20117196 0.69129616 0.214401
000060 b5 c1 c1 be 16 2e 02 bf 3e ec 48 be 7a b3 32 3f
       -0.378431 -0.5085157 -0.19621369 0.6980511
000070 27 cd 25 bf 61 33 34 3e 16 93 14 3f db 2e 33 3f
       -0.6476616 0.17597724 0.58036935 0.6999337
000080 61 08 af bd a7 82 21 3d f6 f4 b1 3e 39 a9 75 3b
       -0.0854652 0.03943124 0.34757203 0.0037484898
000090 3f a1 a7 be 90 9d 08 3f ea b6 ba 3e aa 6a 53 3e
       -0.32740209 0.5336542 0.36467677 0.20646158
0000a0 9f 6d 9f be 7a 49 e7 bc 3f 6a 9d be 22 24 aa 3e
       -0.31138322 -0.028233279 -0.30745122 0.33230692
0000b0 04 dd a2 be 71 fc 15 3e f1 0f 0d 3e f0 e6 fc 3e
       -0.31809247 0.1464708 0.13775612 0.4939494
0000c0 86 bd d9 3e 14 38 79 3e 56 ee 67 be 40 05 0b be
       0.42527407 0.24337798 -0.22649512 -0.13576221
0000d0 4a 63 26 3e 38 26 b3 be d4 1b 13 bf c0 59 b4 be
       0.16248813 -0.34990096 -0.5746434 -0.35224724
0000e0 d9 48 ab 3e 72 ac 25 3f 27 6b b0 3c aa e2 92 bd
       0.33454016 0.64716256 0.02153547 -0.07172139
0000f0 5c 1b 07 3f 95 19 0c be e2 e9 76 bb 5a 95 05 bf
       0.5277612 -0.13681634 -0.0037676026 -0.5218102
000100 c8 17 98 3e 7e 50 aa bd 87 1b 45 3e 7a 1e 80 3d
       0.29705644 -0.08316134 0.19248782 0.06255813
000110 1b 6b c4 3d 31 fb ce be 93 28 0c be 8a c1 13 3e
       0.09590741 -0.4042602 -0.13687353 0.14429298
000120 56 eb 4c 3e f6 28 00 bd 0b 49 e8 be a1 f0 5b be
       0.20011649 -0.031289063 -0.45368227 -0.21478511
000130 a8 df b8 3e 61 47 13 3e e6 3b 24 be 00 5f 03 be
       0.36108136 0.14382698 -0.16038474 -0.12829208
000140 a1 09 2f be 5b c7 8e bd a7 0a 8d 3e b6 32 35 3d
       -0.17093517 -0.06971618 0.2754719 0.044237815
000150 44 49 e2 3c 22 d5 21 be 86 b7 30 3e 41 e9 36 3d
       0.027622826 -0.1580396 0.17257509 0.044656042
000160 96 3f 5c 3d cf 37 97 3e cc 43 f6 bd 3c 04 72 be
       0.053771578 0.29534766 -0.1202465 -0.23634428
000170 61 3e 2b be 25 65 a1 be f2 90 f1 bc 09 7b 26 be
       -0.16723014 -0.3152248 -0.02948806 -0.16257872
000180 c2 14 95 be 76 1d 1d be cc 28 10 bf 70 5d 19 3e
       -0.291174 -0.1534327 -0.5631225 0.1497705
000190 d4 b9 d6 3e 20 d8 77 3e 21 d7 b2 3e 8a 44 8c 3e
       0.4193865 0.24203539 0.34929755 0.2739604
0001a0 10 96 c4 be 4e 39 50 be 44 7c 0a be c7 91 c0 3e
       -0.3839574 -0.2033436 -0.13523966 0.3761122
0001b0 37 4c 7d be d8 ed 87 3d f5 5c c0 bd 89 d0 f4 3d
       -0.24736105 0.06637162 -0.0939273 0.119538374
0001c0 8c 99 61 be 0f f7 3a be e4 e2 5f 3e 96 d8 c2 3e
       -0.2203123 -0.18258308 0.21863896 0.38055867
0001d0 c0 11 f9 be 49 39 05 be b4 e4 11 bf c1 a0 39 be
       -0.48646355 -0.13010134 -0.569896 -0.18127729
0001e0 f1 ce 5c be 20 c9 82 3e 80 62 00 be 20 27 ce bc
       -0.21563317 0.2554407 -0.12537575 -0.02516514
0001f0 7e c1 2b 3e 4a ac 29 3e 36 82 bc be 7c ec f1 be
       0.1677303 0.1656963 -0.36818093 -0.47250736
000200 2c ff 84 3e 0d 5b b2 3e f5 82 28 3d 76 3f a9 3e
       0.2597593 0.3483509 0.041140515 0.3305623
000210 d5 b4 bb bd c3 1c 63 be e6 7f ba be 7c e7 ce be
       -0.0916535 -0.2217894 -0.36425704 -0.40410984
000220 3d 26 47 3d 75 34 a0 3e 00 6c a7 3d 46 ec 80 be
       0.04862045 0.31290022 0.08174896 -0.25180262
000230 3e bc b4 3e c1 05 e8 bd 1a 2d ab be 76 f3 9d 3a
       0.35299867 -0.113292225 -0.33432847 0.0012050706
000240 ed 9c 2f be c5 04 a2 bd 0a d5 9a 3d 42 27 6a 3e
       -0.17149706 -0.07911066 0.07560165 0.22866538
000250 22 d9 22 be d4 15 bf be 38 8c 59 be 16 c4 b7 bd
       -0.15903142 -0.3732134 -0.21244895 -0.08972947
000260 45 b5 83 3e 50 47 d2 3e d7 e3 d7 3e 98 78 f3 be
       0.25724235 0.41070032 0.42166016 -0.47552943
000270 53 71 ec 3e 86 2b 25 3c d6 d9 af be b9 6a 28 3d
       0.4618021 0.010081178 -0.34345883 0.041117404
000280 f2 8f 69 be 63 4c e0 be 98 62 ec 3d ed a5 f5 be
       -0.22808817 -0.43808278 0.11542243 -0.47978154
000290 5f 81 8d be cf b1 da 3e 55 52 5d 3e eb de 66 3e
       -0.27637765 0.42713782 0.21613438 0.22545974
0002a0 69 b3 26 bf 31 a6 91 be d7 9a 28 3e c7 89 02 3f
       -0.6511751 -0.28447106 0.16465317 0.5099148
0002b0 ba 7a ec bd f9 53 09 3f bb e3 fe 3e cb b9 d2 3e
       -0.11546846 0.5364376 0.4978312 0.41157374
0002c0 3d e1 fb 3e 12 72 13 3f f8 75 18 bf a0 c1 d9 3e
       0.4919528 0.5759593 -0.59555006 0.42530537
0002d0 89 83 41 be 8a 7b d5 be 14 f3 e7 bd ed 4b d0 be
       -0.18897833 -0.41695815 -0.1132566 -0.40682927
0002e0 6f 42 43 3c 64 fd 32 3d 11 e6 e8 3e 4a 0d 87 be
       0.0119176945 0.043698683 0.45488027 -0.26377326
0002f0 ea c7 fc 3e f4 f1 5e bd f5 09 b8 3c 11 5a f7 bd
       0.49371272 -0.054429963 0.022465685 -0.12077726
000300 0e ad d9 be bb af bb be 81 6e 4c 3f b6 f2 ef 3e
       -0.42514843 -0.3665751 0.79856116 0.4686486
000310 36 2f 09 bf 27 58 78 3e 82 22 10 3f 7a 8a f4 3e
       -0.53587663 0.24252377 0.56302655 0.477619
000320 f5 65 7f be 5b 68 be be 98 b3 2d be a9 99 6c 3e
       -0.24941237 -0.37188992 -0.16963041 0.23105492
000330 62 eb 98 3c 8b 90 8e bc 89 5e 12 3f 2d 1c cf 3e
       0.018666927 -0.017402908 0.571755 0.40451184
000340 6e fb ac 3e 45 44 56 3e 89 9f 71 be 4e 99 7c be
       0.33785576 0.2092448 -0.23596014 -0.24667856
000350 83 5d 54 3f 20 ac 1e bd 81 7e 2c be 6d 2f bd be
       0.8295519 -0.03873837 -0.16845132 -0.36950245
000360 c9 4c f3 3d 1b 9d 2d 3e 86 4b e1 bc f2 09 37 be
       0.1187988 0.16954462 -0.027501833 -0.17874888
000370 98 c5 a0 bd dd 05 8d 3d c7 af bd be 30 ba a7 be
       -0.07850188 0.06885884 -0.3704817 -0.32759237
000380 ee b5 9e bd 56 79 41 3e 01 ee 89 be d8 13 36 be
       -0.07749544 0.18893942 -0.26939395 -0.17781007
000390 c8 a5 2b 3f 3f a2 cb bd 31 a7 1a be 70 fa ab be
       0.6704984 -0.09943055 -0.15102841 -0.33589506
0003a0 c5 9d 88 3b 51 31 5f be 1c 59 49 3e fd ad a1 bd
       0.004169198 -0.21796156 0.19662899 -0.07894514
0003b0 a9 d0 1d 3e 38 50 be bd 3c 9f 2f be 60 9c e9 3d
       0.15411629 -0.09292644 -0.17150587 0.11406779
0003c0 49 ad 85 3e 1b c3 b4 be f8 17 eb be b9 ed 56 be
       0.2610877 -0.35305104 -0.45916724 -0.20989121
0003d0 fc 85 65 3f e3 08 e4 be 0a a8 03 3d cb ac cb be
       0.8965757 -0.4453803 0.032142676 -0.39780268
0003e0 56 27 b5 3e 47 68 18 3e fc 8b ab bd 9a 96 66 be
       0.35381573 0.14883529 -0.08376309 -0.22518387
0003f0 b5 81 f2 3d 84 12 c9 be 73 73 df be 8f 7e ab be
       0.11841146 -0.3927194 -0.43642768 -0.33494994

transformer.encoder.layers.0.self_attn.in_proj_bias f4 [48]
000000 3b 05 82 3e 29 85 0b 3f 5f 75 ad 3e b5 e3 b5 be
       0.25394616 0.5450006 0.3387861 -0.3552529
000010 38 d2 0e be 0d 48 2c bd 4b 76 50 3e a6 b5 54 be
       -0.1394738 -0.0420609 0.20357625 -0.20772418
000020 67 10 41 be ee d8 8d be 07 01 9d 3e 76 8e af be
       -0.18853913 -0.27704567 0.30664846 -0.34288377
000030 3e b9 88 3e c5 eb 3c be 86 23 86 bd 2e 03 02 be
       0.2670383 -0.18449314 -0.06549744 -0.12696525
000040 63 5e b0 3c 29 52 85 bc 6e fc 05 bd fa 01 a3 3c
       0.021529382 -0.016274529 -0.03271144 0.019898403
000050 81 63 52 bd a0 3a d5 bc 9c e2 ab 3c 05 3d b2 bc
       -0.051364426 -0.026028931 0.02098208 -0.021757612
000060 db 52 58 3d 06 bb 98 3c 6c d9 3d bd 86 5b 61 3d
       0.052813392 0.018643867 -0.046349928 0.055018924
000070 9d 64 7a bc 8a c4 15 3d eb bb 5a bb 40 bd b5 3b
       -0.015282777 0.036564387 -0.0033376168 0.005546242
000080 c0 75 8c bd d9 41 ae bd 4d e1 77 bb d6 3b 8b 3d
       -0.068583965 -0.08508653 -0.0037823499 0.06798522
000090 d5 0c e4 bc c3 2b 4b 3d b0 9f 8a bc 22 e0 22 bd
       -0.02783815 0.04960228 -0.016921848 -0.03976453
0000a0 3c 8d 5d bd c9 c0 2e 3d 75 99 e6 bb c7 92 38 bb
       -0.05408977 0.042664323 -0.0070373365 -0.0028163658
0000b0 1c 0c 97 bb 27 29 e9 bc ec 15 35 3d b5 50 db 3c
       -0.004609598 -0.028462006 0.04421036 0.026771883

transformer.encoder.layers.0.self_attn.out_proj.weight f4 [16, 16]
000000 e4 68 d6 3e 61 1f 9a bd 7e 3e ba 3d 04 c5 c5 be
       0.418769 -0.07525516 0.09093951 -0.38626873
000010 30 16 dd 3e 79 84 95 3e 8c db 89 be 02 e7 24 be
       0.4318099 0.2920263 -0.26925313 -0.16103747
000020 79 3d 62 be 9d da 09 3f a2 e2 08 bd 74 ad cb be
       -0.22093762 0.538492 -0.03341926 -0.39780772
000030 3e 21 59 be 27 75 03 3e c5 76 e9 3e 54 f5 0d be
       -0.21204087 0.12837659 0.45598426 -0.13863117
000040 c1 bb 62 3e d2 d5 d7 3e 7a 90 b0 be 16 25 c8 be
       0.22141935 0.4215532 -0.34485227 -0.39090794
000050 2a b9 08 3e 2d 6d df be 15 d3 f5 3b 44 a6 e9 3e
       0.13351884 -0.43637982 0.0075019696 0.45634663
000060 8f b4 b2 3e b5 ac e6 3d 78 f7 af bd fc c3 e6 3b
       0.3490338 0.1126341 -0.08592123 0.007042406
000070 85 71 00 3f 75 c1 1a 3e 11 50 af be 61 35 74 3e
       0.5017322 0.1511286 -0.34240773 0.23848487
000080 e7 c3 fe 3e 35 40 56 3d 5e ed c5 3d 56 24 0a bc
       0.49758837 0.052307326 0.09664415 -0.008431515
000090 e0 26 91 3e 83 55 58 be b5 ba c4 3e ec 63 b9 be
       0.28349972 -0.2112637 0.38423696 -0.36209047
0000a0 b6 9c cf be 07 bb ff be ea 54 ee 3d 3b 18 9b be
       -0.40549248 -0.49947378 0.1163729 -0.30291924
0000b0 d7 1b 7b be 90 cb fe 3d 14 a0 0d be 22 54 58 be
       -0.24522339 0.1244117 -0.13830596 -0.21125844
0000c0 69 6b cb be 7c 14 2e be f4 67 de bd 92 0b 53 3e
       -0.39730385 -0.17000002 -0.10859671 0.20609882
0000d0 5d db fd bb b9 58 4d 3d 08 fc 9d 3e fd f2 86 3e
       -0.0077470974 0.05013344 0.30856347 0.2635726
0000e0 da dc d5 bd 79 10 c3 3e 17 f6 98 be 43 16 67 bd
       -0.10442515 0.38098505 -0.29875252 -0.056417715
0000f0 44 15 88 be 5a 7f fc 3e d7 49 a1 be 74 c2 4a 3e
       -0.26578724 0.49315912 -0.31501648 0.1980074
000100 a8 0f e8 be 6a 7c d7 be 97 03 9f 3d 35 0e a8 3e
       -0.45324445 -0.42087108 0.077643566 0.3282334
000110 fe 5e b8 3e 6f f6 c5 bd 39 aa ae bd cd 51 91 bc
       0.36009973 -0.09666144 -0.08528561 -0.017739201
000120 ec 33 9d be 91 ec 90 be 6f 2b 85 3e c5 ff 90 bb
       -0.30703676 -0.28305486 0.260097 -0.0044250214
000130 9f bb 9e be cb 41 ae bd d7 db e1 3c 3f cc e9 3b
       -0.3100252 -0.08508643 0.027570648 0.0071349437
000140 06 fd a0 be 9d 65 5f 3e f9 aa 62 3e ef 41 be 3d
       -0.31443042 0.21816106 0.22135533 0.092899196
000150 12 59 9a 3e b0 a6 19 3e 15 77 93 be a2 ad ca be
       0.3014608 0.15004992 -0.2880179 -0.39585596
000160 8e 77 b1 be e0 42 ac be 25 4d 61 3d 60 2e 02 3e
       -0.34661525 -0.33644772 0.05500521 0.12713003
000170 5b 59 b7 be 0d b3 43 3d 90 ee 21 be 95 5f 92 3e
       -0.3581036 0.047778178 -0.1581366 0.28588548
000180 18 eb 97 3d 95 25 95 be 8d f6 c3 3d 7f 9d 25 3e
       0.074178874 -0.29130235 0.0956851 0.16173361
000190 6d 59 7d 3e 1a 4f a4 3c 8c b3 3a be 3d 94 c0 bd
       0.24741144 0.02005725 -0.18232554 -0.09403274
0001a0 b9 c5 00 bf 9b d0 3b 3e 87 81 8b be 1c 99 bb be
       -0.503017 0.18341295 -0.2724726 -0.3664025
0001b0 bc ad 90 3e ce 7a 0f 3d 27 a8 48 3d ea eb e4 3d
       0.2825755 0.035029225 0.048988488 0.111778095
0001c0 d9 73 f3 bd 33 11 05 3e b7 8e 58 bd df ea 76 be
       -0.118873306 0.12994842 -0.05287048 -0.24113034
0001d0 8f dc 18 3c 9a ab e6 bb cc be 95 3e 28 12 66 3e
       0.009329929 -0.0070394995 0.2924713 0.22467864
0001e0 9a bc c9 bd 3e 35 d5 3e df f5 fb 3d 2b ae 9b be
       -0.09850426 0.41642183 0.123027556 -0.30406317
0001f0 4b b3 0c be 1d fc d4 bd c6 8a 5e 3e 4b 96 26 3f
       -0.1374027 -0.10399649 0.21732625 0.6507308
000200 19 c4 53 be 11 b6 9f bc 75 07 e9 be 6f e6 ef 3d
       -0.20680274 -0.019495996 -0.45513502 0.117138736
000210 2c 79 95 be d3 b9 78 3e 33 a3 5c be 15 0e c2 be
       -0.2919401 0.24289636 -0.2154663 -0.3790137
000220 31 93 9a 3e b7 7f 4c be 61 92 c7 bd 44 72 1a 3e
       0.30190423 -0.19970594 -0.097447164 0.15082651
000230 c5 18 79 3e 7d 5e e6 3d 6c 51 16 be e0 03 05 be
       0.24325855 0.11248491 -0.14679497 -0.1298976
000240 28 79 06 3f 50 e4 c1 3e 6a 58 89 3e 0a ad 19 bf
       0.5252862 0.378695 0.26825267 -0.6002966
000250 9a 96 58 bc 1b 34 27 3e 80 a5 12 bd b5 9d 53 bb
       -0.0132195 0.1632847 -0.035802364 -0.0032290046
000260 95 c4 84 3d cd 6f 00 bf 7e bc 8c bd 1e 45 8c 3e
       0.064828075 -0.50170594 -0.068718895 0.27396482
000270 1f 32 b9 bd 64 58 d5 bd f2 2e c9 3c 23 95 78 be
       -0.09042763 -0.1041725 0.024558518 -0.24275641
000280 7f 64 95 be 28 15 99 3e 77 cf 8f 3d fb 14 49 3e
       -0.29178235 0.29898953 0.07021993 0.1963691
000290 71 af 64 be 6c be b4 be b8 76 7c bd b3 43 d2 3c
       -0.2233255 -0.3530153 -0.061636657 0.025667047
0002a0 be a3 46 3d c3 83 f9 3c e8 f0 9c bb aa d0 35 3e
       0.048496 0.030458337 -0.0047894605 0.1775538
0002b0 cd 30 65 3e 6b b5 50 3d 4f 11 98 3e 66 79 da bc
       0.22381897 0.050954264 0.29700705 -0.026669215
0002c0 92 d7 17 bd 71 fd bc be 08 5f 8f bd 54 36 f4 3e
       -0.03707082 -0.3691211 -0.07000548 0.476977
0002d0 29 ca 55 3e c5 74 9f bd cf c2 32 3d 6c f4 a1 be
       0.20877899 -0.07785944 0.043642815 -0.31631792
0002e0 5c dd 13 3e c4 0a 0d be 99 b7 c6 be f6 e1 6a be
       0.1443991 -0.13773638 -0.3881195 -0.2293776
0002f0 40 c0 85 3e 02 f9 27 be b9 d2 70 3e d3 a3 ae 3e
       0.26123238 -0.16403583 0.23517884 0.34109363
000300 de 9a 06 3e fe 15 91 bd 79 93 c5 3e b2 b9 17 be
       0.13145015 -0.07084273 0.38589075 -0.14816931
000310 4c 23 8b 3e 9b 5a 00 3d 4b 00 e8 3e 58 42 f2 3d
       0.27175367 0.031336408 0.45312724 0.1182906
000320 27 c9 b5 3e af cc f7 be b6 a0 07 3e f1 fc 24 3e
       0.3550503 -0.4839835 0.132449 0.16112114
000330 84 43 8b be 0f 3f 7c bd 52 f1 7f bd 89 08 84 be
       -0.27199948 -0.061583575 -0.062486 -0.25787762
000340 ab 5c d7 be 03 40 08 be cc 72 af 3e 0b 63 00 bd
       -0.42062888 -0.13305669 0.3426727 -0.031344455
000350 9e 09 c5 bd 88 98 6e bc 93 f3 03 be 5c 83 b6 3e
       -0.09620975 -0.0145627335 -0.12885885 0.35647094
000360 dc b2 ae bd 8e a9 ab 3e 25 69 0d bf be 28 00 3e
       -0.085302085 0.33527797 -0.5523856 0.12515542
000370 71 c0 dd be 4c 4c 17 bd 47 8e 46 bb 81 32 b3 bd
       -0.43310884 -0.036937997 -0.0030297206 -0.08749867
000380 9c 65 eb be 25 63 0e 3e 66 7f 07 be e1 c1 cd 3e
       -0.4597596 0.13905008 -0.13232192 0.4018698
000390 8d c8 bb be 58 b4 d1 3e 24 25 84 be 71 d9 e6 be
       -0.36676446 0.40957904 -0.25809586 -0.4508777
0003a0 67 57 00 be 86 dc 53 be db b9 fe be 85 49 d7 3e
       -0.12533341 -0.20689592 -0.4975117 0.42048278
0003b0 4c 94 fb 3d 90 82 8f 3e e5 1b c4 3e e8 6b 0f 3f
       0.12284145 0.280293 0.38302532 0.56024027
0003c0 fd bb 94 be 46 2b ab 3e ec 93 02 3e a0 b2 77 3e
       -0.29049674 0.33431453 0.1275174 0.24189234
0003d0 3a 89 21 bd 64 ea d4 3d 15 0f 32 3e 4d 82 14 bf
       -0.03943751 0.10396269 0.17388566 -0.58011323
0003e0 31 8e f3 bd 17 62 b3 3e df ff f4 bd b3 44 95 3c
       -0.11892355 0.35035774 -0.11962866 0.018221235
0003f0 36 d6 9f 3d 4f 51 5b be 79 30 d4 3e 81 90 89 3d
       0.07804529 -0.21417736 0.41443232 0.06717015

transformer.encoder.layers.0.self_attn.out_proj.bias f4 [16]
000000 6f 36 95 3d ad 93 8e bd b9 0f 42 bd 50 ce e0 3d
       0.07285773 -0.06961761 -0.047378276 0.10976851
000010 87 24 7c 3d a8 12 3a bc cc 6f d6 3b a6 87 50 bd
       0.061558273 -0.011356987 0.006544089 -0.050910614
000020 fe 12 00 3d 32 d5 0b bd 88 08 fa 3c cb 52 c6 3c
       0.031268112 -0.034138866 0.030521646 0.0242094
000030 78 ca 1f 3d 3b 3d 9b 3c b1 e5 0d bc 7f 1c 74 3d
       0.03901145 0.018950095 -0.00866072 0.05959749

transformer.encoder.layers.0.linear1.weight f4 [16, 16]
000000 1d 48 ca bd 67 a6 27 3e 67 b7 52 be 98 7d 8a 3e
       -0.09877036 0.16372071 -0.20577775 0.27048945
000010 93 2f 92 3e a3 0c 25 be cb 01 b4 3e 10 9b 20 3e
       0.2855192 -0.16118102 0.35157618 0.15684152
000020 c0 9e 5a be 33 23 2b bd ac 84 ae 3e 3e a3 d1 bc
       -0.21349621 -0.041781615 0.34085596 -0.025590535
000030 69 a9 d8 3e dc 4c 73 3e 31 fc 84 3e 22 6c 95 be
       0.4231675 0.23759788 0.25973657 -0.2918406
000040 e8 5a 9b bd 90 88 b2 3d e8 7f d1 3d ae b1 e0 be
       -0.07585698 0.087174535 0.10229474 -0.4388556
000050 c2 bc a3 be c4 f6 14 be 38 8e a4 bc f0 4b d2 bd
       -0.31979948 -0.14547259 -0.020087346 -0.1026839
000060 93 78 ee bd fd a9 06 3f 1f 3b f1 3e 03 08 47 3d
       -0.116440915 0.5260313 0.47115418 0.048591625
000070 80 6c 56 bd cb 99 af be 55 63 b4 3e 16 9a 27 be
       -0.052349567 -0.34297022 0.35232034 -0.16367373
000080 7e f2 e6 be 1f b3 8b 3d 04 33 e0 3e 4c d6 87 be
       -0.45106882 0.06821274 0.43788922 -0.26530683
000090 e4 a3 9a 3e 2f 31 29 3e 85 0a 8c 3e e2 b2 86 be
       0.30203164 0.16522668 0.27351776 -0.26308352
0000a0 05 aa 50 be a3 0b 76 3e dd 05 dd 3d 11 c2 f5 bd
       -0.20377357 0.24027877 0.10792134 -0.11999906
0000b0 32 73 07 3d 73 ff 0b bf e8 d7 7d 3e b2 da 96 be
       0.033068843 -0.5468666 0.24789393 -0.29463726
0000c0 ee 61 0f bf ff a9 f9 3e 51 df 9a 3e da 62 99 be
       -0.56008804 0.4876251 0.30248502 -0.2995823
0000d0 58 82 cb 3e 47 7c 5d be d3 90 59 be 2c f6 3b bd
       0.39747882 -0.2162944 -0.21246652 -0.045889065
0000e0 54 03 e5 3e 5d 2d 8a be 3d d5 9b be 4a e4 7f bd
       0.44729102 -0.26987734 -0.30436125 -0.062473573
0000f0 fb f1 96 3d 00 68 4e be 1a 31 04 be 74 ff a1 be
       0.07370373 -0.2015686 -0.12909356 -0.31640208
000100 5b 21 fc 3d ad d5 45 3d 3a 38 42 be 4e 2b b3 be
       0.123110496 0.04829948 -0.18966761 -0.34993976
000110 d3 11 68 3d 5a e7 23 3e 5b 61 e2 be 47 2b 72 3e
       0.056657623 0.16006222 -0.442149 0.23649321
000120 a7 31 0f be dd 87 13 bd 27 41 9b 3e f0 4f ba bd
       -0.13983785 -0.03601824 0.30323145 -0.09097278
000130 a9 a6 b3 bd d2 8a f8 bb ac d6 06 be 27 6a 78 be
       -0.08772022 -0.007584908 -0.13167828 -0.24259244
000140 bd f0 a5 bc 44 76 18 bd c2 67 d2 3e 48 aa ea bd
       -0.020256395 -0.037222162 0.41094786 -0.1145826
000150 82 45 62 3e 39 f0 95 3d 5e f9 91 be 0e ae 30 be
       0.22096828 0.073212095 -0.28510565 -0.17253897
000160 db da df 3e 5c 18 e2 3d 45 6b 61 be 07 44 8e 3e
       0.4372166 0.110398024 -0.22013576 0.27786276
000170 fa ac bd 3d fc c9 21 3e 88 b2 3e bc 4a a0 9c be
       0.09261508 0.15799707 -0.011639245 -0.3059104
000180 1b 96 b1 be ba 04 be 3e a8 46 25 be 84 27 be 3d
       -0.34684834 0.3711298 -0.16140234 0.09284881
000190 2a 2a e4 be 42 80 be bd 20 d5 7b be 3b 66 a8 be
       -0.4456342 -0.09301807 -0.2459302 -0.32890496
0001a0 6e 30 23 be 1e c6 2e 3d 89 5c 01 be f7 8e b2 be
       -0.15936443 0.042669408 -0.12632956 -0.348747
0001b0 57 42 98 be f0 5d 81 3d b5 8c 93 be be 73 7b be
       -0.29738113 0.06316745 -0.28818288 -0.24555871
0001c0 72 a2 b6 3e 15 7f cf 3e a2 7e fd be 73 dc 91 3e
       0.3567081 0.40526643 -0.49510676 0.28488502
0001d0 1a 13 52 be d1 d0 00 bf a8 24 8f bd 8b a3 06 be
       -0.20515099 -0.5031863 -0.069894135 -0.13148324
0001e0 05 75 5e 3e f4 e6 17 3e ef ca f3 bc 70 1c b6 3a
       0.21724327 0.14834195 -0.029759852 0.0013893973
0001f0 88 8e 85 3d db e6 bf be b1 b7 bc 3c cc 2e 9a 3e
       0.06521326 -0.37480816 0.02303681 0.30113828
000200 04 4a 04 be fc e0 68 3d bf 02 96 be b9 70 6f 3e
       -0.1291886 0.056855187 -0.2929897 0.23382844
000210 fb 68 10 3f 31 5c 79 3e 25 66 20 be 7d 3e d2 be
       0.5641019 0.24351574 -0.15663965 -0.410633
000220 1d 69 46 3e c9 a3 9a be 1d da 80 3e b5 6c a9 3d
       0.19376035 -0.30203083 0.25166407 0.08272687
000230 02 03 26 3e 26 f8 b6 3e 55 1c 94 3e bc e5 d5 3d
       0.16212085 0.35736197 0.28927866 0.10444209
000240 7e ba 7b be 4c 4b 1e 3d 49 55 bb be be 3e 87 3e
       -0.2458286 0.038646027 -0.36588505 0.26415056
000250 14 05 7f 3e f8 0c 15 be 39 b7 7d 3e ab 8c d1 3d
       0.24904281 -0.14555728 0.24776925 0.102319084
000260 72 64 d2 3e 1d ef fa bc b8 7b b8 be b2 d4 c2 3e
       0.4109226 -0.030631596 -0.3603189 0.380529
000270 18 df 4e 3e 9e 2c b0 3e fc ab c3 3e fe da ea be
       0.20202291 0.3440904 0.3821715 -0.45870203
000280 d3 71 c7 3c cf 4c 1f bd eb dd 30 bd a0 8c c8 3b
       0.024346268 -0.03889161 -0.043180387 0.0061202794
000290 fa 10 22 3f cc 89 33 be dc 0d 0b be 1d 66 86 be
       0.63307154 -0.17533034 -0.13579506 -0.2624978
0002a0 65 3a 0b bf e6 a2 88 3e 57 fe e1 3c d3 07 b5 bd
       -0.5438598 0.26686782 0.027587099 -0.08839383
0002b0 49 c1 d6 3e 27 a6 ed 3e 82 4a 42 bd 2f 30 81 be
       0.4194434 0.46415827 -0.047434337 -0.25232074
0002c0 4d 9b bd bd fd 42 26 3d 80 62 d1 3e ca b3 5a 3e
       -0.09258137 0.04059123 0.40895462 0.21357647
0002d0 4b 29 bc be 2f 0f fe bd a1 c0 21 be 2f f1 53 3e
       -0.36750254 -0.1240524 -0.15796138 0.20697473
0002e0 89 b1 ba 3d 3d a8 a7 3e 45 d0 ab 3d ae a9 23 3e
       0.091158934 0.32745543 0.08389334 0.15982696
0002f0 8e 95 26 3d 9e 82 b9 3d 25 5b 14 be 28 02 07 be
       0.04066997 0.090581164 -0.14487894 -0.13184416
000300 a5 0f e4 3d 40 05 b8 3e f5 02 a2 be df 4d b3 3d
       0.111357965 0.35941505 -0.3164288 0.08755087
000310 36 69 d9 be 3f 55 dd bc 69 23 62 be 17 1b 4b be
       -0.42463082 -0.027018188 -0.2208382 -0.19834553
000320 89 58 db bd 0f bc 82 be 9c de 9f 3e ac 3d b1 bd
       -0.10710246 -0.25534102 0.31224525 -0.08654341
000330 b0 48 9f bc 66 30 fc 3e 18 76 a2 be 85 45 89 be
       -0.01944384 0.49255675 -0.31730723 -0.26810852
000340 8a 3d 11 bd fe dc 02 3e 62 59 e3 3d 2a 9a 8a bd
       -0.03545908 0.12779614 0.11101033 -0.06767686
000350 4a 4b a8 3e e8 18 3d be c5 f6 a6 be 9c 81 bd 3e
       0.3286994 -0.18466532 -0.32610145 0.37012947
000360 7a a9 c6 be b8 4d 78 3e 75 07 98 bc 28 c8 6d be
       -0.38801175 0.24248397 -0.018558243 -0.23220885
000370 9b ef 1b 3f 5f 3f db 3d a7 57 21 bf 3b b7 d7 be
       0.60912484 0.107054465 -0.6302437 -0.4213198
000380 52 51 8f 3e a4 f6 fe bb 76 a0 bb 3d 86 a4 c2 3e
       0.2799173 -0.0077808667 0.09161465 0.38016146
000390 5d 66 bc be 5d 22 73 be 93 32 b6 3e d7 9c 75 3e
       -0.36796847 -0.23743577 0.3558546 0.23985611
0003a0 26 1b 88 3e 24 d8 9a be df 8a b0 3a f9 6e 87 3d
       0.26583213 -0.30243027 0.0013469121 0.06612963
0003b0 49 fa 59 be d7 c2 c2 be 1d 2c a1 3e 69 e8 ae bd
       -0.21286882 -0.38039276 0.31478968 -0.085404225
0003c0 2b fd 17 3e 80 0d c7 3e 84 ff d0 be 43 d8 f7 be
       0.1484267 0.38877487 -0.40819943 -0.48407182
0003d0 1a ea 33 3d a7 e9 4c be 82 28 06 3e 64 b0 e2 be
       0.04392443 -0.20011006 0.1310139 -0.442752
0003e0 19 5e c8 bd e4 13 98 be e8 c2 1e 3e 4f da 37 3e
       -0.09783573 -0.29702675 0.15504038 0.17954372
0003f0 b0 85 4a 3e 0f 3e 30 be e0 a8 38 3d 05 6d 72 be
       0.1977756 -0.17211173 0.045082927 -0.236744

transformer.encoder.layers.0.linear1.bias f4 [16]
000000 47 78 46 3e 87 63 23 be 38 30 b3 3d 5e b3 79 bd
       0.1938182 -0.15955935 0.08749431 -0.060962074
000010 60 8b 87 be 1d 1e 37 bb 91 7a 2f be ed ca 6b be
       -0.26473522 -0.0027941533 -0.17136599 -0.23026629
000020 f6 11 70 3d a9 10 10 3e bf 7b 05 3d 82 9b 89 3d
       0.05861088 0.14068855 0.032588717 0.06719114
000030 ce c3 10 be 85 55 f4 bb 94 d8 76 bd 3c ac fc 3c
       -0.14137194 -0.007456484 -0.06026514 0.030843846

transformer.encoder.layers.0.linear2.weight f4 [16, 16]
000000 f9 cc 0a be fe 55 54 3d 64 71 e1 3e 58 87 6f bd
       -0.13554753 0.05183982 0.44031823 -0.058478683
000010 e8 a6 94 be 37 5a 5a 3e 6b 7d fd bd d6 c9 ef 3e
       -0.2903359 0.21323477 -0.12377437 0.46833676
000020 f9 09 86 3e 82 69 eb 3d 05 c4 a7 be 74 ae bf be
       0.26179484 0.114947334 -0.3276674 -0.37437785
000030 9f f1 af be b9 ea 9f 3d 52 c1 f8 3b 68 be 8e 3e
       -0.3436403 0.07808442 0.007591405 0.27879643
000040 df 54 75 3e 95 69 2c 3e e2 5e 5f bd 95 31 1d bf
       0.23958157 0.16837151 -0.054533847 -0.6140378
000050 64 31 64 3e 2d 4c f5 be d8 03 12 3e 87 e5 28 3e
       0.22284466 -0.4790968 0.14259279 0.16493808
000060 12 9a 5f 3e c2 10 56 be 9d 38 6c 3e e4 16 a5 3e
       0.21836117 -0.2090483 0.23068471 0.32244027
000070 7f 09 10 bf e8 0e 86 3e 0f 75 22 be ae 3c 9d bd
       -0.5626449 0.26183248 -0.15864967 -0.07677589
000080 b0 5f 86 be 20 f7 80 3e 68 37 2e 3e 6b 5e d9 3e
       -0.2624488 0.2518854 0.17013323 0.42454848
000090 33 53 31 be 1c 8b 91 3e ba 96 c5 3d af de 92 bd
       -0.17316894 0.28426445 0.096478894 -0.0717138
0000a0 7c fb bb 3e d7 33 2a bd a5 a7 b7 3e 37 27 62 3d
       0.36715305 -0.041553345 0.3587009 0.05521318
0000b0 97 26 07 3e 98 b2 54 be 3a e0 5a 3e ef ce b6 be
       0.13198315 -0.20771253 0.21374598 -0.35704753
0000c0 08 10 79 bd 7a 8a fc 3e 97 c2 1a bf a1 ea 87 be
       -0.060806304 0.493244 -0.6045317 -0.26546195
0000d0 f7 80 56 3d c6 6d 2b 3e 99 d2 7e bd 68 de aa bd
       0.052369084 0.16741094 -0.06221256 -0.08343202
0000e0 18 89 e3 be 81 0c 5e be c3 28 74 be e8 ed 17 3d
       -0.44440532 -0.21684457 -0.23843674 0.03709212
0000f0 34 b7 e8 be d8 38 b9 3e 3c 3a d9 bd ef 7e a1 3c
       -0.45452273 0.3617618 -0.106068105 0.019713847
000100 f8 03 73 be be 02 16 bd c7 cf 05 bd f1 15 b7 be
       -0.23731983 -0.03662371 -0.032668855 -0.35758927
000110 dd 77 87 be 54 6d 10 bc 60 f7 43 be 3b 3d c8 be
       -0.26458636 -0.008815128 -0.19137335 -0.39109215
000120 b0 1e cc bd c5 d2 a6 be e6 07 83 3e 24 f2 7e 3e
       -0.09966791 -0.3258268 0.25591964 0.24897057
000130 25 4f 0e 3e 09 2f 93 bd 2f 01 f3 3d 54 20 70 3e
       0.13897379 -0.071867056 0.1186546 0.23449832
000140 4f cb b7 be 7f 47 92 3e 70 a2 94 be b8 af a8 be
       -0.358973 0.28570172 -0.2903018 -0.32946563
000150 36 da 00 bd ef a1 9a 3d 52 ba f0 3d 9b 45 d9 bb
       -0.031458102 0.07550418 0.11754288 -0.006630612
000160 52 cc b6 be e1 1c 4d 3e fd a2 93 be 2b 2c b8 3e
       -0.3570276 0.20030548 -0.28835288 0.35971197
000170 37 56 bc 3d 19 d7 cd bd 73 a6 83 bd 7a 8e e2 bd
       0.09196132 -0.10050792 -0.06428232 -0.110623315
000180 dc 58 48 be c3 2f c5 3d 1c 63 d9 3e 75 f0 99 3e
       -0.19565147 0.096282504 0.42458427 0.30066267
000190 3c ca 08 3e 6b 10 81 3d 30 17 7e 3e 2d f1 09 3d
       0.13358396 0.063019596 0.24813533 0.03367727
0001a0 63 ea 1f 3e b3 b3 6e 3e 43 7c 05 bf 87 ee 96 3e
       0.15616755 0.23310737 -0.52142733 0.29478857
0001b0 b8 8b cb be 8b 38 97 be 62 0b ae be a1 1b 38 3e
       -0.39755034 -0.29535326 -0.3399306 0.1797929
0001c0 97 65 b4 3e cd 14 f6 bc e9 cf 23 3d ed 5b 95 3e
       0.35233757 -0.030039215 0.0399932 0.29171696
0001d0 ff e0 98 be 7a 7a c5 bd a3 81 a6 be a7 0f 0a be
       -0.29859158 -0.09642501 -0.3252078 -0.13482533
0001e0 42 cd c7 3e a4 83 ba 3c 11 30 6f 3e a1 6d 81 bc
       0.39023787 0.02276785 0.2335818 -0.015799345
0001f0 22 a8 0a 3d 4a a6 c1 be 51 70 b9 be 0a c9 eb 3e
       0.03385175 -0.3782218 -0.36218503 0.46051818
000200 73 03 d4 be d0 30 84 3d 2d 53 32 be 7c 9b 09 bf
       -0.41408882 0.06454623 -0.17414542 -0.53752875
000210 20 f7 41 3e 5e 61 04 bf e7 00 68 3e 0e 88 af be
       0.18941927 -0.5171107 0.22656594 -0.3428349
000220 80 90 90 be 94 19 c4 3e 16 81 59 3e 6d 70 26 3d
       -0.28235245 0.38300765 0.21240649 0.04063456
000230 54 13 ca be 10 78 4b 3e 53 7d 66 3d 89 9c 07 3f
       -0.3946787 0.19870019 0.056271862 0.5297323
000240 df d3 b0 3d 02 df ab 3e 9c 27 11 be 63 9a 9d 3e
       0.08634161 0.3356858 -0.14175266 0.3078185
000250 1a 65 b1 3e 91 9e 97 bd 8c 02 fc 3e 89 e2 2e 3e
       0.34647447 -0.07403291 0.49220693 0.17078604
000260 d3 d9 90 bd a1 de 1d 3e 4f 1f 2b 3e 17 a1 06 3e
       -0.07072797 0.15416957 0.16711162 0.13147388
000270 d1 56 06 3e cc 99 b6 3e e3 87 c1 3c f7 89 33 bd
       0.13119055 0.35664213 0.023624366 -0.043832745
000280 a4 1f b0 be b3 04 e9 be fa a4 e0 be ed d8 9b 3b
       -0.3439914 -0.45511398 -0.43875867 0.004756084
000290 da d1 f7 be 80 00 9f be 23 c6 8c 3c a5 fa 86 3e
       -0.48402292 -0.3105507 0.017184323 0.26363102
0002a0 4b 5f d9 3e 54 c5 67 3e e2 d4 8d 3e 8f ae 3f be
       0.42455515 0.22633868 0.2770148 -0.18718933
0002b0 fc 42 dc 3e 15 16 89 ba 52 cd b5 3e b2 eb 07 3c
       0.43019855 -0.0010458851 0.3550821 0.00829594
0002c0 cb 67 ce 3c 15 7f 80 be 50 37 84 3d fa d6 c8 3c
       0.025195977 -0.25096956 0.064558625 0.024516571
0002d0 7c cf 13 be 4e 87 1c 3f 85 53 b9 be a8 8e bb 3e
       -0.14434618 0.6114396 -0.36196533 0.36632276
0002e0 9b 27 79 be f1 ba 66 3e 60 fd 95 bd f8 c4 f3 3d
       -0.24331515 0.2253225 -0.07323718 0.11902803
0002f0 30 86 88 3c c4 c8 e8 be 1b 61 b3 be b6 3f 16 3f
       0.016665548 -0.45465672 -0.35035023 0.58690965
000300 6e b1 09 be 99 3b ac bc b9 1e e0 3e 05 31 30 3d
       -0.1344659 -0.021024512 0.4377344 0.0430155
000310 cd d9 94 3e ee fc e5 be 5d 41 a0 be de 7d b1 3e
       0.2907242 -0.44919533 -0.31299868 0.34666342
000320 1c 27 11 bd 5a f1 0b 3e ea c7 d1 bc 50 6d a9 3e
       -0.03543769 0.13666287 -0.025608022 0.3309121
000330 63 bd c1 3e 54 9c 2c be b7 26 4a 3e f7 b6 9a bc
       0.37839803 -0.1685651 0.19741331 -0.018886073
000340 66 0d 3e be 56 d1 6c 3b ca df 1f be 86 14 ad 3d
       -0.18559799 0.0036135516 -0.15612713 0.0845118
000350 65 e8 14 3e 58 f1 4a be 40 a6 ad be 0b 82 0e 3e
       0.14541776 -0.19818628 -0.339159 0.13916795
000360 94 08 e3 bd 47 29 c8 bc 46 62 ac be 13 6a ed bd
       -0.110856205 -0.024433745 -0.33668727 -0.11592498
000370 f1 63 82 be 71 f7 01 be 67 58 a9 be b9 13 b4 3e
       -0.25466874 -0.12692048 -0.33075258 0.35171297
000380 50 a9 c2 3e c7 b5 15 3e 08 73 90 be 41 8e 0a bf
       0.380198 0.14620124 -0.28212762 -0.5412331
000390 2e fe c2 3e 2b 4a 54 3e 23 49 59 be 92 52 02 be
       0.3808455 0.20731418 -0.21219306 -0.1272681
0003a0 5d f1 f3 3d c9 86 84 3e dc 53 61 be d7 1e 1a be
       0.11911271 0.25884083 -0.22004646 -0.15050827
0003b0 cc 32 fa 3c 24 35 af 3e 52 80 e2 bd 67 74 97 be
       0.0305418 0.3422023 -0.110596314 -0.29580995
0003c0 bc 05 dd be 0d 1e 14 3e 9e c4 3e 3e 34 a4 8f be
       -0.43168437 0.14464588 0.18629691 -0.28054965
0003d0 ec 20 c2 be ed 93 8b 3e f8 cf e2 3d 79 1a 3c bd
       -0.37915742 0.27261296 0.11074823 -0.045923684
0003e0 e1 99 e7 3d d1 c3 b3 3e d5 d5 a4 bb 73 15 90 3e
       0.11308647 0.35110334 -0.0050303736 0.28141364
0003f0 35 80 87 3e 03 8d 15 3e a3 bc bb be 5e 9d 4d be
       0.26465002 0.14604573 -0.36667356 -0.20079562

transformer.encoder.layers.0.linear2.bias f4 [16]
000000 53 3e ea bd 74 37 2d 3e fd 6c 0b be ce 5d 0c 3e
       -0.11437669 0.16915685 -0.13615794 0.13707659
000010 c3 ea 6a bc b7 2b 52 be f0 3e 2d 3e eb bd 93 3d
       -0.014338198 -0.20524488 0.1691854 0.07213958
000020 43 1c 1e 3e c2 6c 7a be 6a 36 ff bd 50 ee ab 3d
       0.15440468 -0.2445555 -0.124615505 0.08395064
000030 73 87 f3 bd f5 5a aa bd 29 1f 0e 3e d9 25 8b 3d
       -0.11891069 -0.0831813 0.13879074 0.06794328

transformer.encoder.layers.0.norm1.weight f4 [16]
000000 00 21 93 3f 83 1a 88 3f 2e 37 93 3f aa e3 85 3f
       1.1494446 1.0633091 1.1501215 1.0460103
000010 31 78 88 3f 8a fd 46 3f 14 21 73 3f 69 cf 70 3f
       1.066168 0.7773062 0.9497235 0.9406648
000020 c3 07 82 3f b7 e8 90 3f 6c 7f 5b 3f 7d 0a 79 3f
       1.0158619 1.1321019 0.85741305 0.9728163
000030 26 b2 5c 3f 64 19 82 3f dd 3a 80 3f bb dd 72 3f
       0.8620933 1.0163999 1.0017964 0.94869584

transformer.encoder.layers.0.norm1.bias f4 [16]
000000 a3 61 90 3d 3f 30 d3 bc 6a 82 10 3c f0 ed 9d bc
       0.07049873 -0.025779841 0.008820156 -0.019278497
000010 b5 d2 74 3c f2 43 8c bc 3e 71 93 bc 6f e2 2a bd
       0.014942815 -0.017122243 -0.017998334 -0.04171985
000020 e5 c7 6b 3c a7 04 98 ba 15 61 a6 3c 14 57 80 ba
       0.01439092 -0.0011598066 0.020309964 -0.0009791576
000030 9a 43 98 3d 66 9f 21 b8 c9 95 05 bd e1 33 49 3d
       0.07434769 -3.8533843e-05 -0.03261355 0.04912174

transformer.encoder.layers.0.norm2.weight f4 [16]
000000 b0 8b 8a 3f cc 71 86 3f e3 96 8e 3f c1 ad 91 3f
       1.0823879 1.0503478 1.1139797 1.138115
000010 8d dc 81 3f 3e c1 65 3f ae e7 7f 3f be eb 79 3f
       1.0145432 0.8974799 0.9996289 0.9762534
000020 ba 06 86 3f ff f6 8f 3f 9b 1d 74 3f d8 2d 81 3f
       1.0470803 1.1247252 0.95357674 1.0092115
000030 73 8e 6f 3f 5f 85 77 3f dd 99 8c 3f a3 50 79 3f
       0.93576735 0.96687883 1.0984455 0.97388667

transformer.encoder.layers.0.norm2.bias f4 [16]
000000 6b c3 92 ba a2 45 98 3c c0 de a6 bb f5 45 1e 3c
       -0.0011197155 0.018587891 -0.005092472 0.009660234
000010 a0 ae e3 3c df a9 7e bc 1a 79 16 bb 2f b7 e9 bc
       0.027793229 -0.01554343 -0.0022960366 -0.028529732
000020 9b aa e8 3b 8f 71 f2 bb a3 04 26 3d f3 16 ba bb
       0.007100416 -0.007398791 0.040531766 -0.0056790053
000030 b8 75 0c 3d d7 86 9b bc f1 05 d9 bc 81 5a b8 3c
       0.034291953 -0.018985195 -0.02649209 0.022504093

transformer.encoder.layers.1.self_attn.in_proj_weight f4 [48, 16]
000000 cf 25 56 be 8b 04 96 bd 6b 46 c7 be 83 41 03 be
       -0.2091286 -0.07325085 -0.38920912 -0.1281796
000010 cb 74 c9 3d 64 8e 54 3e 14 d1 55 bd 6a de e2 bd
       0.098367296 0.20757443 -0.052201346 -0.11077578
000020 10 b6 6f 3e 16 af c4 bd f0 87 a4 bd 76 e3 32 be
       0.23409295 -0.096037075 -0.080337405 -0.17469582
000030 57 d4 84 bd 02 95 42 3c 6e 3d ef bd b1 cb f1 3c
       -0.06485813 0.011876347 -0.11681639 0.029516073
000040 42 ac 91 3d 05 ad 42 be 4e 7d 94 bd a5 20 46 be
       0.07112934 -0.19011314 -0.072504625 -0.1934839
000050 fa 5b 96 bd 43 99 5b 3e 57 0c 57 be f3 4e 9a 3d
       -0.07341762 0.21445183 -0.21000801 0.075345896
000060 b8 bb 03 3e 12 e7 80 3e 30 8d 5f 3d 47 72 0d be
       0.12864578 0.25176293 0.054578006 -0.13813125
000070 9c 1c c7 3c 43 3f 56 bd 04 18 1e 3e b6 1b 18 be
       0.024305634 -0.052306425 0.15438849 -0.14854321
000080 0d 6a b0 bd 6e 1a 10 3e a0 da 0c 3f 00 7a 46 3e
       -0.086139776 0.14072582 0.55021095 0.19382477
000090 23 5f a5 3e b4 5f 45 3e fc d0 89 bd 50 13 a1 be
       0.32299146 0.19274789 -0.06729314 -0.31460047
0000a0 1a 7d 05 be 56 df 0b 3f 50 58 03 bf 57 b3 2d 3d
       -0.13036004 0.5463766 -0.5130663 0.04240736
0000b0 42 12 dd 3e cf 2d 00 3d 9a 6f 22 bf 2a c8 1d 3e
       0.43177992 0.031293686 -0.6345154 0.15408388
0000c0 83 5a b1 bd 07 94 30 be 7b ae 67 3d 83 98 29 be
       -0.08659842 -0.17243968 0.056562882 -0.16562085
0000d0 27 85 bc be f9 26 0d 3e c2 5c 91 3c 45 3a a0 bd
       -0.36820337 0.13784398 0.017744426 -0.07823614
0000e0 13 1d 1c 3e bf 1e f3 bd 30 2b 45 be 31 20 ce 3d
       0.15245466 -0.11871099 -0.19254756 0.10064734
0000f0 b1 e2 a3 bd 05 04 2c be 92 3f 09 be ac 91 29 3e
       -0.08002222 -0.16798408 -0.13403156 0.16559476
000100 8b 47 30 3d a5 e6 84 3e 36 e1 0c 3c 76 5f 0d 3d
       0.04303698 0.25957218 0.008598616 0.034514867
000110 c7 07 32 be e5 a6 e4 bd 43 5b 4a 3e 3b 1f 7e be
       -0.1738578 -0.11164645 0.19761376 -0.24816601
000120 9a 65 22 3e c6 2d b8 3e bd 13 ab 3d 17 e1 07 3d
       0.1585907 0.35972422 0.08353374 0.033173647
000130 c6 20 f5 bd fe 0c 86 3d 4b 3c c3 be 9f 38 aa be
       -0.11969142 0.06545447 -0.38131937 -0.33246323
000140 71 d0 e3 bd 28 e8 0a 3e 65 2b 98 be ef ae 2d 3e
       -0.111237414 0.13565123 -0.29720607 0.16961263
000150 11 91 43 be 14 a7 e4 3c cc 65 ac 3e 81 e8 65 be
       -0.19098307 0.0279117 0.33671415 -0.22451974
000160 78 3d 0e 3e 68 8b 98 be af f4 11 3d 1d 05 8c 3e
       0.13890636 -0.2979386 0.03563374 0.2734765
000170 b2 ce 5b bd c4 8c db bd d2 30 13 3e e4 57 7f 3e
       -0.053663917 -0.10720208 0.14374092 0.24935871
000180 10 ed 54 be ec ae 81 bd 4d 81 4b 3e df cd 92 be
       -0.20793557 -0.06332192 0.19873543 -0.28672692
000190 d5 32 5e 3d 4b ff 72 be 91 a6 7c be 96 60 c0 3d
       0.054247696 -0.23730199 -0.24672915 0.09393422
0001a0 7e 43 75 bd 16 14 31 be a6 ff 06 3e 7f 02 67 bd
       -0.05987882 -0.17292818 0.1318346 -0.056398865
0001b0 e5 37 95 3d 9f 9f cc bc 7c f2 0b ba 87 1a 98 3e
       0.07286052 -0.024978457 -0.0005338562 0.2970774
0001c0 81 a8 08 be 7f e2 2a 3e 0c 66 4b 3e fd 7b 76 bd
       -0.13345529 0.16687964 0.19863147 -0.06017684
0001d0 43 85 86 3e b7 03 86 3e 54 aa 43 3e 5c 29 f3 bc
       0.26273546 0.2617471 0.19107944 -0.029682808
0001e0 0d 17 5c 3e ae cf eb bd 35 0b bb bd b7 b5 83 3e
       0.21493168 -0.11514221 -0.09132997 0.25724575
0001f0 28 c3 b8 bd ee d8 65 bc 26 0f 57 3d 17 78 8e be
       -0.09021598 -0.014028771 0.05250468 -0.27825996
000200 2f f9 58 be 34 7c 4e be 4d 21 88 3d 41 9a a8 be
       -0.21188806 -0.20164567 0.066469766 -0.32930186
000210 04 e3 21 3d 96 c9 46 3e a4 26 30 3e cf 23 35 be
       0.03952314 0.19412836 0.1720224 -0.17689441
000220 f1 14 2d be 04 36 03 3c 9a b3 9d bd ea 20 9b 3e
       -0.1690252 0.008008484 -0.07700272 0.3029855
000230 50 7f 86 be 85 ee 66 3e eb 57 55 3e 39 81 db 3e
       -0.26269007 0.22551925 0.2083432 0.42872027
000240 6b b9 30 3e 24 e5 af 3e d6 ff b1 3e a1 da 30 3d
       0.17258231 0.34354508 0.347655 0.04317725
000250 de 0b 99 3e 3b d4 43 be a4 14 e9 3d ae e5 95 be
       0.29891866 -0.19123928 0.1138089 -0.29276794
000260 ed 1e 85 bd 3b 38 23 3f 0b be 44 be de 71 3e 3c
       -0.06500039 0.63757676 -0.1921312 0.011623828
000270 d8 3b 68 3e fd 54 75 3d 1f 15 96 be a4 8e d1 be
       0.22679079 0.059895504 -0.2931299 -0.4092914
000280 f2 00 1d be cd a7 84 3e ff 0c 9e bd c1 25 d3 bd
       -0.15332392 0.25909272 -0.077173226 -0.10309935
000290 82 13 0f 3e 15 ce 08 be 12 d3 8c be 40 b5 08 3e
       0.13972285 -0.13359864 -0.27504784 0.13350391
0002a0 25 fa 8f be 86 39 11 3f 4d 3a 5f be a0 7c 4d be
       -0.28120533 0.567284 -0.21799584 -0.20067072
0002b0 d8 1c 1b 3e 73 b1 5d 3e ec fa 07 3e 15 56 b5 be
       0.15147722 0.21649723 0.13279313 -0.35417238
0002c0 a5 63 bb bd e4 8a 2f be a4 8f 16 bf 2e 52 7a 3d
       -0.09149865 -0.17142826 -0.5881293 0.06111353
0002d0 cc d6 c5 be c1 44 77 3e 9f fb 79 3e bf 8e b5 bd
       -0.3864044 0.24147321 0.24412392 -0.08865117
0002e0 70 7e c5 be 9d 74 b8 be 33 55 04 3e 91 9a 06 3e
       -0.38573027 -0.3602647 0.12923126 0.131449
0002f0 ec 35 2e be 6d 44 72 bd 36 0b b3 3e 4c 7e 56 3e
       -0.17012757 -0.059147287 0.3496949 0.20946616
000300 4f 26 c2 3d 29 ae fe bd e1 93 d8 be 43 e4 3f 3c
       0.09479963 -0.12435562 -0.42300323 0.011712137
000310 3a e0 d0 bd 99 5a 70 be 5d a0 ce bd 42 76 a2 be
       -0.10199018 -0.2347206 -0.100891806 -0.3173085
000320 99 2d 07 3e fc 77 38 3e c1 4b 02 3e a1 6d 95 bc
       0.13200988 0.1801452 0.1272421 -0.018240752
000330 82 57 2b 3e 15 ca b4 3d 31 d4 c0 bd 44 1c be be
       0.167326 0.088276066 -0.09415472 -0.3713094
000340 21 e7 f7 3d a3 b3 46 bd ca d2 b0 3c 9f 06 81 be
       0.12104631 -0.04851116 0.021584887 -0.25200364
000350 ef 66 18 be 58 7b 73 3c 70 2c 58 3e 29 ff 64 be
       -0.14883016 0.01486095 0.21110702 -0.22362961
000360 ca 3a 5d bd 71 26 4f 3e d7 a1 2b 3e df f7 02 be
       -0.054011144 0.20229508 0.16760956 -0.12789868
000370 8d a0 cd 3e dd d5 a6 3e 71 cd 2f 3d d1 6f b0 be
       0.40161553 0.3258504 0.042920534 -0.3446031
000380 c2 9b 70 3e cf 83 cf 3e d9 c7 87 be 00 c6 08 3e
       0.23496917 0.4053025 -0.2651966 0.13356781
000390 c3 37 92 3e 02 7d 21 3e a5 1e 4e be 58 69 44 3e
       0.28558168 0.15770343 -0.20128877 0.1918081
0003a0 4b 0d 87 3d e9 3d 9c 3e fb a6 24 bd d1 a5 93 3d
       0.06594332 0.30515984 -0.040198307 0.07209361
0003b0 4b 5f 73 3d 1f 50 71 3d 8d e5 b8 be c7 ca 86 be
       0.05941705 0.0589143 -0.36112633 -0.26326582
0003c0 7f f9 73 3e a9 92 98 be 63 cc 7c bc 58 b2 af be
       0.23825644 -0.29799393 -0.015429589 -0.34315753
0003d0 22 9b 73 be 56 a4 6d 3d 70 89 6e 3a 7c b1 0b 3e
       -0.23789647 0.05801805 0.0009099459 0.13641924
0003e0 fa 06 3a be 50 22 9b 3e c9 85 44 3d 2d d1 4c be
       -0.18166724 0.30299616 0.04797915 -0.20001669
0003f0 18 69 ca 3d e2 71 54 3e bc 15 71 3d 63 19 d3 3d
       0.09883326 0.20746568 0.05885862 0.103075765

transformer.encoder.layers.1.self_attn.in_proj_bias f4 [48]
000000 7d 70 4f bc 4e bf 1d bd cc 7f 3c bc 5e b3 9a 3d
       -0.012661097 -0.03851252 -0.0115050785 0.07553743
000010 8d 0e 95 bc 93 ed b1 3d 28 e1 bc 3d 49 9e 45 bd
       -0.018195415 0.08687892 0.09222633 -0.048246656
000020 7d cb ec 3d 40 00 0f be 47 78 33 be a3 5a 32 3e
       0.1156225 -0.13964939 -0.17526351 0.17417388
000030 49 d5 04 be da cf aa bd 5e 45 bb bd d7 c3 29 bd
       -0.12971987 -0.08340426 -0.0914409 -0.041446533
000040 dd ed d6 3c ce 69 e8 3c fb 7d 0b bd 26 06 84 3a
       0.026236469 0.028370764 -0.03405569 0.0010072633
000050 8d f3 f3 3b 9e 4a 83 3c 36 4f 0b bc 86 41 f9 bb
       0.007444805 0.016026791 -0.008502772 -0.007606688
000060 ab 8e a0 bc a6 f0 05 3d 6a 8d ee 3a 75 88 ba bc
       -0.01959928 0.032700203 0.0018200104 -0.022770146
000070 72 e3 8b bc 12 20 d7 bc 1e e9 d0 bc 3c de 4e 3c
       -0.017076228 -0.02626041 -0.025501784 0.012626227
000080 f5 1a 37 3a 1d f7 75 3c 4d 3e 95 3b b6 d7 8d 3b
       0.0006984913 0.01501253 0.004554546 0.0043286933
000090 25 42 c0 bc 82 85 09 3b bb 4a 39 3b e4 53 16 3b
       -0.02346904 0.0020984118 0.0028273303 0.0022938186
0000a0 66 35 23 bc b6 41 98 bc 50 17 0e bc 42 f4 a3 bc
       -0.009961462 -0.01858602 -0.00867255 -0.020013932
0000b0 1a ac 42 bc 59 f8 e8 bc 3f c9 21 3c 96 c6 a1 3c
       -0.0118818525 -0.028438734 0.009874641 0.019748013

transformer.encoder.layers.1.self_attn.out_proj.weight f4 [16, 16]
000000 f4 e9 a4 bd ac fa 8c be 36 ac a2 3e da 3c 0d bf
       -0.080524355 -0.27534997 0.31772012 -0.5517098
000010 69 ae f3 3d 17 48 db 3e 3c 68 98 be 1d c7 86 3e
       0.118985005 0.42828438 -0.29767025 0.26323786
000020 56 50 86 bd 0e 8f 85 3e e7 88 55 3e 52 19 cb be
       -0.065582916 0.26085705 0.20853005 -0.39667755
000030 10 79 e1 bd bf a7 81 3e 9f 73 b4 3e 74 9f c9 3d
       -0.11009419 0.25323293 0.35244462 0.098448664
000040 d0 87 cf bd 0c b2 81 3e b5 85 be be 4b cf 1e bf
       -0.10133326 0.2533115 -0.37211385 -0.62035054
000050 29 7d 6b bd ed 4c e8 3e 11 45 86 be bf 44 ab be
       -0.05749241 0.4537119 -0.26224568 -0.33450887
000060 ec a0 db 3e 59 bd 0a 3e 0d 24 08 3e c3 3c 8a 3e
       0.4289621 0.13548793 0.13295002 0.26999483
000070 23 d4 4e bd fa f4 98 3e 0f e5 a7 3e ae 80 4f be
       -0.050495278 0.29874402 0.32791945 -0.20263931
000080 a0 d4 a5 be b1 5a ba bd d2 3b f4 bd 27 54 03 be
       -0.32388783 -0.09099329 -0.11925472 -0.1282507
000090 16 1a b5 3e e4 e0 b1 3e 21 cc 8f 3d 90 92 f0 be
       0.35371464 0.3474189 0.070213564 -0.46986818
0000a0 36 18 d1 3e d4 79 85 3e 4d 84 49 be ee 8f 92 3d
       0.40838784 0.2606951 -0.19679375 0.07156359
0000b0 6b cc 87 be 48 f2 3f 3e 68 94 11 be e7 5e 8e be
       -0.26523146 0.18744767 -0.14216769 -0.2780678
0000c0 1c 4c 26 3d 9d d5 75 3c 64 e0 b8 bd 1f b8 dd be
       0.040599927 0.015004543 -0.09027174 -0.43304536
0000d0 02 58 41 3e f4 f6 d8 3e d9 a4 af be a8 74 bd bd
       0.18881229 0.4237591 -0.34305456 -0.09250766
0000e0 7d 91 72 3a 08 5b db be f3 36 6d 3e e7 4f c7 3e
       0.0009253247 -0.4284289 0.23165493 0.38928148
0000f0 b5 27 8e be f0 26 e6 3e e0 04 07 3b 0e 2b 8f 3e
       -0.2776467 0.44951582 0.002060227 0.27962536
000100 68 48 13 3f a9 52 ba bd 20 6f c8 be 7c b7 14 3d
       0.5753236 -0.090977974 -0.39147282 0.036307797
000110 32 27 16 be 56 11 50 bc 3b 30 bc be e7 be ec 3b
       -0.1466339 -0.012699446 -0.36755547 0.007224906
000120 63 40 64 be d0 60 ab 3c 34 bb c2 be cb b9 b1 be
       -0.22290187 0.020920187 -0.3803345 -0.3471206
000130 da 41 32 3f 92 1d 76 bd 58 29 93 be 89 eb a1 be
       0.6963173 -0.060086794 -0.2874248 -0.31625012
000140 2f 7c fe 3c f7 1f 82 be 51 8f ab 3e 95 f9 73 3c
       0.031065075 -0.25415012 0.3350778 0.014891048
000150 22 25 16 be 5b a5 0e 3e 2d 2d 5b be fe 58 e7 3d
       -0.14662603 0.13930266 -0.21403952 0.11296271
000160 2f ed 5b bb 28 73 82 3e 7c 54 f2 bd b6 8e 14 3e
       -0.003355812 0.25478482 -0.1183252 0.14507565
000170 60 12 ba 3d f9 52 54 3e 46 22 96 be e5 2d 37 bd
       0.09085536 0.20734777 -0.29323024 -0.044721503
000180 8d 8d b7 3e 1b 23 8b be 77 ff a5 3e 75 7e b1 3e
       0.35850182 -0.2717522 0.32421467 0.34666792
000190 0d c9 62 3e d1 1a b8 be 55 e4 81 3e 9f 68 01 3e
       0.22147007 -0.3595796 0.25369516 0.12637566
0001a0 f0 f7 c7 3e 8f 13 63 be 15 0f 71 3e a4 a4 2a 3e
       0.3905635 -0.2217543 0.2354091 0.16664368
0001b0 9e 2c c7 be 1c 80 c0 3e 1e 48 e5 3e 32 6d 81 be
       -0.38901228 0.3759774 0.44781584 -0.25278622
0001c0 34 56 57 be d0 56 86 3e fd 15 12 3d 2e 9e 68 be
       -0.21028978 0.26238108 0.0356655 -0.22716591
0001d0 67 d5 9a 3d 89 5c 05 3e fa 67 d2 be e9 f0 d8 3c
       0.075602345 0.1302358 -0.41094953 0.026482062
0001e0 ed 51 49 be c1 77 85 3e a2 01 06 3e f1 af b5 3e
       -0.19660158 0.26067927 0.1308656 0.35485795
0001f0 3f ed db 3e 06 41 a9 3e 47 7d fc bd 5b 40 c4 be
       0.42954442 0.3305742 -0.12328582 -0.3833035
000200 00 dd 19 3f ef 9f 2b be fa 18 2a 3d 3c 2a 43 3f
       0.60102844 -0.16760229 0.041527726 0.7623632
000210 c8 2a 12 3e 27 bc de be cd 22 70 be ec 80 2e be
       0.14274132 -0.43502924 -0.23450775 -0.17041367
000220 9d 16 10 3e 08 18 18 3d 9a 01 ac 3e b3 e5 a3 3d
       0.14071126 0.037132293 0.33594972 0.08002796
000230 79 df 87 3e cc 76 ae be 5a 18 86 be b7 63 97 3e
       0.26537684 -0.3407501 -0.26190454 0.29568264
000240 59 3c 1f bd 0f f7 8b bd b7 45 b9 3e 4a 95 ae 3e
       -0.03887591 -0.06834232 0.36186 0.34098274
000250 2e 9f e4 be 98 1c 1b be af 44 c3 3e cb f8 13 be
       -0.44652694 -0.15147626 0.3813834 -0.14450376
000260 ef 1d 2c 3e 67 e1 37 be d5 bc f8 bd 7a 6e 37 3e
       0.16808294 -0.17957078 -0.12145392 0.17913237
000270 19 ed 4c be 24 2a 88 3e 61 98 20 be 52 7e 5b 3e
       -0.2001232 0.2659465 -0.15683128 0.21434906
000280 df 60 db be 23 ce 7c bd 21 1c 2d 3d 92 8a 80 bd
       -0.42847344 -0.061720025 0.042263154 -0.0627643
000290 11 5d bc 3e 9b 0f 00 3f 5f 99 0b bc bb d0 82 be
       0.36789754 0.5002381 -0.008520453 -0.25549874
0002a0 3d e8 2c be b5 19 16 3d 2f 7b b9 be 5b d6 93 be
       -0.16885467 0.03664561 -0.36226794 -0.28874478
0002b0 53 45 69 be 90 3d 13 3d 00 6d 08 bf 7c d3 54 3d
       -0.22780351 0.035947382 -0.5329132 0.0519595
0002c0 c4 ed 14 3d 2a 81 0b bd c3 3d cb be 45 fb 14 be
       0.036359563 -0.034058727 -0.39695558 -0.14548977
0002d0 db 0a d2 be fb 80 15 3e 03 d9 a9 bd da b5 9c 3e
       -0.41023907 0.14599983 -0.08293345 0.30607492
0002e0 f3 af b2 3e bb 72 aa 3d 95 fc 11 3e cc 3a ba 3e
       0.34899864 0.08322664 0.14256509 0.36372983
0002f0 07 f3 87 bb 09 c1 ab be fa 46 3d 3e 12 e7 49 bd
       -0.004148844 -0.33545712 0.18484107 -0.04929263
000300 85 f4 c3 3e 90 07 8d 3e eb c9 73 3e f5 ea fb be
       0.3827249 0.27544832 0.23807494 -0.49202695
000310 40 f8 e8 ba dd fa e0 3e e3 56 5d be 3a 1a e5 bd
       -0.001777418 0.43941393 -0.21615176 -0.11186643
000320 c7 c6 83 bd fa f7 8d be 71 96 51 be 17 92 5a be
       -0.06434398 -0.27728254 -0.20467545 -0.21344791
000330 a1 cf 2f be 53 4c e8 3e 7d 1b 2e 3e 64 4f 7b 3e
       -0.17169048 0.4537073 0.17002673 0.24542004
000340 3a 1f c3 be 65 18 39 bb 92 50 a1 3e b6 46 d4 3e
       -0.3810976 -0.00282433 0.31506783 0.41460198
000350 f7 eb 51 3e 3f b6 c0 3c 23 33 b6 3d 6f e1 ee 3e
       0.2050017 0.023524402 0.08896472 0.46656367
000360 23 a4 2d be e1 ce 9b 3e d6 0b 82 3e 6a 69 c0 be
       -0.16957144 0.30431274 0.25399655 -0.37580425
000370 80 39 82 3e 2b 0f 52 3d ba 6b 77 3d 9e 54 cb 3c
       0.25434494 0.051283997 0.06040547 0.024820622
000380 9b 16 f6 3e 4b 50 ac 3d 03 d1 92 be 72 1d 05 3f
       0.48064122 0.08413752 -0.28675088 0.51998055
000390 16 5f 73 3d 27 b7 bc be 94 f0 c6 3e 06 45 ef be
       0.059416853 -0.36858484 0.38855422 -0.46732348
0003a0 8a dc cf be 8c fd e5 3d 11 57 ae 3d 9e 91 e4 3e
       -0.40597945 0.11230001 0.085127 0.44642347
0003b0 01 8f ad 3e 9f 5b c9 3e 7a 09 b8 be 54 57 01 3f
       0.33898166 0.39327714 -0.3594473 0.5052388
0003c0 c5 e2 63 3e f8 8d 16 3f bc d6 fd be 30 b4 41 bf
       0.22254474 0.5881038 -0.49577892 -0.7566557
0003d0 9c 64 aa 3e db bd af be 10 d0 df 3e 25 b3 1e 3d
       0.33279884 -0.34324536 0.43713427 0.038745064
0003e0 3d fb f2 3e d7 08 68 be a2 ab 99 3e f0 43 0b bd
       0.47457305 -0.22659622 0.30013758 -0.034000337
0003f0 62 27 05 bf fd 15 4d be 5f 17 b4 3e dc 99 99 3b
       -0.5201322 -0.20027919 0.3517408 0.004687531

transformer.encoder.layers.1.self_attn.out_proj.bias f4 [16]
000000 94 32 ed bc 7f 64 c4 bb ad cb 8a bc ce 5e f3 bb
       -0.028954782 -0.0059934254 -0.016942823 -0.007427073
000010 98 de c4 3c 6c c4 50 bd 32 cd 6c bc ef d3 6c bc
       0.024031922 -0.050968572 -0.014453219 -0.014454826
000020 13 21 97 3c 72 3b fa 3b 90 39 8f 3c 8c c1 1e 3b
       0.018448388 0.007636481 0.017483503 0.002422425
000030 95 1a 02 3d 0e 02 96 bb dd 06 4f bc 6a 0a e9 bc
       0.03176363 -0.0045778817 -0.012635914 -0.028447349
