public/models/forecasting/transformer.pt.ckpt (torch, 179080 bytes, 204 tensors)

encoder.weight f4 [16, 2]
0	0x3d82fd39	0.06395955
1	0xbe23c6ef	-0.15993856
2	0xbd129e7d	-0.035795677
3	0x3d8ebd1a	0.06969662
4	0x3e3b1c8c	0.18272609
5	0x3eeb81ed	0.45997563
6	0xbe750a1e	-0.2392964
7	0x3eb55af7	0.35420963
8	0xbed453c8	-0.4147017
9	0x3f01c2ad	0.50687677
10	0x3ece9a2a	0.40351993
11	0xbee47491	-0.44620183
12	0xbe876a23	-0.26448163
13	0xbf002df0	-0.50070095
14	0xbe191fe0	-0.14953566
15	0x3e2ae27d	0.16687961
16	0x3eb7bf49	0.35888126
17	0x3df57752	0.11985649
18	0xbf0c752c	-0.5486629
19	0x3e835269	0.2564881
20	0xbe23dd8d	-0.16002484
21	0xbef99d4a	-0.48752815
22	0xbf4786af	-0.77939886
23	0xbeb8adbc	-0.3607005
24	0x3d32362f	0.043508705
25	0xbe8d2c10	-0.2757268
26	0xbd3c19fa	-0.04592321
27	0xbec92c44	-0.39291584
28	0xbd4f2ad9	-0.050577972
29	0xbea54cac	-0.32285058
30	0xbf54e054	-0.831548
31	0xbe7b3a65	-0.24533994

encoder.bias f4 [16]
0	0xbe120865	-0.14261015
1	0xbea2cc8f	-0.3179669
2	0xbedadb37	-0.42745373
3	0xbeb4eec9	-0.3533843
4	0xbebbbeed	-0.36669102
5	0x3e11be1d	0.14232679
6	0x3ed6f5ce	0.4198441
7	0xbeab747a	-0.33487302
8	0xbed539a4	-0.4164554
9	0xbf1c583d	-0.6107214
10	0x3e75a0fd	0.23987193
11	0x3e8996f7	0.2687299
12	0xbea40615	-0.3203589
13	0xbe8aa03d	-0.27075377
14	0x3eb7d546	0.35904902
15	0x3eab7d11	0.33493856

transformer.encoder.layers.0.self_attn.in_proj_weight f4 [48, 16]
0	0xbe3e1f47	-0.18566619
1	0xbe05c0e5	-0.13061865
2	0xbcd711ca	-0.0262536
3	0x3f11cfb3	0.5695755
4	0xbe74291a	-0.23843804
5	0x3ec52d4e	0.38511127
6	0x3de42879	0.11140532
7	0x3d6c3246	0.057665132
8	0x3da8c3cb	0.082404695
9	0xbe729c5d	-0.2369246
10	0xbdcd1120	-0.10013032
11	0x3d2b38d5	0.041802246
12	0xbe5a9cf1	-0.21348931
13	0x3eb13a2b	0.3461469
14	0x3e8f83b2	0.28030163
15	0x3ed55b44	0.41671193
16	0xbf19d67f	-0.6009292
17	0xbf311801	-0.6917725
18	0x3edd1d87	0.4318659
19	0x3ca39845	0.019970069
20	0x3e3e892f	0.18607019
21	0x3e45246c	0.19252175
22	0x3f524870	0.8214178
23	0x3ea04ef0	0.31310225
24	0xbeb6bedc	-0.3569249
25	0xbf3a0efd	-0.7267912
26	0xbe8de4f4	-0.2771374
27	0x3f4cffb0	0.8007765
28	0xbf3bf8d4	-0.73426557
29	0x3e84e317	0.25954506
30	0x3f2b16c6	0.66831625
31	0x3f48e69b	0.78476876
32	0xbe3d978d	-0.18514843
33	0x3b788fa2	0.0037927409
34	0x3eed3d92	0.46336037
35	0xbe2f3e14	-0.17113525
36	0xbe912993	-0.2835203
37	0x3f077d5e	0.5292567
38	0x3ed9d038	0.4254167
39	0x3e8a11c7	0.26966688
40	0xbea78051	-0.32715085
41	0xbe46b587	-0.19405185
42	0xbe8c4740	-0.2739811
43	0x3ec3d532	0.38248593
44	0xbeb6cd74	-0.35703623
45	0x3e503305	0.20331962
46	0x3e38f313	0.18061475
47	0x3f08fe73	0.5351326
48	0x3f0f41c5	0.5595973
49	0x3e8f7924	0.2802211
50	0xbeabe9f2	-0.33576924
51	0x3d08c56d	0.033391405
52	0x3dbdbefb	0.09264942
53	0xbeabea32	-0.33577114
54	0xbf2104ff	-0.6289825
55	0xbed16405	-0.4089662
56	0x3ea6d740	0.32586098
57	0x3f4f70f6	0.8103174
58	0x3c6aba60	0.014326662
59	0xbde1c2af	-0.11023461
60	0x3f0dd019	0.55395657
61	0xbe366094	-0.17810279
62	0xbd0fd828	-0.035118252
63	0xbf0d5e48	-0.55221987
64	0x3efedb39	0.4977663
65	0xbdb13510	-0.08652699
66	0x3e9b7352	0.3036142
67	0xbdad996a	-0.08476527
68	0x3d8bbf68	0.06823617
69	0xbee0e6ce	-0.4392609
70	0xbe7a0e7d	-0.2441959
71	0x3d4a9dd6	0.04946693
72	0x3e6a3d21	0.22874881
73	0x3d898026	0.067138955
74	0xbec0e04d	-0.37671128
75	0xbe8f28d3	-0.27960834
76	0x3eeaa096	0.45825642
77	0x3db378b7	0.08763259
78	0xbe4fc495	-0.20289834
79	0xbe0f2411	-0.13978602
80	0xbe3ccf51	-0.1843846
81	0x3e1363d2	0.14393547
82	0x3efca344	0.49343312
83	0x3d0f021e	0.03491413
84	0xbdb13f9f	-0.08654713
85	0xbe03f018	-0.12884557
86	0x3e4ba4c8	0.19887078
87	0x3d23fe9d	0.04003774
88	0x3d303325	0.043017525
89	0x3e97769e	0.29582685
90	0xbe73777d	-0.2377605
91	0xbe502ed5	-0.20330365
92	0xbe82e3e9	-0.25564507
93	0xbea4b2cc	-0.3216766
94	0xbd07aabf	-0.03312182
95	0xbe064efb	-0.13116066
96	0xbee360a5	-0.4440967
97	0xbe0810b4	-0.13287622
98	0xbf3ce066	-0.73779905
99	0x3e88ef62	0.26745135
100	0x3ee43b97	0.44576713
101	0x3e6e0bb8	0.23246658
102	0x3ed92508	0.42411065
103	0x3eac2cff	0.3362808
104	0xbec696e5	-0.38786998
105	0xbe9db16e	-0.3079943
106	0xbe09e640	-0.1346674
107	0x3ede6369	0.4343522
108	0xbe98c944	-0.29841053
109	0x3e014175	0.12622626
110	0xbd120579	-0.03564975
111	0x3dda620f	0.106632344
112	0xbd29c30d	-0.04144578
113	0xbe94f4c8	-0.29093003
114	0x3e9d15f7	0.3068082
115	0x3eba61d5	0.36402765
116	0xbeee899e	-0.4658937
117	0xbe412373	-0.18861179
118	0xbf28ea49	-0.6598249
119	0xbe8c709b	-0.2742966
120	0xbe85569d	-0.26042643
121	0x3eb94b37	0.36190197
122	0xbcf4b8e0	-0.029873312
123	0xbdfe13d7	-0.12406128
124	0x3e89c2c8	0.2690642
125	0x3dd534c9	0.104104586
126	0xbee388f4	-0.44440424
127	0xbef36244	-0.47535908
128	0x3e7d0a9c	0.24711078
129	0x3e9f448e	0.3110699
130	0x3e9377cc	0.28802335
131	0x3efd7d93	0.49509868
132	0x3ce8b3e6	0.028406095
133	0xbeac37fe	-0.3363647
134	0xbedb7269	-0.42860726
135	0xbee2dbb2	-0.4430824
136	0x3e4fe741	0.2030306
137	0x3eaac621	0.33354285
138	0xbd32e669	-0.043676767
139	0xbebdf103	-0.3709794
140	0x3eb9593c	0.36200893
141	0xbe63c3e8	-0.22242701
142	0xbee5fba0	-0.44918537
143	0xbdbf8aea	-0.09352668
144	0xbeacf667	-0.3378174
145	0xbe1cbee5	-0.15307195
146	0x3c7009c3	0.014650765
147	0x3eb365bf	0.35038564
148	0xbe0558e5	-0.13022192
149	0xbeada83c	-0.33917415
150	0xbe9861ef	-0.29762217
151	0xbe4ed92c	-0.20200032
152	0x3e3dab71	0.18522431
153	0x3f168faf	0.58812994
154	0x3f08eaa6	0.53483045
155	0xbef753f4	-0.4830624
156	0x3f072267	0.5278687
157	0xbcaa342c	-0.02077683
158	0xbeb850cb	-0.3599914
159	0xbcd7048f	-0.02624729
160	0xbe3a2a54	-0.1818021
161	0xbeff97ba	-0.49920446
162	0x3dfbdfa4	0.122985154
163	0xbf1df4e0	-0.61701775
164	0xbea6f30c	-0.32607305
165	0x3ed165cb	0.40897974
166	0x3e5176c6	0.20455465
167	0x3e889779	0.26678064
168	0xbf192d63	-0.5983488
169	0xbebc0537	-0.3672273
170	0x3df095e8	0.11747342
171	0x3efacc58	0.48984027
172	0xbdbe041e	-0.09278129
173	0x3f025b89	0.5092092
174	0x3ef0e620	0.4705057
175	0x3ecdb964	0.40180504
176	0x3e9e01fc	0.3086089
177	0x3eecc841	0.46246532
178	0xbf20a71d	-0.62754995
179	0x3f2f4c82	0.68476117
180	0xbe95330e	-0.29140514
181	0xbeef1bcf	-0.46700904
182	0xbe7bd2a1	-0.24592067
183	0xbf12fd1b	-0.5741746
184	0x3d615b1c	0.05501853
185	0x3e7f09f6	0.24906144
186	0x3f024547	0.5088696
187	0xbebb60ef	-0.36597392
188	0x3f0ea185	0.5571521
189	0xbe2ddb84	-0.1697827
190	0xbdc2dd38	-0.095148504
191	0xbe6b9a84	-0.23008162
192	0xbeed137f	-0.46303937
193	0xbeae98f3	-0.34101066
194	0x3f5a1df4	0.85201955
195	0x3ebf3a7b	0.37349305
196	0xbf121c1c	-0.5707414
197	0x3e79078e	0.24319288
198	0x3f218c9a	0.63105166
199	0x3f00a63d	0.5025366
200	0xbe901487	-0.2814066
201	0xbedb1560	-0.42789745
202	0xbe3522e0	-0.17689085
203	0x3e8e4589	0.27787426
204	0xbd4bcf3a	-0.049758174
205	0x3ce96f61	0.028495492
206	0x3f1c7fc4	0.61132455
207	0x3eec9e5a	0.46214563
208	0x3eba9c30	0.36447287
209	0x3e44fe41	0.19237615
210	0xbe9edf3d	-0.31029692
211	0xbe46c7ed	-0.19412203
212	0x3f50c45a	0.8154961
213	0xbcf24221	-0.029572548
214	0xbe7eb3b2	-0.24873236
215	0xbed438b5	-0.41449514
216	0x3e260fdc	0.16216987
217	0x3e82ad85	0.2552301
218	0xbd9d9a28	-0.076954186
219	0xbe7ad973	-0.24497013
220	0xbb60c680	-0.0034298003
221	0x3b38a4d3	0.0028174415
222	0xbeded71e	-0.43523496
223	0xbecbbf4a	-0.3979438
224	0xbabb6932	-0.0014298318
225	0x3e7c3ad7	0.2463182
226	0xbecfa310	-0.40554094
227	0xbde19d57	-0.11016338
228	0x3f403347	0.75078243
229	0xbe0dcb7b	-0.13847153
230	0xbe38a7f0	-0.18032813
231	0xbeac97d8	-0.33709598
232	0x3d48345b	0.048878055
233	0xbe3e5df4	-0.18590528
234	0x3e224a86	0.15848741
235	0xbde6f39a	-0.11276932
236	0x3e5cd0c5	0.21564014
237	0xbe06916c	-0.13141412
238	0xbe54fcdf	-0.20799588
239	0x3d89666a	0.06708987
240	0x3e9eef8d	0.31042138
241	0xbec4c30e	-0.38430065
242	0xbee5068f	-0.44731566
243	0xbe8059c1	-0.25068477
244	0x3f6aa22f	0.9165372
245	0xbedd2c13	-0.43197688
246	0xbc0b21ef	-0.008491977
247	0xbec7f3c4	-0.39053166
248	0x3ec4b689	0.38420513
249	0x3e206f05	0.1566735
250	0xbe4879e3	-0.19577746
251	0xbe87805a	-0.26465112
252	0x3df5fa0a	0.12010582
253	0xbed8cc80	-0.4234352
254	0xbef3354d	-0.47501603
255	0xbebbae1f	-0.3665628

transformer.encoder.layers.0.self_attn.in_proj_bias f4 [48]
0	0x3e61f19e	0.22064826
1	0x3f30fb1d	0.6913317
2	0x3edac8ee	0.42731422
3	0xbee16971	-0.44025758
4	0xbe7fbc33	-0.24974136
5	0xbacfa320	-0.0015841462
6	0x3e90ff0f	0.28319594
7	0xbea97c3e	-0.33102602
8	0xbe77a746	-0.24184904
9	0xbedd07be	-0.4316997
10	0x3ea94fd5	0.3306872
11	0xbf030350	-0.5117693
12	0x3ea03b42	0.3129521
13	0xbe7f0f83	-0.24908261
14	0xbde837e6	-0.11338787
15	0xbe01babe	-0.12668893
16	0x3c9e3d38	0.0193163
17	0xbcfe449b	-0.031038573
18	0xbd67a645	-0.05655505
19	0x3ce58331	0.028016658
20	0xbcd5d0d4	-0.026100554
21	0x3a0cf25a	0.00053766894
22	0x3c61538b	0.013752828
23	0xbc2ec5de	-0.010667292
24	0x3d8555fa	0.06510539
25	0x3cf72362	0.030168239
26	0xbd866af4	-0.065633684
27	0x3d347551	0.044057194
28	0xbd743f3c	-0.059630617
29	0x3d9c96c3	0.07645943
30	0x3c312ebc	0.010814365
31	0x3d3d33c7	0.046191957
32	0xbdc33773	-0.095320605
33	0xbe01ed89	-0.12688269
34	0xbb88bc81	-0.004172862
35	0x3dc0b127	0.09408789
36	0xbd2406e2	-0.040045626
37	0x3d432729	0.047644768
38	0xbb1ab5ea	-0.0023606964
39	0xbd4e258a	-0.05032877
40	0xbda26560	-0.07929492
41	0x3d80e05c	0.06292793
42	0x3a5ba45e	0.00083786796
43	0xbcef7b60	-0.029233634
44	0xbb924f07	-0.004464987
45	0xbd8e186e	-0.06938253
46	0x3d7486a3	0.059698712
47	0x3d424360	0.047427535

transformer.encoder.layers.0.self_attn.out_proj.weight f4 [16, 16]
0	0x3e69f8ad	0.22848769
1	0xbb42f957	-0.002975067
2	0x3e126f70	0.14300323
3	0xbeb8c87b	-0.36090454
4	0x3ef9d629	0.48796204
5	0x3ee34ceb	0.4439462
6	0xbed88408	-0.42288232
7	0xbe249fde	-0.1607661
8	0xbe9f0be3	-0.31063756
9	0x3ed54ff6	0.41662568
10	0xbccfb3c0	-0.025354266
11	0xbecf3db5	-0.40476766
12	0xbe1a0a87	-0.15043078
13	0x3de3813a	0.111086324
14	0x3ee5bb57	0.4486949
15	0xbdea98b0	-0.11454904
16	0x3e3bd110	0.1834147
17	0x3eb7d5dc	0.3590535
18	0xbea869e7	-0.32893297
19	0xbed8563e	-0.42253298
20	0x3d650da7	0.055921223
21	0xbf1b773c	-0.6072881
22	0x3d8a7acd	0.06761704
23	0x3eb6e3c4	0.35720646
24	0x3efe2c34	0.496431
25	0x3da6863b	0.08131071
26	0xbdc3c4d7	-0.095590286
27	0x3cd7e559	0.026354479
28	0x3ed87c45	0.4228231
29	0x3e210237	0.15723501
30	0xbeb0d4c8	-0.3453734
31	0x3e8e0c61	0.2774382
32	0x3f0c2f38	0.5475955
33	0xbcac7b25	-0.021054814
34	0xbd162dc4	-0.03666474
35	0x3dc451e1	0.0958593
36	0x3e2e15d8	0.1700052
37	0xbe8f39ea	-0.27973872
38	0x3f07b89f	0.53016084
39	0xbe9d22de	-0.30690664
40	0xbea44035	-0.32080236
41	0xbebb4cea	-0.36582118
42	0x3e3a9889	0.1822225
43	0xbe664f07	-0.22491084
44	0xbe53108e	-0.20611784
45	0x3e5e03b0	0.21681094
46	0xbd1451b7	-0.03621074
47	0xbe3a26d9	-0.18178882
48	0xbeca4e72	-0.39512974
49	0xbdbbcfa5	-0.091704644
50	0xbd905464	-0.07047346
51	0x3e40acbd	0.18815894
52	0x3dfb465f	0.122692816
53	0x3e78de00	0.24303436
54	0x3e2afb72	0.16697481
55	0x3e7345a8	0.2375704
56	0xbc88705a	-0.016655136
57	0x3ebf7a45	0.37397972
58	0xbea37d98	-0.31931758
59	0xbbf48612	-0.0074622715
60	0xbe6db8d9	-0.23215045
61	0x3ed3f4db	0.41397747
62	0xbe9fac42	-0.3118611
63	0x3e5b2d79	0.21404065
64	0xbed5e67a	-0.41777402
65	0xbed70140	-0.4199314
66	0x3cb0d077	0.021583779
67	0x3ebdb2e7	0.37050554
68	0x3eba7fa6	0.36425513
69	0xbd1cc93a	-0.038277842
70	0xbd041cca	-0.032254018
71	0x3d8bf439	0.06833691
72	0xbea5ce49	-0.32383946
73	0xbe3c8782	-0.18411067
74	0x3eb78916	0.35846776
75	0x3d82ed6b	0.0639294
76	0xbe8d88a8	-0.27643323
77	0xbd53d505	-0.051716823
78	0x3d8825ad	0.06647811
79	0x3d28b851	0.041191403
80	0xbe928b0c	-0.2862171
81	0x3e1233c5	0.14277561
82	0x3e817dd4	0.25291312
83	0x3d832622	0.06403758
84	0x3e57ea04	0.21085364
85	0x3e5f80c4	0.21826464
86	0xbe8013f8	-0.25015235
87	0xbef2480f	-0.473206
88	0xbf08090c	-0.53138804
89	0xbea432f4	-0.32070124
90	0xbce7be02	-0.028288845
91	0xbb87b8b4	-0.0041418914
92	0xbebfffb4	-0.37499774
93	0xbd644115	-0.05572613
94	0xbe374d0d	-0.17900486
95	0x3e815563	0.25260457
96	0x3e216b42	0.15763572
97	0xbe8357c1	-0.25652888
98	0xbca0ed0c	-0.019644283
99	0x3e826f64	0.2547561
100	0x3e80c78e	0.25152248
101	0x3dc216b9	0.0947699
102	0xbe8c93e4	-0.27456582
103	0xbe4e9dab	-0.20177333
104	0xbf2f42e8	-0.68461466
105	0xbc03ab73	-0.008036482
106	0xbe960a48	-0.2930472
107	0xbedc1c40	-0.42990303
108	0x3e8f6b47	0.28011534
109	0xbd8e88c4	-0.0695968
110	0x3d9f4b89	0.07778079
111	0x3c628915	0.013826628
112	0xbe87a2aa	-0.2649129
113	0x3e3ed769	0.1863686
114	0xbd300480	-0.04297304
115	0xbe8ba3bc	-0.27273357
116	0x3e2427dd	0.16030832
117	0x3e036b7e	0.12833974
118	0x3e7b1fee	0.24523899
119	0x3e6cf727	0.23141156
120	0x3d30e11f	0.043183442
121	0x3f119bf2	0.5687858
122	0x3e00c670	0.12575698
123	0xbe43de96	-0.19127879
124	0xbe08f490	-0.13374543
125	0xbc828a95	-0.015935222
126	0x3e3bd325	0.18342264
127	0x3f1829d7	0.5943884
128	0xbd1b0e89	-0.03785566
129	0xbd4edf63	-0.050506007
130	0xbebb4305	-0.3657457
131	0x3d1fc029	0.039001618
132	0xbece1300	-0.4024887
133	0x3e348457	0.17628609
134	0xbe533d38	-0.20628822
135	0xbee9dfe7	-0.45678636
136	0x3ee21870	0.4415927
137	0xbdc49fe3	-0.096008085
138	0xbe12ca32	-0.14334944
139	0x3d69660d	0.05698209
140	0x3e40d4ed	0.18831225
141	0x3e3fb341	0.18720724
142	0xbd710ab1	-0.058848087
143	0xbd87d0e1	-0.06631637
144	0x3f17224f	0.59036726
145	0x3ece307c	0.40271366
146	0x3e8c22c2	0.27370268
147	0xbf225a22	-0.6341878
148	0xbcca9c6c	-0.02473279
149	0x3da008fb	0.07814213
150	0xbc9a14da	-0.01880877
151	0x3c519403	0.012791636
152	0x3dbdd161	0.092684515
153	0xbf0e60ca	-0.5561644
154	0xbe00b535	-0.12569125
155	0x3e804ea7	0.25060007
156	0xbde53f55	-0.1119372
157	0xbdfa34b1	-0.12217081
158	0x3cb4829a	0.022034932
159	0xbe7c6b91	-0.24650408
160	0xbec66c11	-0.38754323
161	0x3ebca1ce	0.36842197
162	0x3d981948	0.07426697
163	0x3e1ec548	0.15504944
164	0xbe1180e5	-0.14209326
165	0xbee25d7f	-0.44211957
166	0xbdabd096	-0.08389394
167	0x3d60831a	0.05481253
168	0x3c668b34	0.014071275
169	0x3e10b20e	0.14130422
170	0xbcf86a7b	-0.030324211
171	0x3e0c7bab	0.1371905
172	0x3e49486d	0.19656534
173	0x3de42b03	0.11141016
174	0x3e5e9a54	0.21738559
175	0x3b5bda75	0.0033546959
176	0xbca09104	-0.019600399
177	0xbee5c126	-0.44873923
178	0xbdae297c	-0.08504006
179	0x3f0e7481	0.5564652
180	0x3e16bda2	0.14720777
181	0x3ce401f7	0.027832968
182	0x3d1e94b5	0.038716037
183	0xbea819a2	-0.32832056
184	0x3d87c61d	0.06629584
185	0xbe63a144	-0.22229487
186	0xbe9e3de6	-0.309066
187	0xbe7536d8	-0.23946702
188	0x3e9218ea	0.28534633
189	0xbe53f2f9	-0.20698155
190	0x3e459de2	0.19298509
191	0x3ea4464c	0.32084882
192	0x3e4e2488	0.20131123
193	0xbdcfd0f6	-0.10147278
194	0x3ec87e54	0.3915888
195	0xbe1e4b6a	-0.15458456
196	0x3e71fde9	0.23632015
197	0xbd9980e0	-0.07495284
198	0x3eed50a1	0.46350577
199	0x3e7e08ef	0.24808095
200	0x3eae00a2	0.33984858
201	0xbf14dcad	-0.58149225
202	0x3e40cc70	0.18827987
203	0x3e2bb72a	0.1676909
204	0xbe8acc5a	-0.27109033
205	0x3ca0d2e0	0.019631803
206	0xbdbb5b2d	-0.0914825
207	0xbe9b6408	-0.30349755
208	0xbf0660bc	-0.52491355
209	0xbda0a1fe	-0.078433976
210	0x3ed839de	0.4223165
211	0xbdb5e57e	-0.08881663
212	0x3d9b0d87	0.075709395
213	0x3e6573e4	0.2240749
214	0xbe97b2cd	-0.29628602
215	0x3ea63edf	0.32469842
216	0xbe2afd73	-0.16698246
217	0x3e95448d	0.29153863
218	0xbf07d789	-0.53063256
219	0x3dd8e4aa	0.10590489
220	0xbed6472a	-0.4185117
221	0xbc4d31d9	-0.012524092
222	0xbc8733aa	-0.016504128
223	0xbdf432b2	-0.11923732
224	0xbf142f53	-0.5788471
225	0x3da4998e	0.08037101
226	0xbe30538c	-0.1721937
227	0x3eed6f14	0.46373808
228	0xbeb771df	-0.35829064
229	0x3ecf689b	0.40509495
230	0xbe580164	-0.2109428
231	0xbedd1549	-0.43180302
232	0xbe25de2b	-0.16198032
233	0xbdd0cafd	-0.10194967
234	0xbec83ec5	-0.3911039
235	0x3eecf56b	0.4628099
236	0x3e2c3360	0.16816473
237	0x3e8b4b0a	0.27205688
238	0x3ecdfe53	0.40233096
239	0x3f0c1f48	0.5473523
240	0xbebacf08	-0.36486077
241	0x3ec1d03b	0.3785418
242	0x3e9588b5	0.29205862
243	0x3dde1c36	0.108452246
244	0x3d47c23a	0.048769213
245	0x3e4fb60f	0.20284294
246	0x3d35ab2c	0.044352695
247	0xbf20d0e2	-0.6281873
248	0xbe20121b	-0.15631907
249	0x3e6bb94c	0.23019904
250	0xbe76d659	-0.24105205
251	0xbd87737d	-0.066138245
252	0x3d190b6e	0.037364416
253	0xbe9983be	-0.29983324
254	0x3e79fd2a	0.2441298
255	0x3cbf617f	0.02336192

transformer.encoder.layers.0.self_attn.out_proj.bias f4 [16]
0	0x3d79c5e9	0.060979757
1	0xbd9d767d	-0.076886155
2	0xbd1637e7	-0.036674406
3	0x3df9bfd6	0.12194793
4	0x3d949868	0.07255632
5	0xba12c102	-0.00055982184
6	0x3d45556e	0.048177175
7	0xbc938a4f	-0.018010287
8	0x3d668881	0.056282524
9	0xbd4d89f9	-0.05018041
10	0xbc12a9b1	-0.00895159
11	0x3a8b3f1b	0.0010623665
12	0x3c58e3ea	0.013237933
13	0x3d31142d	0.04323213
14	0xbcec9b80	-0.028882742
15	0x3dd54df5	0.1041526

transformer.encoder.layers.0.linear1.weight f4 [16, 16]
0	0xbd362dd3	-0.044477295
1	0x3e682f50	0.22674298
2	0xbdda00ff	-0.10644721
3	0x3e6d6506	0.23183069
4	0x3ebde0c6	0.3708555
5	0xbe3d0755	-0.18459828
6	0x3e91c113	0.28467616
7	0x3e1b9e6b	0.1519715
8	0xbe036ddd	-0.12834878
9	0xbe15602b	-0.14587466
10	0x3eb592d2	0.35463578
11	0xbdd445dd	-0.10364888
12	0x3edb0870	0.42779875
13	0x3e095521	0.1341138
14	0x3e9208fb	0.28522477
15	0xbeb9106c	-0.3614534
16	0xbd980759	-0.074232765
17	0x3d2f8dea	0.04285995
18	0x3e10a6fe	0.14126202
19	0xbed3655f	-0.41288278
20	0xbea0ebfb	-0.3143004
21	0xbe1215e8	-0.14266169
22	0xbd055656	-0.03255304
23	0xbcd7f3b0	-0.026361316
24	0xbe154ea4	-0.1458078
25	0x3edb1cef	0.42795512
26	0x3f0a2e00	0.5397644
27	0x3c69217b	0.014229174
28	0x3b993d54	0.0046765003
29	0xbe999b06	-0.30001086
30	0x3eac1b3c	0.33614528
31	0xbe47bd2c	-0.19505757
32	0xbefbb012	-0.49157768
33	0x3e390ea1	0.18071987
34	0x3ebc8404	0.3681947
35	0xbe8832f9	-0.2660139
36	0x3e925821	0.28582862
37	0x3d99cd50	0.075098634
38	0x3e565962	0.20932534
39	0xbe35e5e5	-0.17763479
40	0xbdecd68e	-0.115643606
41	0x3e1fcdb8	0.15605819
42	0x3e1fa80c	0.15591449
43	0xbda0e6f1	-0.078565486
44	0x3d532e9a	0.051558115
45	0xbf2246e6	-0.6338943
46	0x3ea0dc90	0.31418276
47	0xbe8fbd3a	-0.28074056
48	0xbf1478fb	-0.579971
49	0x3f278f7d	0.6545332
50	0x3e88918a	0.26673537
51	0xbe9447de	-0.2896108
52	0x3ea3d865	0.32001033
53	0xbe7d1cfe	-0.24718091
54	0xbe81c85d	-0.25348178
55	0xbde232bb	-0.11044832
56	0x3eca2ff9	0.39489725
57	0xbe32cf69	-0.17461933
58	0xbe82c4e6	-0.25540847
59	0xbd8f1218	-0.06985873
60	0x3e08246b	0.13295142
61	0xbe3b48fe	-0.18289563
62	0xbe0c3bee	-0.13694736
63	0xbeb229d2	-0.3479753
64	0x3e858f2e	0.260858
65	0xbc5f9900	-0.013647318
66	0xbde1ca5a	-0.110249236
67	0xbe5a606d	-0.21325846
68	0x3d43afa8	0.04777494
69	0x3e19b400	0.15010071
70	0xbf0953f1	-0.5364371
71	0x3ea0760e	0.3134007
72	0x3b0759fd	0.0020653002
73	0xbe0f1244	-0.13971812
74	0x3e13cffc	0.14434808
75	0xbe12e2b4	-0.14344293
76	0xbdd59b63	-0.10430028
77	0xbe1ad236	-0.15119252
78	0xbe40f928	-0.18845046
79	0xbe9ca7c3	-0.30596742
80	0xbd676395	-0.056491453
81	0x3d1a75c6	0.037709974
82	0x3eeb6d58	0.4598186
83	0xbe328ad9	-0.17435779
84	0x3d061cc2	0.03274227
85	0x3b82353d	0.0039736317
86	0xbee16f24	-0.44030106
87	0xbdc78371	-0.09741867
88	0x3ef7a130	0.48365164
89	0x3d42db50	0.047572434
90	0xbd86275d	-0.06550477
91	0x3ed70be9	0.42001274
92	0x3e85822f	0.26075885
93	0xbd669b8c	-0.056300685
94	0xbcac9089	-0.021065013
95	0xbec8e9cf	-0.39240882
96	0xbeb2ba63	-0.34907827
97	0x3ed98c80	0.42490005
98	0xbe03f5a9	-0.1288668
99	0x3df29956	0.11845653
100	0xbedca44d	-0.43094102
101	0xbdf85c42	-0.12126972
102	0xbe6ff26d	-0.23432322
103	0xbeb8efc0	-0.36120415
104	0xbe003bc4	-0.12522799
105	0x3dc1a4c5	0.094552554
106	0xbe0ad467	-0.13557588
107	0xbead9b6d	-0.33907643
108	0xbe94d6a1	-0.2907
109	0xbd05a1fa	-0.032625176
110	0xbe865290	-0.26234865
111	0xbe8971c6	-0.26844615
112	0x3e9c5e0f	0.3054051
113	0x3e82653a	0.25467855
114	0xbf016849	-0.5054975
115	0x3e540bf6	0.20707688
116	0xbe2575cc	-0.16158217
117	0xbee44413	-0.44583187
118	0xbda72d15	-0.081628956
119	0xbe6bd87e	-0.23031804
120	0x3e456e76	0.19280419
121	0x3e638472	0.22218493
122	0x3c952ae1	0.018208923
123	0x3ce82307	0.028337015
124	0x3e0eb3b8	0.13935745
125	0xbed06937	-0.40705273
126	0x3e043234	0.12909776
127	0x3e894a8f	0.26814696
128	0xbe0d5379	-0.13801374
129	0x3c7c41df	0.015396564
130	0xbe57cba3	-0.21073775
131	0x3e16bfe3	0.14721636
132	0x3f203e3c	0.6259496
133	0x3e3ebbae	0.18626282
134	0xbe115f94	-0.14196616
135	0xbeff9753	-0.4992014
136	0x3e6f3348	0.23359406
137	0xbe8cf685	-0.2753183
138	0x3e989869	0.2980378
139	0x3d2a1623	0.041525017
140	0x3e7cefed	0.247009
141	0x3ecaf3dc	0.39639175
142	0x3e343d29	0.17601456
143	0x3d36569a	0.044516183
144	0xbe8681a4	-0.26270783
145	0x3dc73433	0.09726753
146	0xbec6ad6e	-0.3880419
147	0x3ea55ac1	0.32295802
148	0x3e5e1dcb	0.21691053
149	0xbddac24d	-0.10681591
150	0x3e901e79	0.2814825
151	0x3da9a81e	0.08284019
152	0x3efc7e6d	0.49315205
153	0xbd6609bb	-0.056161623
154	0xbebe3771	-0.37151673
155	0x3ea8e4d6	0.32987088
156	0x3e286d39	0.16447915
157	0x3eaf98eb	0.34296355
158	0x3ec62cc3	0.38706025
159	0xbeeef045	-0.46667686
160	0x3cfbf531	0.030756565
161	0x3c996dfb	0.0187292
162	0x3d4f2db2	0.050580688
163	0xbd9bd466	-0.07608871
164	0x3f354605	0.70809966
165	0xbe1693ce	-0.1470482
166	0xbe392672	-0.18081072
167	0xbe489c20	-0.19590807
168	0xbeece4a7	-0.46268198
169	0x3e5901f1	0.21192147
170	0xbb776d78	-0.0037754457
171	0xbd95c42d	-0.07312808
172	0x3ed0b4c2	0.40762907
173	0x3ebfcbf9	0.37460306
174	0xbc1d9cbb	-0.009619887
175	0xbe9de389	-0.30837658
176	0xbe11b81f	-0.14230393
177	0x3ccf021b	0.025269559
178	0x3ebe182b	0.37127814
179	0x3e217ab9	0.15769471
180	0xbe8f9d3f	-0.28049657
181	0xbdf8a2bf	-0.12140416
182	0xbe08cbcf	-0.13358997
183	0x3e29e348	0.16590607
184	0x3d8f0ee1	0.0698526
185	0x3e80d7aa	0.2516454
186	0x3d93e875	0.07222072
187	0x3e5799a5	0.21054704
188	0x3d909c7c	0.07061097
189	0x3dabac8c	0.0838252
190	0xbdcbb2b8	-0.09946197
191	0xbe0944eb	-0.13405196
192	0x3e82a1f7	0.25514194
193	0x3e346c61	0.17619468
194	0xbed38b07	-0.41317007
195	0x3db54bb6	0.08852331
196	0xbef581f0	-0.47950697
197	0xb9cce1a7	-0.00039078036
198	0xbdba297f	-0.09089946
199	0xbe91eab4	-0.28499377
200	0xbe390f63	-0.18072276
201	0xbe84e7ab	-0.25958
202	0x3e4105e6	0.18849906
203	0xbdc48b92	-0.095969334
204	0xbd8aa675	-0.067700304
205	0x3f15b89a	0.58484805
206	0xbe24f5ca	-0.16109386
207	0xbe470c17	-0.19438206
208	0x3e1feead	0.15618391
209	0x3dfe9c4e	0.124321565
210	0x3e10fe07	0.14159404
211	0xbd8957d0	-0.06706202
212	0x3eb7da97	0.35908958
213	0xbe981fe4	-0.2971183
214	0xbddbdce1	-0.10735489
215	0x3e6aaf25	0.22918375
216	0xbed4ddfe	-0.41575617
217	0x3dfbd264	0.12295988
218	0x3d10d92f	0.035363372
219	0xbce24abf	-0.027623532
220	0x3f209423	0.6272604
221	0x3d8a82f0	0.067632556
222	0xbf108398	-0.56450796
223	0xbf08f8d2	-0.5350467
224	0x3eb99e28	0.36253476
225	0xbe0dbde2	-0.13841966
226	0x3db9b633	0.09067955
227	0x3eb51722	0.3536921
228	0xbec07b10	-0.3759389
229	0xbe05d343	-0.13068871
230	0x3e634a09	0.22196211
231	0x3e89fbae	0.2694983
232	0x3ea4c0d6	0.32178372
233	0xbe3b1842	-0.18270972
234	0x3cd7a6db	0.02632468
235	0x3d44e849	0.048073087
236	0xbe31d0d1	-0.17364813
237	0xbee9436a	-0.45559245
238	0x3eb44e0d	0.35215798
239	0xbde6ed8b	-0.112757765
240	0x3dc4b777	0.09605306
241	0x3eba1b31	0.3634887
242	0xbeeac5e4	-0.45854104
243	0xbedd60f5	-0.43238035
244	0x3d869a8a	0.06572445
245	0xbe967d76	-0.29392594
246	0x3e252709	0.16128172
247	0xbf094218	-0.53616476
248	0xbccec05e	-0.025238212
249	0xbea1935b	-0.31557736
250	0x3ec9e75a	0.3943432
251	0x3e278839	0.16360559
252	0x3e6d7771	0.23190095
253	0xbe186a67	-0.1488434
254	0x3e5415bd	0.20711417
255	0xbe80dd74	-0.25168955

transformer.encoder.layers.0.linear1.bias f4 [16]
0	0x3dad29e0	0.08455253
1	0xbe674c50	-0.22587705
2	0x3daa2da3	0.08309486
3	0xbdd0c1c8	-0.10193211
4	0xbe9997a3	-0.29998502
5	0xbd60e89d	-0.054909337
6	0xbe4c9950	-0.19980359
7	0xbe903d9e	-0.2817201
8	0xbcbddd49	-0.023176806
9	0x3e09e51e	0.13466308
10	0xbc908fb6	-0.017646652
11	0x3d206ea1	0.039168004
12	0xbdf2ee02	-0.11861803
13	0xbe0a26b9	-0.13491334
14	0xbdb79f97	-0.08965986
15	0xbc6332c2	-0.013867082

transformer.encoder.layers.0.linear2.weight f4 [16, 16]
0	0xbe326421	-0.17421009
1	0x3cc4f7b2	0.024043892
2	0x3ed37d99	0.4130676
3	0xbda563a9	-0.08075649
4	0xbec1d1e5	-0.3785545
5	0x3e2f2e69	0.17107548
6	0xbe151caf	-0.14561723
7	0x3ed5ad2c	0.41733682
8	0x3e260785	0.16213806
9	0x3d99f6c7	0.07517772
10	0xbe9f2436	-0.31082314
11	0xbe959acf	-0.29219672
12	0xbe887fc1	-0.26659968
13	0xbcd4e6fe	-0.025989052
14	0xbd82a18c	-0.06378469
15	0x3e54e1d2	0.20789269
16	0x3e929d7b	0.28635773
17	0x3e6a2542	0.22865775
18	0xbd44a9ef	-0.048013624
19	0xbf1ed2ce	-0.6204041
20	0x3b4173bc	0.0029518446
21	0xbf173375	-0.5906289
22	0x3e1569e9	0.14591183
23	0x3e53af4c	0.20672339
24	0x3e9144f8	0.2837293
25	0xbe3d211a	-0.18469658
26	0x3e3cdd4d	0.18443795
27	0x3e9a081b	0.3008431
28	0xbf277a95	-0.6542142
29	0x3ea259b6	0.3170907
30	0xbdfc4cd6	-0.12319343
31	0xbdb6e842	-0.089310184
32	0xbe81c29c	-0.25343788
33	0x3e822632	0.25419766
34	0x3e2ba0b3	0.1676052
35	0x3ee153ad	0.44009152
36	0xbd57e2ec	-0.052706644
37	0x3eac123f	0.3360767
38	0x3decb968	0.11558801
39	0xbdf84af2	-0.1212367
40	0x3e8bff5f	0.2734327
41	0xbe25215b	-0.16126005
42	0x3e8ada7e	0.2711982
43	0x3e069a77	0.13144861
44	0x3e2b3940	0.16721058
45	0xbe66c50d	-0.22536106
46	0x3e5e064b	0.21682088
47	0xbed2b53e	-0.41153902
48	0x3c5e6d3e	0.01357585
49	0x3ed7536a	0.42055827
50	0xbf10a18c	-0.564965
51	0xbe89deb1	-0.26927713
52	0x3daa63d4	0.08319822
53	0x3d91869d	0.071057536
54	0x3c4f5302	0.012654068
55	0xbdc0b2d7	-0.09409111
56	0xbefe5265	-0.49672237
57	0xbe8ddfa0	-0.27709675
58	0xbe6cc1b4	-0.23120767
59	0xbca97150	-0.020683914
60	0xbeda6817	-0.4265754
61	0x3e82502f	0.254518
62	0xbe04cc6a	-0.12968603
63	0xbd75d4b1	-0.06001729
64	0xbe8f52a0	-0.27992725
65	0xbd997d24	-0.07494572
66	0xbd0977fb	-0.033561688
67	0xbeb22dda	-0.34800607
68	0xbd118b16	-0.035533033
69	0x3c890158	0.016724274
70	0xbe32e1f1	-0.17469002
71	0xbe8bf77c	-0.27337253
72	0xbe1f2130	-0.15540004
73	0xbea34374	-0.318874
74	0x3e499fce	0.19689867
75	0x3e88bdbd	0.2670726
76	0x3e2dfdda	0.16991368
77	0xbd9da09c	-0.076966494
78	0x3df5dfea	0.12005599
79	0x3e99cc54	0.30038702
80	0xbeae0d1b	-0.33994374
81	0x3dba1525	0.09086064
82	0xbe803066	-0.25036925
83	0xbe988288	-0.29787087
84	0xbd5310f1	-0.05152983
85	0x3e6eebc2	0.23332122
86	0x3e03070e	0.1279566
87	0xbd484193	-0.04889066
88	0xbebacb9d	-0.3648347
89	0x3e32b97a	0.17453566
90	0xbe9d3048	-0.30700898
91	0x3e95d4a6	0.292638
92	0x3e13b61b	0.14424936
93	0xbe28c3ba	-0.16480914
94	0xbd2dac20	-0.04240048
95	0xbe01551a	-0.1263012
96	0xbe20d059	-0.15704478
97	0x3d29c489	0.041447196
98	0x3ec8b3a0	0.39199543
99	0x3eb572d3	0.35439166
100	0x3a9e00ff	0.001205474
101	0x3e18bbb5	0.14915355
102	0x3e4facc5	0.2028075
103	0x3e1ba9bf	0.15201472
104	0x3e6ea6f8	0.23305881
105	0x3ea2c545	0.3179113
106	0xbee0a17b	-0.438732
107	0x3e0334f0	0.12813163
108	0xbedb0d02	-0.42783362
109	0xbe84fbac	-0.2597326
110	0xbeaf44fe	-0.34232324
111	0x3eae634a	0.34060127
112	0x3e7ee897	0.24893413
113	0x3c60d76f	0.013723238
114	0x3d507ef1	0.05090231
115	0x3e9f6ba6	0.31136817
116	0xbeaf571c	-0.34246147
117	0x3d51f604	0.05126001
118	0xbe95e02b	-0.2927259
119	0xbe08af66	-0.13348159
120	0x3eb9fd6a	0.36326152
121	0xbb3a38ac	-0.0028415127
122	0x3e47c1eb	0.19507568
123	0x3e4b6921	0.19864322
124	0x3d9b780b	0.07591256
125	0xbead95c9	-0.3390334
126	0xbeacd778	-0.3375814
127	0x3ee88b6e	0.45418876
128	0xbf030e29	-0.5119348
129	0x3de0e3d2	0.10980953
130	0xbe76429a	-0.24048844
131	0xbf1c7bde	-0.61126506
132	0x3eacad5a	0.33726007
133	0xbf2d42f7	-0.67680305
134	0x3e765b9b	0.24058382
135	0xbea915f5	-0.33024564
136	0xbe80ca89	-0.25154522
137	0x3ed101d8	0.4082172
138	0x3e4a6241	0.19764043
139	0x3da1c328	0.07898551
140	0xbecbd9f0	-0.3981471
141	0x3e32b604	0.17452246
142	0x3cb8fdad	0.0225819
143	0x3f115c06	0.5678104
144	0x3b1e6f6c	0.00241753
145	0x3eb67ee6	0.3564369
146	0xbe13bbe4	-0.14427143
147	0x3e95a358	0.29226184
148	0x3eaa3a3f	0.33247563
149	0xbdcaca0d	-0.099018194
150	0x3ef7ac84	0.48373806
151	0x3de84ce8	0.11342794
152	0xbd2c8497	-0.042118635
153	0x3e0aa2c5	0.13538654
154	0x3dd0f586	0.1020308
155	0x3ddb209c	0.10699579
156	0x3e104726	0.14089641
157	0x3e4c019f	0.19922493
158	0x38ed96b3	0.000113291106
159	0xbdba09d0	-0.09083903
160	0xbe7661ae	-0.240607
161	0xbe7a03cd	-0.24415512
162	0xbee03152	-0.43787628
163	0xbd3e8680	-0.046514988
164	0xbf27edce	-0.65597236
165	0xbec35d9a	-0.3815735
166	0xbd9a877f	-0.07545375
167	0x3e966f56	0.29381818
168	0x3eef1cd7	0.4670169
169	0x3e78d513	0.24300031
170	0x3eaf7462	0.3426848
171	0xbdd0be10	-0.101925015
172	0x3e83eff5	0.2576901
173	0x3c9c6ade	0.019093927
174	0x3eeb75a0	0.45988178
175	0x3d22a578	0.039708585
176	0xbc119a02	-0.008886816
177	0xbe6b371e	-0.22970244
178	0x3db82766	0.0899189
179	0x3d885ab8	0.06657928
180	0xbe08a7d0	-0.13345265
181	0x3f2afbef	0.6679067
182	0xbec9d268	-0.3941834
183	0x3e90d3cd	0.2828659
184	0xbe911184	-0.28333676
185	0x3e7b9c56	0.24571356
186	0xbe2efafa	-0.17087927
187	0xbc26f41c	-0.010190036
188	0xbd8d748a	-0.06906994
189	0xbef48ab4	-0.47762072
190	0xbeb921db	-0.36158642
191	0x3f0a8d80	0.5412216
192	0xbe27588f	-0.16342376
193	0x3daa09f6	0.08302681
194	0x3ed05101	0.406868
195	0x3cf7e828	0.030262068
196	0x3eb78f96	0.35851735
197	0xbf00f6e1	-0.5037671
198	0xbe9eca64	-0.31013787
199	0x3e9e9727	0.30974695
200	0x3cfb5361	0.030679407
201	0x3e041e3b	0.12902157
202	0xb98a00ed	-0.000263221
203	0x3e84ecb9	0.25961855
204	0x3ebc9b1e	0.36837095
205	0xbe731d85	-0.2374173
206	0x3e19aa3f	0.1500635
207	0xbd3510f1	-0.04420561
208	0xbe7f7388	-0.24946415
209	0x3e1abb39	0.15110482
210	0xbe292771	-0.16518952
211	0x3d342dee	0.043989114
212	0xbe675d94	-0.22594291
213	0xbe7b865b	-0.24562971
214	0xbeab0961	-0.33405593
215	0x3e938623	0.28813276
216	0xbd97fcc8	-0.07421261
217	0x3e0601c8	0.13086617
218	0xbdf3e41e	-0.11908744
219	0xbda7ed88	-0.08199602
220	0xbe43bd46	-0.19115171
221	0x3c98940c	0.018625282
222	0xbe8c7734	-0.27434695
223	0x3ef6801a	0.4814461
224	0x3eccc18c	0.39991415
225	0x3d7372c7	0.059435632
226	0xbe9a7d76	-0.30173844
227	0xbf126d75	-0.5719827
228	0x3ebcc05d	0.36865512
229	0x3e2baa01	0.1676407
230	0xbe5454f4	-0.20735532
231	0xbdb3195a	-0.0874507
232	0x3dd86983	0.10567
233	0x3e83a94b	0.25715098
234	0xbe635680	-0.22200966
235	0xbe1c897d	-0.15286823
236	0x3cacec08	0.021108642
237	0x3e4335c3	0.19063477
238	0xbd9ce8ab	-0.076615654
239	0xbe996484	-0.299595
240	0xbeb7b9a1	-0.3588381
241	0xbd20602a	-0.03915421
242	0x3e2be9f4	0.16788465
243	0xbdb12dac	-0.08651289
244	0xbefb5b45	-0.4909307
245	0x3e97ca70	0.29646635
246	0xbbda9057	-0.0066700387
247	0xbdad6583	-0.084666274
248	0x3e2e5177	0.17023264
249	0x3ecda412	0.40164238
250	0x3db1a508	0.08674055
251	0x3e35c059	0.17749156
252	0x3e3aa00a	0.18225113
253	0x3e844f62	0.25841814
254	0xbe961cf4	-0.29318964
255	0xbde8f32b	-0.113745056

transformer.encoder.layers.0.linear2.bias f4 [16]
0	0xbe44b150	-0.19208264
1	0x3e21ac37	0.15788351
2	0xbd8ab449	-0.06772668
3	0x3e082c8e	0.13298246
4	0xbcd4487e	-0.025913473
5	0xbe3abf20	-0.18236971
6	0x3e050e96	0.12993845
7	0x3d1226f4	0.03568168
8	0x3e16c461	0.1472335
9	0xbe73dd32	-0.23814848
10	0xbd0a7157	-0.033799496
11	0x3d2f3652	0.042776413
12	0xbd303e6f	-0.04302829
13	0xbd8618ae	-0.06547676
14	0x3ddfd7f5	0.109298624
15	0x3d487b85	0.048945922

transformer.encoder.layers.0.norm1.weight f4 [16]
0	0x3f986db1	1.1908475
1	0x3f8d80b2	1.10549
2	0x3f9b9d78	1.2157431
3	0x3f7f97e1	0.99841124
4	0x3f85b188	1.0444803
5	0x3f4aa6c3	0.7916071
6	0x3f75c864	0.96008897
7	0x3f6e044e	0.9297532
8	0x3f827271	1.0191175
9	0x3f9afbe1	1.2108117
10	0x3f5ce5eb	0.86288327
11	0x3f6b85fa	0.92001307
12	0x3f4f2dc0	0.80929184
13	0x3f851781	1.0397798
14	0x3f7cf74c	0.98814845
15	0x3f68e635	0.9097627

transformer.encoder.layers.0.norm1.bias f4 [16]
0	0x3d4df9d2	0.050287075
1	0xbd5eba02	-0.05437661
2	0x3db1006d	0.08642659
3	0xbbcbeff8	-0.006223675
4	0x39f5d404	0.00046888005
5	0x3d1a3b8e	0.037654452
6	0xbb89787e	-0.004195272
7	0xbcbca523	-0.023027962
8	0x3cb2ada1	0.021811308
9	0x3b899afa	0.004199383
10	0x3c0fe9cf	0.008783772
11	0xbd0b8a5f	-0.034067508
12	0x3dacefc7	0.084441714
13	0x3ce12445	0.027483115
14	0xbd5ee186	-0.054414295
15	0x3dd90073	0.10595789

transformer.encoder.layers.0.norm2.weight f4 [16]
0	0x3f8b2d9b	1.0873293
1	0x3f8bdbbd	1.0926434
2	0x3f993c8a	1.19716
3	0x3f90dbd6	1.1317089
4	0x3f7ddda6	0.99166334
5	0x3f6e8ab1	0.93180376
6	0x3f7bd5b3	0.98372954
7	0x3f6d3aaa	0.9266764
8	0x3f873235	1.0562197
9	0x3f979922	1.1843607
10	0x3f7521f1	0.95754915
11	0x3f81ac89	1.0130779
12	0x3f722449	0.94586617
13	0x3f6dc8fb	0.92884797
14	0x3f88f488	1.0699625
15	0x3f73295d	0.9498499

transformer.encoder.layers.0.norm2.bias f4 [16]
0	0xbcf0de16	-0.029402774
1	0x3dbffc65	0.09374312
2	0x3c5d0290	0.0134893805
3	0x3cad4e8a	0.021155614
4	0x3cd6f16e	0.02623817
5	0xbcd4bbe5	-0.025968501
6	0xbd39482f	-0.045234855
7	0xbd59f6f1	-0.053214017
8	0x3d24ed6c	0.040265486
9	0x3b06879e	0.0020527611
10	0x3d119a27	0.0355474
11	0xbd2ab5a1	-0.04167712
12	0x3d00caf3	0.031443547
13	0xbd2f2ae4	-0.042765513
14	0xbd348719	-0.04407415
15	0x3d9b1b72	0.07573594

transformer.encoder.layers.1.self_attn.in_proj_weight f4 [48, 16]
0	0xbdf58e23	-0.11990001
1	0xbe3f43de	-0.18678233
2	0xbec55e30	-0.38548422
3	0xbe121e73	-0.14269428
4	0x3e8759d9	0.26435736
5	0x3e920436	0.28518838
6	0xbd9d47a6	-0.076796815
7	0xbe091890	-0.13388276
8	0x3e37d36e	0.17951748
9	0xbdbd9287	-0.092564635
10	0xbe60da4b	-0.21958272
11	0xbe0f52e7	-0.13996468
12	0xbc9d6771	-0.019214364
13	0xbd140f92	-0.03614766
14	0xbcd79dec	-0.02632042
15	0xbb823887	-0.0039740237
16	0x3d95c786	0.07313447
17	0xbe61438f	-0.21998428
18	0xbdab501a	-0.083648875
19	0xbd011d07	-0.031521823
20	0x3e0224b4	0.12709314
21	0x3e04749f	0.12935112
22	0xbea6a24b	-0.32545695
23	0x3e204df4	0.15654737
24	0x3e3332bb	0.17499821
25	0x3e10becc	0.14135283
26	0x3db2b903	0.087266944
27	0xbe48acd1	-0.19597174
28	0x3e17f2e5	0.1483875
29	0xbd1b9c73	-0.037991
30	0x3e669eba	0.22521487
31	0xbe64fb8a	-0.2236158
32	0xbd913f28	-0.07092124
33	0x3e415f8d	0.18884106
34	0x3f07c679	0.5303722
35	0x3e8dd174	0.27698863
36	0x3eaa0549	0.33207157
37	0x3e4b4aa8	0.19852698
38	0xbdf9c5eb	-0.12195953
39	0xbe668d82	-0.22514918
40	0xbdf9f742	-0.12205364
41	0x3f03d081	0.51490027
42	0xbee28ce5	-0.4424812
43	0xbc7cd771	-0.015432225
44	0x3ef201aa	0.47266895
45	0xbd2eb2e7	-0.042651083
46	0xbf2b2a6a	-0.66861594
47	0x3e169854	0.14706546
48	0xbe8d9604	-0.27653515
49	0xbe27f6e4	-0.16402775
50	0x3e4e02e8	0.20118296
51	0xbe6390be	-0.22223184
52	0xbeb84c2f	-0.35995623
53	0x3e8065f1	0.25077775
54	0x3d32cb1b	0.043650728
55	0xbd747f1b	-0.05969153
56	0x3e5792fe	0.21052167
57	0x3a28295a	0.0006414853
58	0xbeacf4e5	-0.3378059
59	0x3d67cb62	0.056590445
60	0xbe2d1b8d	-0.16905041
61	0xbe6f3749	-0.23360933
62	0xbe15fa49	-0.14646257
63	0x3e2848cb	0.16434018
64	0xbdb8b913	-0.09019675
65	0x3ed37f8e	0.41308254
66	0x3e0481b6	0.12940106
67	0x3d4a9a60	0.04946363
68	0xbe82c738	-0.25542617
69	0x3cffa469	0.031206327
70	0x3def35a4	0.11680153
71	0xbe552c8e	-0.20817778
72	0x3e336ca2	0.17521909
73	0x3f1d044e	0.61334693
74	0xbda8c0a0	-0.08239865
75	0x3c47c850	0.012193754
76	0x3cfea7cb	0.03108587
77	0xbeeed373	-0.46645698
78	0xbec8a004	-0.39184582
79	0xbeb394e3	-0.3507453
80	0xbda66bac	-0.081260055
81	0x3dc501fe	0.096195206
82	0xbe93906d	-0.28821126
83	0x3e634fe2	0.22198442
84	0xbe0361dc	-0.12830299
85	0xbdbe14fd	-0.09281347
86	0x3e88ea55	0.2674128
87	0xbe358561	-0.17726661
88	0x3e747b56	0.23875174
89	0xbee12241	-0.43971446
90	0x3d6b16b1	0.057394687
91	0x3eaaa79f	0.3333101
92	0xbd38712e	-0.04502981
93	0xbdc27543	-0.09495022
94	0x3e99253d	0.29911223
95	0x3e45fdf2	0.19335154
96	0xbe8d9c14	-0.2765814
97	0xbe2871c0	-0.16449642
98	0x3e67be2c	0.22631139
99	0xbe96f8e4	-0.29486763
100	0x3dd8c55e	0.1058452
101	0xbe854e11	-0.26036122
102	0xbe95653e	-0.29178804
103	0x3e330abb	0.17484562
104	0x3c6aee46	0.014339035
105	0xbdda7e70	-0.10668647
106	0x3bfb0538	0.0076605342
107	0xbce51133	-0.027962303
108	0x3e21bef4	0.15795499
109	0xbdd65ed1	-0.104673035
110	0x3e00c211	0.1257403
111	0x3e883320	0.26601505
112	0xbd7067a9	-0.058692608
113	0x3e423c4d	0.18968315
114	0x3e761733	0.24032287
115	0x3b9153ac	0.0044350233
116	0x3e7c5798	0.2464279
117	0x3ed11b9f	0.40841386
118	0x3e23bf9c	0.15991062
119	0xbb822540	-0.0039717257
120	0x3dd49020	0.10379052
121	0xbdd01d52	-0.101618424
122	0xbdc42d00	-0.095788956
123	0x3e4754f2	0.19465998
124	0xbd3b6bf9	-0.045757268
125	0xbe3a8558	-0.18214929
126	0x3d9f61da	0.077823356
127	0xbe9612fc	-0.2931136
128	0xbe4e07ee	-0.20120212
129	0xbe40b048	-0.18817246
130	0xbb156234	-0.002279413
131	0xbec9e864	-0.39435112
132	0x3de7184a	0.1128393
133	0x3df92862	0.121659055
134	0x3e55b59f	0.20870064
135	0xbd76277c	-0.06009625
136	0xbe7c4df0	-0.24639106
137	0xbdb471e2	-0.08810784
138	0xbbe1e5dd	-0.006893857
139	0x3ea8bdd1	0.32957318
140	0xbe9060d9	-0.2819889
141	0x3e96508b	0.29358324
142	0x3e709cbd	0.23497291
143	0x3ef6b940	0.4818821
144	0x3be062a5	0.006847697
145	0x3ee24e5f	0.44200417
146	0x3ea6aafc	0.32552326
147	0xbc950d47	-0.018194808
148	0x3e6743b8	0.22584426
149	0xbdaf7a95	-0.085683025
150	0x3d8a88e7	0.06764393
151	0xbe9116c4	-0.2833768
152	0xbdebac31	-0.11507452
153	0x3f523f19	0.8212753
154	0xbe17ac91	-0.14811923
155	0xbc9576d0	-0.01824513
156	0x3eb036a8	0.344167
157	0x3dda4f9b	0.10659715
158	0xbe9cb83d	-0.30609313
159	0xbed0366e	-0.40666527
160	0xbe560ed3	-0.20904092
161	0x3e8b8634	0.27250826
162	0xbdf736df	-0.12071013
163	0xbd119cad	-0.03554981
164	0x3e7c52b0	0.24640918
165	0xbd482666	-0.048864745
166	0xbebfabea	-0.37435848
167	0x3da00740	0.07813883
168	0xbe823f64	-0.25438988
169	0x3effd3c2	0.49966246
170	0xbdc2ff53	-0.095213555
171	0xbe3270be	-0.1742582
172	0x3e9bac3c	0.30404842
173	0x3e525b3a	0.20542613
174	0x3ea2c373	0.3178974
175	0xbeef279d	-0.4670991
176	0xbe536a32	-0.20645979
177	0xbe5f95ac	-0.21834439
178	0xbf0e1be0	-0.55511284
179	0x3db8781c	0.09007284
180	0xbe8885d2	-0.26664597
181	0x3e590f3c	0.21197218
182	0x3e662576	0.22475228
183	0xbd7fca93	-0.06244905
184	0xbea1e3b6	-0.31619042
185	0xbec2ab0d	-0.38021126
186	0x3d1c4725	0.038153786
187	0x3e097f1e	0.13427398
188	0xbe2a6e42	-0.16643623
189	0xbe0753d0	-0.13215566
190	0x3ee9135e	0.45522588
191	0x3e488c7b	0.19584839
192	0x3d2dee69	0.042463694
193	0xbdedb801	-0.116073616
194	0xbefc4f2c	-0.49279153
195	0x3c15b52b	0.009137432
196	0xbdaecbb3	-0.08534946
197	0xbe68d2d8	-0.2273668
198	0xbde09662	-0.10966183
199	0xbe86a24b	-0.26295695
200	0x3e3065ba	0.17226306
201	0x3e68435e	0.22681949
202	0x3d91c176	0.07116978
203	0xbd85e0e5	-0.06537036
204	0x3e15cd33	0.14629059
205	0x3dbef718	0.09324473
206	0x3d11d499	0.03560314
207	0xbeb5e89c	-0.3552903
208	0x3cd75763	0.026286786
209	0xbce19ffe	-0.02754211
210	0x3c74cb93	0.014941114
211	0xbe78b7b7	-0.24288832
212	0xbe377246	-0.17914686
213	0x3d384ddd	0.04499613
214	0x3e4cff72	0.2001932
215	0xbe61acc8	-0.22038567
216	0xbc8e5767	-0.017375661
217	0x3e82f74b	0.25579295
218	0x3dbfc922	0.09364535
219	0xbe25e61c	-0.16201061
220	0x3ecad23c	0.3961352
221	0x3e906010	0.2819829
222	0x3dc96407	0.09833532
223	0xbeaa8620	-0.33305454
224	0x3e741e91	0.23839785
225	0x3ee4bba4	0.44674408
226	0xbebef885	-0.3729898
227	0x3e14a25f	0.14515065
228	0x3e8c2c9c	0.27377784
229	0x3e0a4cad	0.13505812
230	0xbe6ae5eb	-0.22939269
231	0x3e4c6386	0.1995984
232	0x3e198b45	0.14994533
233	0x3eca5d2e	0.39524215
234	0xbd89fccd	-0.06737671
235	0x3c82216d	0.01588508
236	0x3d659d44	0.056058183
237	0x3d624a5d	0.0552467
238	0xbe66f7fc	-0.22555536
239	0xbe8b3a00	-0.27192688
240	0x3e47f22f	0.1952598
241	0xbe795b65	-0.2435127
242	0x3da7e2b2	0.081975356
243	0xbe94e925	-0.29084125
244	0xbe866df9	-0.26255777
245	0x3d9b2582	0.075755134
246	0xbcf843ca	-0.030305762
247	0x3dbaa1e0	0.091129065
248	0xbe175ab7	-0.14780699
249	0x3eb94709	0.36187008
250	0x3cb01231	0.02149305
251	0xbe81e784	-0.25371945
252	0x3dddffba	0.108397916
253	0x3e084096	0.13305888
254	0x3932ee60	0.00017064204
255	0x3d96c7dd	0.0736234

transformer.encoder.layers.1.self_attn.in_proj_bias f4 [48]
0	0xbcedb772	-0.029018138
1	0xbdedf78d	-0.11619482
2	0xbcc0a646	-0.023516785
3	0x3d95d5cc	0.07316169
4	0xba8eec83	-0.0010904226
5	0x3d03d2a7	0.032183316
6	0x3d9545c1	0.07288695
7	0xbd933cf3	-0.071893595
8	0x3e369ddb	0.17833655
9	0xbe25974e	-0.16171
10	0xbe9f768e	-0.31145138
11	0x3e29a8bc	0.16568273
12	0xbe190275	-0.14942344
13	0xbdc88020	-0.09790063
14	0xbe00a183	-0.12561612
15	0xbd90d2ab	-0.07071432
16	0x3d33fbfa	0.043941475
17	0x3d348b22	0.044078
18	0xbcd19da4	-0.025587864
19	0xbbd2436b	-0.0064167283
20	0x3c97db6d	0.018537248
21	0xbc34760b	-0.011014472
22	0xbc83ea85	-0.016103039
23	0x3c1bfe64	0.009521101
24	0xbd1d5d39	-0.038418982
25	0x3d5a8a4b	0.053354543
26	0x3bef74d0	0.0073076263
27	0xbd267506	-0.040638946
28	0xbbf0368d	-0.0073307217
29	0xbce651c5	-0.028115163
30	0xbcaa7d91	-0.020811828
31	0xbb8643e8	-0.0040974505
32	0xbcd17e7f	-0.025573013
33	0x3d126a91	0.03574616
34	0x3c40283e	0.0117283445
35	0x3bb3f469	0.0054917824
36	0x3d2e0f59	0.042495105
37	0x3c9f22a7	0.019425703
38	0x3cf988a4	0.030460663
39	0xbd4dfcf2	-0.050290056
40	0x3a249d95	0.0006279585
41	0xbd00481b	-0.031318765
42	0xbc8ad6b6	-0.016948085
43	0x3c65953b	0.01401263
44	0xbcac4bb6	-0.021032196
45	0xbc46feb0	-0.012145683
46	0x3ae91f21	0.0017785766
47	0x3c4d2f92	0.012523549

transformer.encoder.layers.1.self_attn.out_proj.weight f4 [16, 16]
0	0xbd8749ec	-0.06605896
1	0xbe8343ce	-0.25637668
2	0x3e865836	0.26239175
3	0xbf056572	-0.5210792
4	0x3e188cd3	0.1489747
5	0x3eae0369	0.33986977
6	0xbe81c46f	-0.2534518
7	0x3ea43c6b	0.32077345
8	0xbb4d489d	-0.0031323798
9	0x3ebe0804	0.3711549
10	0x3e7f01d0	0.24903035
11	0xbeeb6647	-0.4597647
12	0xbdf818d2	-0.12114109
13	0x3e42d90e	0.19028112
14	0x3ebfd946	0.37470454
15	0x3e1a302c	0.15057439
16	0xbdef0693	-0.11671176
17	0x3e898a43	0.26863298
18	0xbe9e5c03	-0.30929574
19	0xbf1eb126	-0.6198906
20	0xbd05fb78	-0.032710522
21	0x3f1ad860	0.6048641
22	0xbe9394c7	-0.28824446
23	0xbed5fdfc	-0.41795337
24	0x3eecfa6e	0.46284813
25	0x3dffe151	0.124941476
26	0x3dc8015f	0.097658865
27	0x3ea299e6	0.3175804
28	0xbd044e0f	-0.032301005
29	0x3ed12648	0.4084952
30	0x3e91598b	0.28388628
31	0xbe6d77cc	-0.2319023
32	0xbe973a45	-0.29536644
33	0xbdcd1b50	-0.10014975
34	0xbdbd6629	-0.09248001
35	0xbe01060e	-0.12599966
36	0x3eb82f96	0.35973805
37	0x3ee26514	0.4421774
38	0x3d833cc4	0.064080745
39	0xbeeb5c8c	-0.45969045
40	0x3ef563a1	0.47927573
41	0x3e783e75	0.24242575
42	0xbe5a7b2f	-0.21336053
43	0x3da58ac8	0.08083111
44	0xbe561339	-0.2090577
45	0x3e943a23	0.28950605
46	0xbe17b727	-0.14815961
47	0xbe904ff0	-0.28185987
48	0x3d05e5aa	0.032689728
49	0x3c8eb503	0.017420297
50	0xbd95e07a	-0.07318206
51	0xbeb34262	-0.35011584
52	0x3e73973f	0.23788165
53	0x3eef1a2b	0.46699652
54	0xbeacfeb5	-0.33788076
55	0xbddb3815	-0.10704056
56	0x3d8a5344	0.06754163
57	0xbeb37669	-0.35051277
58	0x3e53f7c3	0.20699982
59	0x3ec50ab8	0.3848474
60	0xbe6b21a8	-0.22962058
61	0x3f14d84d	0.5814255
62	0xbd266843	-0.040626775
63	0x3ea5a49c	0.3235215
64	0x3f23f61e	0.6404742
65	0xbe122367	-0.14271317
66	0xbef35a30	-0.47529745
67	0x3da01a0b	0.07817467
68	0xbe871cd0	-0.2638917
69	0xbe39a97b	-0.18131058
70	0xbeba2c9d	-0.36362162
71	0x3e0c6c37	0.13713156
72	0xbe79f3a0	-0.24409342
73	0x3d78abf4	0.060710862
74	0xbea46859	-0.3211086
75	0xbed07f0e	-0.40721935
76	0x3f29d42c	0.66339374
77	0xbe1430e0	-0.1447177
78	0xbe893b1a	-0.26802903
79	0xbe84509b	-0.25842747
80	0xbbe729f2	-0.007054561
81	0xbe66ca16	-0.22538027
82	0x3ead014d	0.33790055
83	0x3ca580bb	0.020202985
84	0xbe1d179c	-0.15341038
85	0x3d957ab4	0.072987944
86	0xbe64746c	-0.22310036
87	0x3d7d3544	0.061818376
88	0xbda75d77	-0.08172124
89	0x3e89b75d	0.26897708
90	0xbde1e212	-0.110294476
91	0x3e27f6f7	0.16402803
92	0x3d95c873	0.07313623
93	0x3e30c89b	0.17264025
94	0xbe9c1859	-0.30487326
95	0xbc4d082b	-0.012514154
96	0x3ed5374b	0.41643748
97	0xbea23d97	-0.31687614
98	0x3e2cce64	0.16875607
99	0x3eb5d678	0.3551519
100	0x3e22eb9f	0.15910195
101	0xbef75103	-0.48303995
102	0x3eb7047c	0.3574561
103	0x3e9f8cbc	0.3116206
104	0x3edc46a9	0.4302266
105	0xbe5061ba	-0.2034978
106	0x3ebdec0e	0.37094158
107	0x3d0b5691	0.034018103
108	0xbecff0b0	-0.40613317
109	0x3e01ddd2	0.12682274
110	0x3f0e7a9a	0.55655825
111	0xbe859be0	-0.26095486
112	0xbe802acc	-0.2503265
113	0x3e9871c8	0.29774308
114	0x3dfd4ade	0.123677954
115	0xbe8d0ac4	-0.27547276
116	0x3df35766	0.11881904
117	0x3e645869	0.22299351
118	0xbeeb90fa	-0.46009046
119	0xbde42aae	-0.11140953
120	0xbe84dd0b	-0.25949892
121	0x3e2aabb2	0.16667059
122	0x3dc464e0	0.09589553
123	0x3ebec721	0.37261298
124	0x3ecf85c0	0.4053173
125	0x3ebe917f	0.3722038
126	0xbe30ba31	-0.17258526
127	0xbecbf3b6	-0.39834374
128	0x3f28999d	0.65859395
129	0xbe7c75d2	-0.2465432
130	0x3d54cde3	0.05195416
131	0x3f4ea1a4	0.80715394
132	0x3cfbc69e	0.030734356
133	0xbef8d2f9	-0.4859846
134	0xbe899481	-0.26871112
135	0xbe09866e	-0.13430187
136	0x3e12dc3d	0.14341827
137	0xbcbe81ca	-0.023255248
138	0x3ea3a39a	0.31960756
139	0x3d97999f	0.07402348
140	0x3edc16f2	0.42986256
141	0xbea7c3d1	-0.32766584
142	0xbe79916d	-0.24371882
143	0x3e7a4b7e	0.2444286
144	0xbab1a606	-0.0013553507
145	0xbdc51614	-0.09623352
146	0x3edd4bbe	0.4322185
147	0x3eb28715	0.34868684
148	0xbed8e460	-0.42361736
149	0xbd5e1863	-0.054222476
150	0x3ebf7133	0.37391052
151	0xbdf01b2b	-0.11723932
152	0x3e80cacb	0.2515472
153	0xbe2a0c13	-0.16606168
154	0xbe2c335f	-0.16816472
155	0x3e2b18ed	0.16708727
156	0xbdebd56b	-0.115153156
157	0x3e9a2d83	0.30112848
158	0xbdc7e296	-0.09760015
159	0x3e060998	0.13089597
160	0xbf061298	-0.5237212
161	0xbb4c33da	-0.0031158836
162	0x3e0e8945	0.13919552
163	0xbd46b82c	-0.048515484
164	0x3f05ec39	0.5231357
165	0x3f1b711a	0.60719454
166	0xbd8647f5	-0.065566935
167	0xbee1e8bd	-0.44122878
168	0xbe766455	-0.24061711
169	0x3d66f279	0.056383584
170	0xbeed12b2	-0.46303326
171	0xbe35676b	-0.17715232
172	0xbe89bb27	-0.26900598
173	0x3df27d24	0.11840275
174	0xbf05f4e0	-0.52326775
175	0x3cff673b	0.031177154
176	0x3d7fa7aa	0.062415756
177	0xbcd3fd99	-0.02587776
178	0xbec6cdc1	-0.38828853
179	0xbe1f7eac	-0.15575665
180	0xbed49cdf	-0.41525933
181	0x3ddfe67c	0.10932633
182	0xbd82b272	-0.06381692
183	0x3eaa69a2	0.33283716
184	0x3ee64ab5	0.44978872
185	0x3cca0aff	0.024663446
186	0x3e352c13	0.17692594
187	0x3ea7a81d	0.32745448
188	0x3cdab213	0.02669624
189	0xbeaccbf3	-0.3374935
190	0x3e5e7ced	0.21727343
191	0xbd50e6e5	-0.05100145
192	0x3ea4677a	0.32110196
193	0x3e9d67db	0.30743298
194	0x3e0b4fc8	0.13604653
195	0xbf095509	-0.5364538
196	0x3dc1e0b0	0.09466684
197	0x3f0fe021	0.5620137
198	0xbe327ae7	-0.17429696
199	0xbe4421e6	-0.19153556
200	0xbd962912	-0.07332052
201	0xbe8446f2	-0.25835377
202	0xbe39f172	-0.1815851
203	0xbe1bff08	-0.15234005
204	0xbe80e9da	-0.25178415
205	0x3ec76a6c	0.3894838
206	0x3e2aeaa8	0.16691077
207	0x3e4d9211	0.20075251
208	0xbeb72ed4	-0.35777915
209	0xbc0bab75	-0.008524765
210	0x3e847392	0.25869423
211	0x3eeafaeb	0.4589456
212	0x3e285e37	0.1644219
213	0xbdf6899e	-0.12037967
214	0x3ceb940f	0.028757123
215	0x3edaed6b	0.4275926
216	0xbe7f0f7b	-0.24908249
217	0x3e9ff347	0.31240293
218	0x3e63d6ea	0.22249952
219	0xbeaaa4a7	-0.33328745
220	0x3e593802	0.21212772
221	0xbd2f5359	-0.042804096
222	0x3d8c6992	0.068560734
223	0x3cbbfd9d	0.02294808
224	0x3eed90e4	0.46399605
225	0x3da5a90b	0.08088883
226	0xbe9c1284	-0.30482876
227	0x3f0b89db	0.54507226
228	0x3d363273	0.044481706
229	0xbedb60e9	-0.42847374
230	0x3ec1321d	0.37733546
231	0xbefd276a	-0.49444133
232	0xbefdc99e	-0.49567884
233	0x3e0e5feb	0.13903777
234	0x3db4bba3	0.08824851
235	0x3eee1b55	0.46505228
236	0x3eaae0e8	0.33374715
237	0x3eb56628	0.35429502
238	0xbec50294	-0.3847853
239	0x3f079359	0.5295921
240	0x3e5f634a	0.2181522
241	0x3f15a31f	0.5845203
242	0xbefd329e	-0.4945268
243	0xbf441638	-0.76596403
244	0x3eb29264	0.34877312
245	0xbeb65111	-0.35608724
246	0x3ee53a66	0.44771117
247	0x3d132fd1	0.035934273
248	0x3f005983	0.50136584
249	0xbe4cc0cc	-0.19995421
250	0x3ea6b52b	0.32560095
251	0xbd33b1e4	-0.04387082
252	0xbf1349c5	-0.5753444
253	0xbe4226e3	-0.18960147
254	0x3ea26cfd	0.31723776
255	0x3cbceb08	0.02306129

transformer.encoder.layers.1.self_attn.out_proj.bias f4 [16]
0	0xbd4cbd50	-0.04998523
1	0x3c8713e6	0.01648898
2	0x3c0b0ece	0.008487416
3	0xbaa33117	-0.0012450543
4	0x3c943538	0.018091783
5	0xbda726c2	-0.08161689
6	0xbd371e6c	-0.044706747
7	0x3c8aada0	0.016928494
8	0x3d2accd9	0.041699264
9	0x3d385146	0.044999383
10	0x3d5a0a87	0.053232696
11	0xbc80c0fe	-0.015717026
12	0xbc866710	-0.016406566
13	0xbaa69c4b	-0.0012711374
14	0xbce9f28c	-0.028558038
15	0xbd2d68f6	-0.042336427
